models/model_weights/all_mammal_epitope_sequence_mod.pt (torch_old, 195832 bytes, 20 tensors)

input.weight f4 [136, 260]
000000 43 f7 9b bf 35 fc ec bf 32 85 0b c0 be f8 9e c0
       -1.2184833 -1.8514467 -2.1800046 -4.967864
000010 e1 26 3a c0 1f cb cf bf 4d 61 e7 bf 9a e4 57 c0
       -2.908623 -1.6233863 -1.8076569 -3.3733277
000020 e0 f0 12 c0 9c ee 81 c0 9b 4d 5d c0 52 22 c3 bf
       -2.2959518 -4.060377 -3.4578617 -1.5244849
000030 41 66 81 bf 90 2b 4b c0 b8 55 48 c0 dc a0 a0 bf
       -1.010933 -3.1745338 -3.1302319 -1.254909
000040 51 b4 d1 bf 47 53 0d c0 32 e6 8c c0 dc 42 2c c0
       -1.6383153 -2.2082078 -4.4031 -2.6915808
000050 49 4f d6 bf 3c ec 1b c0 1f db 1e c0 57 fa c8 c0
       -1.6742946 -2.4362936 -2.482124 -6.280559
000060 50 6c 3f c0 5d 13 76 bf e1 72 38 c0 d8 82 11 c0
       -2.9909859 -0.96123296 -2.8820117 -2.273611
000070 af 91 11 c0 6e dc 34 bf a5 5f 4c c0 c7 d9 24 c0
       -2.2745168 -0.7064885 -3.1933377 -2.575792
000080 14 e9 b8 c0 68 48 58 c0 da f9 3e bf e0 2b 5d c0
       -5.778452 -3.3794193 -0.74599993 -3.455803
000090 39 17 0f c0 eb 34 bf bf 01 1a b5 c0 28 2b ba bf
       -2.2357924 -1.4938024 -5.6594243 -1.454442
0000a0 7e 80 a3 bf 9d 8d bf bf 89 91 04 c0 42 46 1f c0
       -1.2773588 -1.4965092 -2.0713828 -2.4886632
0000b0 6e 5f 63 c0 26 27 cc bf df c7 d1 bf 95 1d 3c c0
       -3.5526996 -1.5949447 -1.6389121 -2.9393055
0000c0 d0 ba 05 c0 94 f2 2c c0 8a 26 9f c0 84 0a 16 c0
       -2.0895271 -2.7023058 -4.9734545 -2.3443918
0000d0 60 61 b3 c0 a8 e0 16 c0 a0 45 e8 bf 95 77 bb bf
       -5.6056366 -2.357462 -1.8146248 -1.4645869
0000e0 35 3c 25 c0 cc fa 1d c0 8b 70 82 c0 ba 3a be bf
       -2.5817997 -2.4684324 -4.076238 -1.4861672
0000f0 84 59 d2 bf da 13 2c c0 bd 25 31 c0 5c 36 30 c0
       -1.6433568 -2.6887116 -2.7679284 -2.7533178
000100 01 c7 87 c0 08 a3 9b bf 44 f0 27 c0 ca fe 17 c0
       -4.2430425 -1.2159128 -2.6240396 -2.374926
000110 27 e4 02 c0 49 87 b2 bf 92 c1 1d c0 0f 9b 3d c0
       -2.0451753 -1.3947536 -2.4649396 -2.962589
000120 00 b4 29 c0 d1 10 83 c0 ab 13 f9 bf 59 c7 ce bf
       -2.6516113 -4.095803 -1.9459127 -1.6154586
000130 9c 41 0a c0 bf 16 22 c0 19 18 a5 c0 9f 44 56 c0
       -2.1602545 -2.5326383 -5.1591916 -3.3479383
000140 e1 96 e1 bf e2 b1 95 c0 34 65 1e c0 db 29 4e c0
       -1.762417 -4.677964 -2.474927 -3.2213047
000150 a0 bc 20 c0 48 11 3e bf 6a 60 0b c0 df f9 38 c0
       -2.5115128 -0.7424512 -2.1777596 -2.890251
000160 d4 12 8d bf 0a 53 89 c0 f6 04 af bf ae ed 5d c0
       -1.1021371 -4.2913866 -1.3673389 -3.4676318
000170 a0 4d a4 bf 4d 63 1e c0 58 69 5f bf 53 89 b8 bf
       -1.2836189 -2.4748108 -0.87270117 -1.4416908
000180 fb 67 e2 bf 69 ea 30 c0 16 d6 ce c0 57 e0 59 c0
       -1.7687982 -2.7643073 -6.4636335 -3.4043176
000190 6b fb 39 c0 c5 76 5b c0 ee 0c ca bf e6 0f 07 c0
       -2.9059703 -3.429124 -1.5785196 -2.1103454
0001a0 ee e0 94 c0 d6 48 dd bf 03 a4 a1 bf c2 5e fa bf
       -4.652457 -1.7287853 -1.2628177 -1.9560168
0001b0 59 db a3 bf 0f 22 86 bf 20 34 f4 bf 9f 2b 02 c0
       -1.2801315 -1.0479144 -1.9078407 -2.0339124
0001c0 b2 cc 28 c0 b3 99 5e c0 2c 30 91 c0 48 da bc bf
       -2.6374936 -3.478131 -4.5371304 -1.4754114
0001d0 ef 15 59 c0 82 5f e8 bf b4 0c d1 c0 a2 94 9b bf
       -3.3919637 -1.8154147 -6.5328007 -1.2154734
0001e0 5c 37 54 c0 ad 89 30 c0 e9 cb 3f bf 8e ee 7d 3e
       -3.3158789 -2.758403 -0.7492052 0.24798033
0001f0 4d ae 4e bf 2a e1 49 bf 41 87 c8 bf 4d 08 d7 bf
       -0.8073471 -0.788592 -1.5666276 -1.6799408
000200 bf 52 57 c0 32 74 43 c0 22 7d 1f c0 01 1c 01 bf
       -3.3644254 -3.053967 -2.4920125 -0.50433356
000210 f0 45 3b c0 7f d6 5a bf 56 bc 94 c0 e6 5a de bf
       -2.9261436 -0.85483545 -4.64799 -1.737149
000220 05 da d4 bf dc 7a 19 c0 0a 8c eb bf b0 55 2a c0
       -1.6629034 -2.3981237 -1.8402112 -2.66148
000230 4e aa 34 c0 3c 47 12 c0 09 7e e5 bf 00 08 c7 bf
       -2.8228946 -2.2855978 -1.7929088 -1.5549316
000240 66 3a 99 bf 21 38 3f c0 ea 7a c7 bf b3 97 0f c0
       -1.1970947 -2.9878008 -1.5584385 -2.243634
000250 ce f9 60 c0 ec 48 14 c0 5f 88 0f c0 89 37 80 c0
       -3.5152469 -2.3169508 -2.2426984 -4.006779
000260 3f c3 14 bf fb f2 a0 bf 8a 26 d5 bf 9c 6f cd bf
       -0.5811042 -1.2574152 -1.6652386 -1.6049685
000270 65 78 84 c0 f5 e0 8b c0 11 69 7f c0 dd 86 f1 be
       -4.1396966 -4.3712106 -3.9907877 -0.47173205
000280 c5 23 cd bf aa be 88 bf 4a 72 83 bf 8b 26 9b bf
       -1.6026541 -1.0683186 -1.0269253 -1.2121137
000290 23 ea af bf a1 f2 05 c0 6a 34 3e c0 12 eb b8 bf
       -1.3743328 -2.092934 -2.971949 -1.4446738
0002a0 84 99 c2 bf cc 8a 45 c0 bd 40 25 bf 44 0b 76 c0
       -1.5203099 -3.0865965 -0.6455191 -3.8444376
0002b0 ab c3 6e c0 6d 9a 01 c0 aa eb a8 bf 5d 38 24 c0
       -3.7306926 -2.0250504 -1.3196919 -2.5659401
0002c0 bc 46 58 c0 11 f5 e0 bf 7f 43 3b 3e 76 52 17 c0
       -3.3793173 -1.7574788 0.18287466 -2.364408
0002d0 64 07 ba bf 72 b5 da bf 33 56 62 c0 a1 e0 f3 bf
       -1.4533505 -1.7086623 -3.5365112 -1.9052926
0002e0 8f de d1 bf 64 dd f2 bf c5 93 79 c0 ac 5d 0b c0
       -1.6396044 -1.8973813 -3.8996441 -2.1775923
0002f0 74 21 12 c0 e4 76 36 c0 1a 1e 35 c0 b0 a6 14 c0
       -2.2832918 -2.8510065 -2.8299623 -2.3226738
000300 81 d8 2e c0 27 3a 6d bf 4d 65 1a c0 98 3e ae bf
       -2.7319643 -0.9266686 -2.412433 -1.3612852
000310 d4 bd c9 bf d3 92 02 c0 2d 99 a5 c0 c0 1a 09 c0
       -1.5761056 -2.0402114 -5.174948 -2.1422577
000320 0a 6a 26 c0 42 d6 c2 bf 27 93 60 bf f5 75 2a c0
       -2.600222 -1.5221636 -0.87724537 -2.6634495
000330 4e f2 ef bf 42 0b 11 c0 3d 69 66 c0 01 1d 5b c0
       -1.874582 -2.2663121 -3.6001732 -3.4236453
000340 4c 41 33 c0 a4 fa 09 c0 6d 7e c1 bf f2 38 17 c0
       -2.8008604 -2.155923 -1.5116707 -2.3628507
000350 32 e3 ba bf 00 5e ab c0 21 c6 92 bf 1b 78 c7 bf
       -1.4600585 -5.3552246 -1.1466714 -1.5583528
000360 b9 2d 43 c0 ca 50 48 c0 fa cc 56 c0 f0 6d 22 c0
       -3.0496657 -3.129931 -3.3562608 -2.53796
000370 13 fd 56 c0 97 9f e9 bf 17 b1 08 bf 43 b8 27 c0
       -3.3591964 -1.8251828 -0.5339522 -2.6206214
000380 55 63 d4 bf 08 e0 be bf 24 cf fa bf 22 c1 6b c0
       -1.6592814 -1.4912119 -1.9594464 -3.683663
000390 7c 9b 06 c0 b3 a4 14 c0 3b 81 aa c0 d8 fd f3 bf
       -2.10324 -2.3225524 -5.328275 -1.9061842
0003a0 35 9d 13 c0 91 7c a7 c0 87 67 f8 bf 52 fc 01 c0
       -2.3064702 -5.233956 -1.9406594 -2.0310254
0003b0 cf ab 37 c0 a7 38 14 c0 3e 1c 90 c0 65 57 57 c0
       -2.8698614 -2.3159578 -4.5034475 -3.3647091
0003c0 23 fd 53 c0 f3 e3 ae c0 e2 a6 34 c0 9f 91 07 c0
       -3.3123252 -5.465326 -2.8226857 -2.118263
0003d0 bd 66 1a c0 99 4f 10 c0 41 98 01 c0 39 dc ed bf
       -2.4125206 -2.2548583 -2.0249178 -1.8582832
0003e0 c3 e7 13 c0 dc 30 e2 bf 53 fc eb bf fc 4f 73 c0
       -2.3110206 -1.7671161 -1.8436378 -3.8017569
0003f0 78 52 b2 bf ac 99 13 c0 78 e5 07 c0 a3 02 f9 bf
       -1.3931417 -2.3062544 -2.1233807 -1.945393

input.bias f4 [136]
000000 73 a5 87 3d a5 03 7e bd fe dd 2c bc 55 86 3c 3d
       0.06623354 -0.062015194 -0.010550974 0.046026547
000010 ec 66 ab 3d 31 21 44 3d f9 0b 9c 3c da 6d 0c bd
       0.0836924 0.047883216 0.019048678 -0.03428445
000020 c8 e6 ce 3c 39 95 85 3a cb ed 54 bd 81 77 8b 3d
       0.02525653 0.0010191567 -0.05198459 0.06809903
000030 f5 54 8d bd 0e 67 4c bb aa 36 e4 bd a5 25 8f 3d
       -0.0690097 -0.0031189355 -0.11143239 0.06989602
000040 f1 e6 11 3d c3 68 27 3d c2 d8 89 3c 05 d2 68 ba
       0.035620634 0.040871393 0.016826991 -0.0008881393
000050 51 3d a1 bd 87 cc 9a bd c3 70 1d bc 6c 82 32 3d
       -0.07873023 -0.07558542 -0.009609404 0.04358141
000060 76 07 c4 3d 5f e6 ba bc 7b e0 9d bd 09 bd f0 bc
       0.095717356 -0.022814928 -0.07708832 -0.029387014
000070 75 9f bb ba 3b 1c 16 3d 65 74 ab bd cf 39 df bb
       -0.001431449 0.036648016 -0.0837181 -0.0068123112
000080 c1 a9 ae 3c fc 46 3a bd 75 89 29 3d 41 2d ef bc
       0.02132118 -0.045477852 0.041390855 -0.029196383
000090 db ed 87 bc ca 64 90 bc da 9d 17 bd c2 4b 4d 3e
       -0.01659291 -0.017626185 -0.037015773 0.2004843
0000a0 78 3d 16 3d 29 c7 53 3d 23 b8 86 3d b7 ad 20 3d
       0.036679715 0.051703606 0.0657809 0.039228167
0000b0 e1 49 55 3d 76 0d 89 bd cd 7a 85 bd 30 ea 42 3d
       0.05207241 -0.066920206 -0.06517563 0.04758662
0000c0 d9 15 5c 3d e5 8e 99 3c f9 79 91 3d 80 3c 16 3c
       0.053731773 0.018744895 0.071033426 0.009169698
0000d0 72 d8 1c bb 3d 07 9e 3d 58 27 24 3d 9b 77 d1 bc
       -0.0023932722 0.07716224 0.040076584 -0.025569728
0000e0 40 6b 72 bd bb 16 21 3d a4 be 64 3c 18 ac f4 3c
       -0.059184313 0.039328318 0.013961468 0.029867217
0000f0 5b 89 1c 3d fc 4c 4d bb b2 1e de bd d1 80 52 bd
       0.03821693 -0.0031326404 -0.108456984 -0.05139238
000100 3d ef bb 3c 40 18 76 3c 10 60 14 3d e0 04 73 3d
       0.022941226 0.01502043 0.036224425 0.05933082
000110 73 d9 0d 3d 0f 79 b7 3c b0 70 cf 3a c9 4f 81 3d
       0.034631204 0.022396592 0.001582643 0.06314046
000120 e2 61 06 3d ae 4d f0 bc ce dc 5c bd 2a 67 0d 3d
       0.032808192 -0.029333916 -0.053921513 0.034522213
000130 f2 ad 7b 3d 64 f9 9e 3c 86 f8 53 bd 2e 80 ac bc
       0.061445184 0.019406028 -0.051750682 -0.021057215
000140 83 46 8f 3c 5c 47 8c bc 29 04 94 3b 47 92 75 bd
       0.017489677 -0.01712387 0.0045170975 -0.059953954
000150 80 ec 7d 3c 0d 31 7f 3d 44 d1 5d 3c 78 7b c9 bc
       0.0154982805 0.062302638 0.013538662 -0.024595007
000160 17 b1 21 3d f2 38 65 3d 7e fe 67 bd eb 30 b8 bd
       0.039475527 0.05596251 -0.056639187 -0.08993705
000170 1f 3b 6b bd 8d bf 1b bb 06 21 4c bd bf 9d 49 bd
       -0.05742943 -0.0023765296 -0.04983618 -0.049222704
000180 45 0c 4b bd 7c 1e f1 3c 45 2e 8a 3d 52 64 68 bd
       -0.049572248 0.029433481 0.067471065 -0.056736298
000190 de ca 0b 3c 0b 3e 17 bd 9f 71 6f 3c 33 6d bb 3c
       0.008532254 -0.036924403 0.014614492 0.022879219
0001a0 0f 34 2c 3a a5 53 b0 bd 10 77 31 3d a9 b7 3c 3d
       0.00065690366 -0.08609704 0.043326437 0.04607359
0001b0 9e 70 80 3d b4 5c 3c 3d a8 d4 2c 3b 81 8c 6e 3d
       0.0627148 0.045986846 0.002637187 0.058239464
0001c0 a5 c6 00 bd 70 bd 96 bc 09 d0 7e 3d 46 43 3f bd
       -0.031439442 -0.018400878 0.062210117 -0.046695016
0001d0 a9 e0 9a 3d c4 45 8d bc 80 7c a8 3c 9c ef d9 bd
       0.07562382 -0.01724518 0.020567179 -0.10641405
0001e0 e4 83 18 bd 2a 0c 54 3d 01 7f 54 bd d9 f0 3c bc
       -0.037235156 0.051769413 -0.051878933 -0.011532032
0001f0 97 f2 fb 3c 51 2e cf 3d c9 10 92 3c 48 25 cb 3d
       0.030755324 0.10116256 0.01783027 0.0991922
000200 e5 89 2f bd c7 66 5a bd 93 81 ba 3c 46 e2 16 bd
       -0.042856116 -0.053320672 0.022766864 -0.036836885
000210 41 9c 0a bd 72 3d be bd 30 4c e5 bb 81 fb 99 bb
       -0.03384042 -0.092890635 -0.0069976076 -0.004699171

bn1.weight f4 [136]
000000 15 aa 9e 3f c9 87 92 3f 09 fd ab 3f 14 52 81 3f
       1.2395655 1.1447688 1.3436595 1.0103173
000010 1d 5b 5c 3f f6 2b 61 3f fa 07 87 3f f9 e0 8f 3f
       0.8607653 0.87957704 1.0549309 1.1240531
000020 ab f4 9e 3f 65 70 ad 3f 9c b6 b1 3f 63 48 92 3f
       1.2418417 1.3549925 1.3883853 1.1428341
000030 0c fb a3 3f 0a 80 92 3f 96 7f 82 3f 7e b8 80 3f
       1.2810988 1.1445324 1.0195186 1.0056303
000040 db 56 66 3f ec 30 5b 3f 64 f5 ac 3f 52 0a 97 3f
       0.8997628 0.85621524 1.3512387 1.1800025
000050 f8 21 98 3f af 6d 64 3f 0e 79 4f 3f 05 d1 91 3f
       1.1885366 0.89229864 0.8104409 1.1391913
000060 d1 a0 68 3f 80 9a 8b 3f ea cd 9c 3f ce 1b 9e 3f
       0.90870386 1.0906525 1.225034 1.2352235
000070 ef 12 7a 3f 96 2e 9f 3f fc c2 72 3f 2d e8 92 3f
       0.9768514 1.2436092 0.9482877 1.1477104
000080 63 c4 58 3f 05 e3 a3 3f 35 d6 91 3f 8d 6b 97 3f
       0.8467466 1.2803656 1.1393496 1.1829697
000090 fb 5d 73 3f 7b 82 96 3f bc 96 91 3f 96 5b 13 40
       0.9506528 1.175857 1.1374125 2.302465
0000a0 2c ad 6b 3f 4a 52 4a 3f 30 84 79 3f 6e 32 a1 3f
       0.92061114 0.79031813 0.9746733 1.2593515
0000b0 04 a5 6a 3f 3f f1 8b 3f 30 a1 3d 3f 32 c7 6d 3f
       0.91658044 1.0932997 0.7407408 0.9288207
0000c0 fd db 5c 3f d2 0b 88 3f bb db 54 3f 4d 16 80 3f
       0.86273175 1.0628607 0.8314778 1.0006806
0000d0 f0 50 71 3f 7b 1b 94 3f ae 3d 4e 3f 7c b6 a1 3f
       0.94264126 1.1570886 0.80562866 1.2633815
0000e0 df f5 91 3f d6 37 58 3f c1 6c 86 3f db 18 96 3f
       1.1403159 0.844602 1.0501939 1.1726335
0000f0 be e4 7e 3f 2d 9a 75 3f 1e ec 74 3f d8 a4 91 3f
       0.9956778 0.9593838 0.95672786 1.1378431
000100 be 1e 99 3f 76 53 4f 3f c7 21 95 3f 69 c1 a3 3f
       1.1962507 0.80986726 1.1650933 1.2793399
000110 f8 a8 8b 3f 42 92 44 3f 04 06 7c 3f 29 48 94 3f
       1.091094 0.7678567 0.9844668 1.1584522
000120 16 58 65 3f 96 a8 96 3f aa ad 9c 3f 49 5c 95 3f
       0.89587533 1.1770198 1.2240498 1.1668788
000130 ea 83 90 3f 00 40 69 3f a6 cf 6a 3f 7b d5 54 3f
       1.1290257 0.9111328 0.91723096 0.83138245
000140 37 ec 93 3f 52 49 89 3f 0c e5 92 3f a1 3c 68 3f
       1.1556462 1.07255 1.147615 0.9071751
000150 d9 2c 4c 3f 27 59 5e 3f f5 06 51 3f c5 19 40 3f
       0.7975593 0.86854786 0.8165124 0.7503932
000160 db ab 96 3f 76 2c 5e 3f 06 bc 8d 3f 19 fb 7d 3f
       1.1771196 0.8678659 1.1073005 0.9921127
000170 26 58 6a 3f a0 a2 89 3f 77 2a 66 3f c2 36 7f 3f
       0.91540754 1.0752754 0.89908546 0.9969293
000180 74 2e 98 3f c5 49 89 3f 1f b0 71 3f 29 6b 9d 3f
       1.1889176 1.0725638 0.94409364 1.2298328
000190 e7 0d 9a 3f 15 68 8e 3f 0c f0 8d 3f 2b 53 90 3f
       1.2035493 1.1125513 1.1088881 1.1275381
0001a0 56 79 73 3f b9 e4 65 3f 75 4c a0 3f f9 83 9d 3f
       0.9510702 0.8980213 1.2523333 1.23059
0001b0 b5 9e 77 3f 11 01 9f 3f 48 d7 35 3f df d4 9f 3f
       0.9672654 1.24222 0.7103162 1.2486838
0001c0 2e 97 95 3f db a4 66 3f 9a a4 9e 3f 93 f6 6c 3f
       1.1686761 0.900953 1.2393982 0.9256374
0001d0 ed 1b 91 3f 7c 83 76 3f 62 eb 85 3f 23 a6 69 3f
       1.1336647 0.9629438 1.0462458 0.9126913
0001e0 fa 6e 8c 3f bf 18 6c 3f 84 e5 55 3f 46 c8 91 3f
       1.0971367 0.9222526 0.8355334 1.1389244
0001f0 44 03 95 3f 16 89 9c 3f 26 9f 6a 3f 08 c9 e1 3f
       1.1641622 1.2229335 0.9164909 1.7639475
000200 04 15 67 3f e3 48 99 3f 0a 6a 94 3f 73 ec 71 3f
       0.9026644 1.1975368 1.159486 0.9450142
000210 4a 0c 7b 3f 4d f5 88 3f fc f3 98 3f b8 b4 92 3f
       0.98065627 1.069986 1.1949458 1.1461401

bn1.bias f4 [136]
000000 ea 6c 88 bf d0 ac 5c bf e0 0c 88 bf db 94 96 bf
       -1.0658238 -0.8620119 -1.0628929 -1.1764177
000010 89 af 33 bf f7 21 22 bf 06 46 a0 bf f4 8a 78 bf
       -0.7018972 -0.63333076 -1.252137 -0.97087026
000020 70 37 ad bf d5 f8 c3 bf d7 0e 8c bf 94 aa 90 bf
       -1.3532543 -1.5310313 -1.0942029 -1.1302056
000030 ac 27 9b be 43 3e aa bf 84 c3 7a bf f2 1a 76 bf
       -0.30303705 -1.3300251 -0.97954583 -0.96134865
000040 24 9d 64 bf 7e ed 33 bf 8f 6d 00 bf 88 10 95 bf
       -0.8930228 -0.7028426 -0.50167173 -1.164567
000050 0b a5 8b bf 05 aa 58 bf 90 f7 7a bf 29 c5 aa bf
       -1.0909742 -0.8463443 -0.98034 -1.3341419
000060 7b 1a 81 bf 2b d3 91 bf d6 5a b0 bf 59 f0 85 bf
       -1.0086206 -1.1392568 -1.3777721 -1.0463973
000070 4e 25 07 bf ba f3 91 bf 5e dd 84 bf d5 43 99 bf
       -0.527913 -1.1402504 -1.0380056 -1.1973826
000080 c8 ce 4e bf 50 55 ae bf 21 75 96 bf d9 c6 ab bf
       -0.80784273 -1.3619785 -1.1754495 -1.3420058
000090 5a 72 64 bf f0 a8 a8 bf 18 a1 a3 bf 4b 23 39 c0
       -0.89236987 -1.3176556 -1.2783537 -2.892779
0000a0 7b b6 5d bf 09 35 2e bf d5 ce 7b bf 01 fd 82 bf
       -0.8660657 -0.68049675 -0.98362476 -1.0233461
0000b0 e3 2f 7f bf 7f 12 b4 bf 48 80 00 bf 81 cf 0f bf
       -0.99682444 -1.4068145 -0.5019574 -0.56176
0000c0 01 bf 43 bf e0 a5 98 bf eb 0a 2a bf cc b6 89 bf
       -0.76463324 -1.1925621 -0.6642291 -1.075891
0000d0 97 29 77 bf 5c bb 88 bf a2 0b 52 bf 80 88 b4 bf
       -0.96547836 -1.0682178 -0.82049 -1.4104156
0000e0 d1 3e 91 bf d7 cf 57 bf fb 1b 8a bf 4d f7 82 bf
       -1.1347295 -0.84301513 -1.0789789 -1.023172
0000f0 e1 1c 7b bf 96 fb 46 bf 29 10 56 bf 82 c3 a6 bf
       -0.9809094 -0.7772764 -0.8361841 -1.3028414
000100 04 f7 8d bf 1c 94 81 bf 5c 38 56 bf d9 8a 85 bf
       -1.1091008 -1.0123324 -0.8367975 -1.0432998
000110 07 8b 8d bf be 03 47 bf 1c 10 89 bf ab 27 af bf
       -1.1058053 -0.77740085 -1.0708041 -1.3683981
000120 a0 7c 2f bf ce db a4 bf 3e c9 96 bf 6c 44 9b bf
       -0.6854954 -1.2879579 -1.1780164 -1.2130256
000130 22 7d a7 bf fe ce 0a bf 46 b3 50 bf 6d 5d 34 bf
       -1.3085063 -0.54222095 -0.8152355 -0.70455056
000140 d7 89 9b bf fb 38 a7 bf 91 18 ae bf 29 2b 6d bf
       -1.215144 -1.3064264 -1.3601247 -0.9264398
000150 8f e3 6f bf 41 80 36 bf 54 70 8b bf 63 bc 67 bf
       -0.937066 -0.7128945 -1.0893655 -0.9052183
000160 c7 c7 85 bf 5b b8 77 bf be 17 ac bf 88 0a 17 bf
       -1.0451592 -0.9676568 -1.3444746 -0.59000444
000170 36 45 36 bf 6c 99 5b bf ad 44 1b bf 94 92 f8 be
       -0.7119936 -0.8578098 -0.60651666 -0.4854933
000180 84 08 98 bf 63 95 9c be bb 0d 35 bf 25 f6 3e bf
       -1.1877599 -0.30582723 -0.70724076 -0.74594337
000190 c6 51 90 bf 55 1b 95 bf 04 74 91 bf fa a0 ac bf
       -1.1274955 -1.1648966 -1.136353 -1.3486626
0001a0 bd 2a 31 bf 2d e5 47 bf ce 31 5d bf 38 72 a9 bf
       -0.6920584 -0.7808407 -0.8640412 -1.3237982
0001b0 8c c7 1e bf e8 2f ac bf 36 89 3e bf 81 45 72 bf
       -0.62023234 -1.345212 -0.7442812 -0.94637305
0001c0 a1 3d 92 bf 46 b5 6e bf af f7 b5 bf e3 12 64 bf
       -1.1425058 -0.9324535 -1.4216212 -0.8909132
0001d0 eb 65 8f bf 39 0f 85 bf c0 63 81 bf 44 b2 84 bf
       -1.1202978 -1.039527 -1.0108566 -1.0366902
0001e0 7d 27 39 bf 74 48 01 bf 75 8a 4e bf 55 8c 90 bf
       -0.7232588 -0.5050118 -0.8068002 -1.1292826
0001f0 be 3d a4 bf 02 1a a6 bf 27 f7 2b bf bf e2 08 c0
       -1.2831342 -1.2976687 -0.67174 -2.1388395
000200 c7 ca 65 bf 32 3c ba bf d5 b8 86 bf 8c d7 4c bf
       -0.8976254 -1.454962 -1.0525156 -0.800164
000210 f2 54 96 bf 7f 92 8f bf a0 e0 a4 bf 46 24 9c bf
       -1.1744673 -1.1216582 -1.288105 -1.219857

bn1.running_mean f4 [136]
000000 d0 be f1 c1 fa 61 b2 40 a2 f6 96 41 df 03 97 c0
       -30.21817 5.57446 18.870426 -4.7192225
000010 6b 1c 60 41 d0 9d 0a be d1 ec ac c1 6f 8a cc c1
       14.006938 -0.13536763 -21.615633 -25.567595
000020 26 e0 07 c2 4e d4 6b c1 12 c0 97 41 b6 ce a9 c1
       -33.968895 -14.739332 18.968784 -21.225933
000030 f9 74 fa 40 97 3b ac c1 78 f8 2e 41 e5 b7 2a 41
       7.826779 -21.529097 10.935661 10.669896
000040 f7 8d fb 40 88 15 10 40 ef ab 0b 41 38 82 c3 c1
       7.8610797 2.2513142 8.729476 -24.438583
000050 79 8c 47 c1 0b 05 97 40 42 49 5e 41 78 bb ce 41
       -12.471795 4.7193656 13.892885 25.841537
000060 d1 04 13 41 2d e0 8b c1 c0 1f 05 c2 42 27 04 c2
       9.188676 -17.48446 -33.281006 -33.038338
000070 c7 c1 46 3e a9 82 e0 c1 47 02 ad 40 26 42 cc c1
       0.19409858 -28.063799 5.406528 -25.532299
000080 2d 67 0f 41 42 04 a6 c1 26 4c 37 c1 28 5d 86 c1
       8.962689 -20.752079 -11.456091 -16.795486
000090 f0 5b c8 40 55 b2 c7 c1 df 76 54 c1 8d ca 3b 41
       6.261223 -24.962076 -13.279021 11.736951
0000a0 52 56 fb 40 6b bf db 40 13 9b 0b 41 43 59 b3 c1
       7.854287 6.8671165 8.72536 -22.418585
0000b0 42 aa b7 3f 45 ce 8e c1 db ad 30 40 5d 7e b0 3e
       1.4348834 -17.850718 2.7606113 0.34471408
0000c0 c3 bd d2 40 bc 1d 5b c1 09 a4 13 41 4f db 5a 3f
       6.5856643 -13.694759 9.227548 0.8549089
0000d0 7c bc 3f 41 50 75 b5 c1 04 3d c0 40 7d 1a ba c1
       11.983517 -22.682281 6.007448 -23.262934
0000e0 da 87 4c c1 cb 1d fa 40 bc d8 05 c2 77 75 f5 c1
       -12.783167 7.816137 -33.461655 -30.682356
0000f0 45 c4 66 41 4b 30 3b 41 e6 62 ad 40 62 a5 93 c1
       14.422917 11.69929 5.4183226 -18.455753
000100 7d 66 f9 c1 18 cd 07 41 26 f9 07 c1 1a 4c 7d 40
       -31.175043 8.487572 -8.498327 3.9577699
000110 8c 41 cd c1 48 bc 1d 41 8a a0 2a c1 c9 6f a9 c1
       -25.657005 9.858467 -10.664194 -21.179583
000120 50 e9 f1 40 d6 9b 96 c1 78 8e 28 c1 2c 5c d8 c1
       7.5597305 -18.826092 -10.534782 -27.045006
000130 08 32 99 c1 f1 a1 8b 40 14 64 35 41 b9 73 97 40
       -19.14943 4.363518 11.336933 4.7328763
000140 59 62 ec c1 26 1b 22 c1 99 3d 93 c1 5e 64 01 41
       -29.548021 -10.131628 -18.405077 8.087004
000150 d7 60 ea 40 c5 84 30 40 05 08 7d 41 60 61 14 41
       7.3243213 2.7581036 15.814458 9.273773
000160 f2 52 1c 41 dc b0 3b 41 0d 52 b3 c1 cd 31 d1 40
       9.77025 11.730679 -22.415064 6.537329
000170 c5 bd bc 40 c6 75 cc 40 03 63 58 40 0d 10 a3 c0
       5.898165 6.3893766 3.3810432 -5.0957093
000180 d0 d0 ce c1 f7 15 cf 40 2a 26 88 40 ea 28 60 bf
       -25.85196 6.4714313 4.2546587 -0.8756243
000190 3c 72 b0 c1 23 ba ef c1 12 09 ef c1 6f 41 b3 c1
       -22.055779 -29.965887 -29.879429 -22.40695
0001a0 0d d9 ff 40 ee bb ec 40 e7 1d 09 41 b4 b7 65 c1
       7.9952455 7.3979406 8.5698 -14.357349
0001b0 49 87 93 40 3b 49 6b c1 ce 97 23 41 84 c2 ec c1
       4.6102643 -14.705379 10.224562 -29.594978
0001c0 25 35 a0 c1 24 e8 61 41 45 61 b8 c1 54 7c f4 40
       -20.02595 14.119175 -23.047495 7.640177
0001d0 84 03 c5 c1 ac f1 38 41 3c 8a f6 c1 4c 80 83 41
       -24.626717 11.559002 -30.817497 16.437645
0001e0 b5 84 96 40 d1 13 5a 40 c8 c0 14 41 1c a2 01 41
       4.7036996 3.4074595 9.297066 8.1020775
0001f0 d0 af a2 c1 99 5f 9e c1 b4 22 82 40 a7 cb bb 41
       -20.335846 -19.796679 4.066736 23.47444
000200 44 97 d9 40 8f c6 2f c1 cd 8a 7e c1 dc 59 60 40
       6.799715 -10.985976 -15.908887 3.5054846
000210 cc 28 ed 40 94 17 c5 c1 d7 e7 d2 c1 b2 92 49 c1
       7.41123 -24.636513 -26.363203 -12.598314

bn1.running_var f4 [136]
000000 76 11 7a 41 18 33 03 41 2d 45 9a 40 79 68 16 41
       15.629263 8.199974 4.8209443 9.400506
000010 ff 00 df 40 a0 cf c3 40 7f 90 21 41 02 89 b5 41
       6.9688716 6.119095 10.097777 22.691898
000020 91 e8 e9 41 db 7d 9e 41 85 49 b9 40 be 05 a8 41
       29.238558 19.811453 5.7902246 21.002804
000030 d9 cf 07 41 63 0f a6 41 d1 ea d9 40 51 e7 e9 40
       8.488244 20.757513 6.809914 7.309487
000040 9f 78 00 41 fe f3 ca 40 5d 1a 0f 41 10 10 d3 41
       8.0294485 6.342284 8.943936 26.382843
000050 3b a9 70 41 d6 76 b2 40 12 22 eb 40 4d ae ca 40
       15.041316 5.5770063 7.347909 6.333777
000060 6f 33 08 41 44 b7 a9 41 cc 42 df 41 d9 03 f3 41
       8.512557 21.214485 27.907616 30.376879
000070 75 de d6 40 65 a0 ec 41 7b 42 f4 40 92 f1 e0 41
       6.7146554 29.578318 7.6331153 28.117954
000080 42 bf e0 40 73 20 a7 41 8f d2 6f 41 81 fe a5 41
       7.023347 20.890844 14.988906 20.74927
000090 b8 25 ef 40 a9 72 d2 41 60 13 7f 41 c6 1f 23 3f
       7.4733543 26.305986 15.94223 0.6372036
0000a0 a5 7e df 40 67 90 f2 40 b2 63 f3 40 4f 9d b2 41
       6.9842095 7.5801272 7.60592 22.32681
0000b0 7f 96 a0 40 dc 9e 81 41 dc e9 00 41 34 e2 85 40
       5.018371 16.202568 8.057095 4.1838627
0000c0 e6 1c 03 41 27 df 81 41 f0 2a ee 40 60 c4 db 40
       8.194555 16.233961 7.4427414 6.8677216
0000d0 fa a0 ed 40 a5 c9 bc 41 ad 5c d7 40 df 39 b3 41
       7.4259005 23.59846 6.730063 22.403257
0000e0 32 ea 4a 41 86 6b fa 40 6c 0d dd 41 70 4a b0 41
       12.682177 7.8256254 27.631554 22.036346
0000f0 8e 1b e5 40 08 1a 01 41 d9 a8 ee 40 c8 47 98 41
       7.1596136 8.068855 7.4581113 19.03505
000100 bf 6e 02 42 f9 9d ee 40 20 18 df 3f 40 0d 5d 3f
       32.60815 7.456784 1.7429237 0.8634834
000110 7c d9 a0 41 dc 08 02 41 42 53 cd 40 78 cd 9d 41
       20.106194 8.127163 6.4164133 19.725327
000120 c4 51 dd 40 0f 87 2b 41 29 38 71 41 64 40 c3 41
       6.916231 10.720473 15.076211 24.40644
000130 39 b2 97 41 28 55 04 41 41 db e6 40 22 b4 f8 40
       18.962023 8.27079 7.2142644 7.771989
000140 9c 73 c3 41 ff c4 53 41 9b 2c a7 41 de d6 cd 40
       24.43145 13.235595 20.89678 6.432479
000150 bc 0e ff 40 ea e4 d8 40 a1 01 e5 40 b0 6b 0b 41
       7.9705486 6.7779436 7.156449 8.713791
000160 8e 5e b1 40 d1 d2 dd 40 48 5d ba 41 ce 6f 08 41
       5.5427923 6.9319844 23.295547 8.527296
000170 23 ba e2 40 47 8e ee 40 34 19 e2 40 92 5d 68 40
       7.085222 7.454868 7.0655766 3.630711
000180 4f 6a ce 41 68 6b 00 41 82 20 e5 40 2d fb 26 40
       25.801908 8.026222 7.1602182 2.6090806
000190 01 9a 95 41 6e 5a e8 41 7c 3f b7 41 f1 e1 9b 41
       18.700197 29.044155 22.905998 19.485323
0001a0 01 8c 00 41 6a 5a fd 40 88 c7 13 41 10 2f 83 41
       8.034181 7.917287 9.236214 16.39798
0001b0 09 91 db 40 2d 86 5a 41 3a 58 bf 40 ae ff ce 41
       6.8614545 13.657758 5.97952 25.874844
0001c0 c7 1c b5 41 a6 21 f1 40 ef 2e bb 41 5d ca fa 40
       22.639051 7.5353575 23.397917 7.8372025
0001d0 73 c6 d6 41 db 03 f0 40 10 a3 cf 41 43 0b f1 40
       26.846899 7.5004706 25.95462 7.5326247
0001e0 46 62 ef 40 2f 55 e3 40 28 17 e8 40 2b ab ac 40
       7.4807463 7.1041484 7.2528267 5.3958945
0001f0 a0 df 93 41 0f d3 9d 41 f8 d5 fd 40 7c f2 99 40
       18.484192 19.728056 7.932369 4.81085
000200 b6 49 eb 40 ed d3 87 41 a5 a6 82 41 af 89 db 40
       7.352748 16.97848 16.33137 6.860557
000210 38 2b fa 40 0d 4c ba 41 b7 cf ba 41 c9 30 8d 41
       7.8177757 23.287134 23.351423 17.64882

fc1.weight f4 [68, 136]
000000 67 e4 42 bf 66 1e e7 bf 48 7b 78 3f 3b 7e e3 3e
       -0.76129764 -1.8056152 0.9706311 0.44432244
000010 a5 a4 0b bf 7e 7b a7 bf 6b d4 7a bf 77 17 21 3f
       -0.545481 -1.3084562 -0.97980374 0.6292643
000020 b0 7e 1a 3f b7 b4 d9 3f bb 9e 0a bf f5 a3 1a 3f
       0.6034956 1.7008275 -0.54148453 0.6040643
000030 48 58 bc bf 44 1e 01 bf 2e c1 79 bf 15 69 ac be
       -1.4714441 -0.50436807 -0.97560394 -0.3367392
000040 52 5d 90 bf a4 51 06 bf 65 4a 0b bf 05 f4 02 be
       -1.1278479 -0.52468324 -0.5441039 -0.12788399
000050 61 f8 ba 3f 12 e6 02 c0 5e e8 e4 be b3 8c ee 3e
       1.4607049 -2.0452924 -0.44708532 0.4659172
000060 2d 91 ae bf 59 87 12 3e c3 25 a7 3f d0 56 92 3e
       -1.3638054 0.14309444 1.3058399 0.28581858
000070 3b a5 90 bf 23 68 35 3f 4b 4e 76 bf 90 bd 01 3f
       -1.1300424 0.70862025 -0.96213216 0.50679874
000080 c0 98 93 be eb dc 8c 3e b8 52 ab 3f 44 34 58 3f
       -0.28827477 0.27512297 1.3384619 0.8445475
000090 f2 ed 07 c0 59 c0 2a 3f 79 74 07 3e 1e 34 20 bf
       -2.123898 0.6669975 0.13228025 -0.62579525
0000a0 4b 64 d9 bf ce c6 7c bf 4e 6c a4 bf 13 3b c3 bd
       -1.6983732 -0.9874085 -1.2845552 -0.09532752
0000b0 45 ef bd bf 4c 3c c7 3e 83 ab 8d bf dc 27 9e bf
       -1.4838644 0.3891319 -1.1067966 -1.2355914
0000c0 f5 a9 92 bf 6a 81 33 3f 96 f4 43 bf 37 9a 0d 3f
       -1.1458117 0.70119345 -0.76545084 0.5531344
0000d0 a1 57 ce bf d7 23 68 3f 19 ae 95 bf 99 04 88 3f
       -1.6120492 0.9067969 -1.1693755 1.0626403
0000e0 f7 69 8d 3f ba f9 91 bf 53 ae 99 bf 12 67 0c bf
       1.1047963 -1.1404335 -1.2006325 -0.5484477
0000f0 d1 d3 76 bf 72 48 8c bf 0a ad 14 c0 4f 6c 2a 3f
       -0.96416956 -1.0959609 -2.3230615 0.66571516
000100 39 60 22 bf df 5b 28 bf ab 02 a5 be 12 d0 04 c0
       -0.63428074 -0.65765184 -0.32228598 -2.0751996
000110 d0 20 94 3d 5e 56 1c 3e ec f3 8e be f1 f4 fe be
       0.07232821 0.15267321 -0.27920473 -0.4979625
000120 d9 ce 50 be 61 42 a6 bf d9 d1 0d 3f 0b a5 6c be
       -0.20391406 -1.2989007 0.5539833 -0.23109834
000130 2a a5 19 3f c7 58 d7 bf 66 be 9f 3e b3 cd e9 bf
       0.60017645 -1.6823968 0.3119995 -1.82659
000140 01 75 4d 3d c3 55 18 3f 98 d7 a6 3f f3 9a 9c bf
       0.05016041 0.5950586 1.3034544 -1.2234787
000150 58 46 ab bf 25 9f 23 bf e0 40 27 bf 2b 6b 94 bf
       -1.3380842 -0.6391471 -0.65333366 -1.1595205
000160 4d f2 14 40 22 26 4d be 62 ea e7 3d 14 14 06 c0
       2.3272889 -0.20034078 0.11324002 -2.0949755
000170 e2 8b 98 bf 81 00 23 bf fd 17 85 bf 5a c7 63 bf
       -1.1917689 -0.63672644 -1.0397946 -0.8897606
000180 47 71 8b bd 56 f7 c2 bf 19 56 77 be eb 53 d9 bf
       -0.06808715 -1.5231731 -0.24153937 -1.6978735
000190 e3 09 26 3e ff d6 79 3f df ee 9f 3e 02 0a 62 3f
       0.16214709 0.97593683 0.31236932 0.8829652
0001a0 5f fa 5a 3f cf 9c 90 bf 75 1c ce bf 4b 60 44 3f
       0.85538286 -1.1297854 -1.6102434 0.7670943
0001b0 e5 ef b0 bf 0c da 9b 3f 04 2d c2 bf cb 2e ad be
       -1.382321 1.2175918 -1.5169988 -0.33824763
0001c0 37 64 3d bc 84 1f 11 3f 00 9b 9a 3e 60 0e d8 be
       -0.011559538 0.56688714 0.3019638 -0.42198467
0001d0 51 2c 6d 3f ed bc 69 bf 63 a9 3a 3f e1 17 01 3f
       0.92645746 -0.913039 0.72914714 0.5042706
0001e0 13 50 24 c0 d0 02 07 bf f9 b1 2a bf 3b 07 dd bf
       -2.5673873 -0.52738667 -0.66677815 -1.7267832
0001f0 1c ab 76 3d 04 d1 ab 3e 2f 5b f3 bf ab 3c 89 3f
       0.060221776 0.33557904 -1.9012202 1.0721639
000200 67 91 5a bf 3e cc 7d 3f fa c2 ab 3d b3 5b f8 bf
       -0.85378116 0.99139774 0.08386798 -1.9402984
000210 61 87 eb bf 53 29 72 3f 44 80 9c 3e 21 fb 82 3f
       -1.8400689 0.94594306 0.3056661 1.0232888
000220 c4 7b 18 be 9b 5c f0 bd 0a 14 3a 3f d9 2c 51 bf
       -0.14890963 -0.11736413 0.7268683 -0.8170906
000230 e4 26 9c 3f f1 aa 7c be dc 60 66 be 90 6f eb bf
       1.2199368 -0.24674584 -0.22497886 -1.8393421
000240 8e 07 af be 2d b3 99 bd 73 20 7d bc 33 57 ea bf
       -0.3418545 -0.07504878 -0.015449631 -1.8307861
000250 72 9c 9e be 80 e1 57 bf dc ff 93 3e 9d 1f 3b bd
       -0.30978733 -0.8432846 0.28906143 -0.045684446
000260 6f 3d 38 3f 82 4a 43 3f a3 f3 4e be 15 da 1a bf
       0.7196874 0.76285565 -0.20210128 -0.60489017
000270 da 19 1e bf 37 b7 a2 bd 69 9b bd 3f f5 19 06 3f
       -0.61758196 -0.07945102 1.4813052 0.5238336
000280 91 55 0f 3f 2e ab 3d bf 8f 73 39 be 8d 42 ce bf
       0.5598994 -0.74089324 -0.18110488 -1.611406
000290 8a e7 eb 3c cd b6 86 bf 07 cc a2 bd c6 49 43 bf
       0.02879693 -1.0524536 -0.079490714 -0.76284444
0002a0 2d 5a 8f 3e b0 96 a8 bf 38 47 49 bd ef 85 f4 be
       0.27998486 -1.3170986 -0.049140185 -0.47758433
0002b0 88 41 43 be 69 c3 a6 bf c6 9f db bf aa f2 0c c0
       -0.19067967 -1.3028384 -1.7158134 -2.202311
0002c0 51 5a 85 3e 53 54 98 3e 7e e2 af 3e cb 01 b9 bf
       0.26045468 0.29751834 0.34352487 -1.4453672
0002d0 a4 e4 02 bf ca 96 da be a1 97 e4 3e 5c 8d b9 3d
       -0.5113013 -0.42693168 0.44646934 0.09060165
0002e0 6e 5a 59 3e 7a de c7 3e 91 16 2f 3f f3 a0 6e be
       0.21225902 0.39036924 0.6839381 -0.23303585
0002f0 96 08 8c 3f cc 1c 08 bf ec 43 c1 3e c1 31 5a 3e
       1.094012 -0.5316894 0.37747133 0.21308042
000300 71 71 46 bf 9e 65 c3 bc f7 87 77 bf 55 a1 8e bf
       -0.7751685 -0.023852166 -0.9669184 -1.1142985
000310 f6 ca 88 3d 89 86 b4 3d 04 ff c5 3e 98 07 ea be
       0.06679337 0.08814723 0.38671124 -0.4570892
000320 e8 ce e6 be 0b c5 2e be e6 3d 49 3e 50 7f b9 be
       -0.45079732 -0.17067353 0.19652519 -0.36229944
000330 09 51 12 bf 37 2a df 3e d3 7c 1d 3e f9 b9 18 be
       -0.571549 0.43586895 0.15379648 -0.14914693
000340 8d bd 17 3f 78 ee 41 bf da 5b ab bf 74 df 58 bf
       0.59273607 -0.757545 -1.3387406 -0.8471596
000350 fc 3b ec bf 7c c0 f5 bd a4 24 ff 3e 0e b9 5c bd
       -1.8455806 -0.11999604 0.49832642 -0.05388742
000360 9c 01 9d bf 45 f2 19 bf 7e ec 37 bf b9 2c 8d be
       -1.2266116 -0.601353 -0.71845233 -0.27573183
000370 00 b6 5c 3e a1 67 21 3e da ad 47 3d d6 dc 3a 3f
       0.21553802 0.15762188 0.048749782 0.7299322
000380 c4 b8 96 3e 58 39 61 3b 12 d6 83 bf ac fd 57 bd
       0.2943784 0.0034366455 -1.0299704 -0.052732155
000390 f2 fa 14 3e 1e e0 fe be a0 19 24 3e 1d af 22 be
       0.14548853 -0.49780363 0.160254 -0.15887113
0003a0 86 41 25 bf 47 4a 8a 3e c0 1e 70 3e 54 19 82 be
       -0.64553106 0.27009794 0.2344923 -0.2540995
0003b0 a9 a0 27 be eb 21 d4 bf b9 f1 8a bf 78 dc d8 be
       -0.1636988 -1.6572851 -1.0855018 -0.42355704
0003c0 bc 98 c7 3d 6a 0e 92 3e 13 75 89 3e bb cc 05 bf
       0.09745929 0.28526622 0.26847133 -0.5226552
0003d0 99 37 3b be 0d 81 3e bf c1 34 88 3f 0d 3e ac 3d
       -0.18282928 -0.74415666 1.0641099 0.08410273
0003e0 99 ef 21 bf 11 8a ad 3f 98 e3 45 bf 87 83 c9 be
       -0.6325622 1.355776 -0.77300406 -0.3935816
0003f0 d3 a7 60 bf a8 66 8c 3f bd 3d 47 be ff 83 9a 3f
       -0.8775608 1.0968828 -0.19457145 1.2071532

fc1.bias f4 [68]
000000 92 28 30 3d 9d ea fb bc 29 8a 4f 3d 4e 04 20 3d
       0.04300744 -0.03075152 0.05066887 0.039066605
000010 b5 67 08 3d 7b 03 87 bd 1f c3 80 3d 50 65 80 3d
       0.033302028 -0.06592461 0.062872164 0.06269324
000020 c7 3d 8a bb 72 34 93 bc 73 a9 83 3b 44 dc bf bb
       -0.00421879 -0.017969344 0.0040180027 -0.005855115
000030 de fd 80 bd f3 c7 9b 3c 0e db cc bc 5b 3c 06 3c
       -0.06298421 0.019016242 -0.025006797 0.008193101
000040 f8 23 3a bd e4 e6 ad bd d5 ec 19 3d c3 fc ea 3c
       -0.04544446 -0.084913045 0.037579376 0.02868498
000050 be a1 ff bc 0d b4 2a bd 73 5c 1a 3c d0 79 27 3d
       -0.031205054 -0.041675616 0.009421456 0.040887654
000060 44 67 6f bd d4 01 a8 bd d2 82 bb bd 95 41 2c bd
       -0.05844809 -0.08203474 -0.09155811 -0.04205473
000070 6a 06 6f bc 16 90 8c bd fc 04 a1 bd 59 48 a2 bd
       -0.014588932 -0.0686342 -0.07862279 -0.079239555
000080 d5 f9 57 3c 60 cb 08 bd 07 5c 4e 3d 0e e3 b4 3c
       0.013182123 -0.03339708 0.050380733 0.022080924
000090 3e 90 9b bd b8 8c 30 bc 16 f8 7e bc ab af 45 3d
       -0.075958714 -0.010775737 -0.015562078 0.048263233
0000a0 b4 ff 8f bc 30 c2 8c bd 65 2c b6 3b 09 93 9c 3d
       -0.017577983 -0.06872976 0.0055594915 0.07645232
0000b0 20 a3 a9 bd 1c b0 9f bc 2d 5a 1c 3d 34 3c 4d 3d
       -0.08283067 -0.019493155 0.038171936 0.050106242
0000c0 04 7f 69 bd 5e 1e d5 bc ac 0a b6 3a 4f 77 77 bd
       -0.057005897 -0.026015457 0.0013888679 -0.060416516
0000d0 07 1b 8c 3d 47 d0 27 3d 18 80 70 bd 5d c7 a0 bd
       0.068410926 0.040970113 -0.05871591 -0.078505255
0000e0 70 2d a0 bb 30 38 6e 3d 9b 27 29 bc 1f 9d 2c 3d
       -0.004888229 0.058159053 -0.010324384 0.04214203
0000f0 bc 9a 15 3d 98 40 a7 bd ec a0 41 bd 68 47 2d 3d
       0.03652452 -0.08166617 -0.047272608 0.042304426
000100 5c d9 94 3d 86 6a 58 3d 0c 53 97 bc 04 9b 84 3d
       0.072680205 0.052835964 -0.018472217 0.064748794

bn2.weight f4 [68]
000000 05 d2 80 3f f4 77 99 3f b6 37 8c 3f a5 9e a3 3f
       1.0064093 1.1989732 1.0954502 1.278279
000010 46 f7 99 3f 9f 22 3f 3f 02 89 97 3f 89 c7 9b 3f
       1.2028587 0.746622 1.1838686 1.2170268
000020 d2 7f a3 3f 1e c1 41 3f 1f 94 b2 3f 55 ca a6 3f
       1.2773383 0.756853 1.3951453 1.3030497
000030 bb 39 d3 3f 69 12 99 3f 1d 0a 36 3f d2 5b 99 3f
       1.6501993 1.1958743 0.7110918 1.1981146
000040 86 8f a3 3f 15 1f b0 3f 0b b1 85 3f a8 57 51 3f
       1.2778175 1.3759485 1.0444654 0.8177438
000050 c5 cf 1a 3f e4 00 ae 3f 57 6c 09 40 52 48 9d 3f
       0.6047328 1.3594022 2.1472375 1.2287695
000060 6f 6f a5 3f c0 d5 96 3f 3d 1f 43 3f ab 7c 47 3f
       1.2924632 1.1783981 0.7621954 0.77924603
000070 4c f1 91 3f da b6 a8 3f d8 ab 5e 3f 02 a6 c3 3f
       1.1401763 1.3180802 0.8698096 1.5285037
000080 25 42 9f 3f 2b 2f 41 3f 8b e0 96 3f 61 3c 94 3f
       1.2442061 0.754626 1.1787275 1.1580926
000090 68 2e 9f 3f 6a a9 a2 3f f0 e9 b5 3f 91 ae 9f 3f
       1.2436037 1.2707951 1.4212017 1.2475148
0000a0 ba 3f 85 3f a3 59 47 3f 7a f3 92 3f f0 6a a5 3f
       1.0410073 0.7787115 1.1480553 1.292326
0000b0 f0 63 85 3f 7b 4d 83 3f 38 56 a6 3f e6 32 8f 3f
       1.0421124 1.025802 1.2995062 1.1187408
0000c0 91 4a 89 3f 06 c2 c2 3f b1 48 8f 3f 6a 35 0f 3f
       1.0725881 1.5215461 1.1194059 0.5594088
0000d0 85 75 a0 3f 25 67 17 3f 25 d5 aa 3f 64 cf 93 3f
       1.2535864 0.5914176 1.3346297 1.1547666
0000e0 97 20 a7 3f 78 c3 ac 3f 9b 13 93 3f bc 0e 9d 3f
       1.3056821 1.3497152 1.1490358 1.2270122
0000f0 d1 75 9c 3f 40 46 88 3f 1c b0 9b 3f 38 1d 9c 3f
       1.2223455 1.0646439 1.2163119 1.2196417
000100 86 88 87 3f b6 6c 9e 3f 74 37 92 3f a8 c5 52 3f
       1.0588539 1.2376926 1.1423173 0.8233285

bn2.bias f4 [68]
000000 5e ce 02 be 47 59 92 be 81 a9 93 be 5b bc 9a be
       -0.12774035 -0.28583738 -0.2884026 -0.3022183
000010 16 2f 97 be 94 8a bd 3e 35 f9 2d bf 73 e1 da be
       -0.2952811 0.3701979 -0.67958385 -0.4275013
000020 28 da 96 bf 04 1b 55 3e 91 0e db be a8 33 95 bf
       -1.1785326 0.20811087 -0.4278455 -1.1656389
000030 0a e1 fb bf 60 c1 17 bf 94 90 da 3e 38 70 41 be
       -1.9678051 -0.5927944 0.4268843 -0.18890464
000040 dc 9c 86 be bd e3 03 bf 21 8e d1 3c 49 ed d7 bf
       -0.2629155 -0.51519376 0.025580468 -1.6869289
000050 c2 3a c7 3e b3 34 ed bf 93 e5 50 c0 8e 31 33 bd
       0.38912016 -1.8531708 -3.264012 -0.04374843
000060 ff 76 ab bf 09 5c 3f 3d 09 aa cb bf 02 dc 79 be
       -1.339569 0.04671863 -1.5911266 -0.24400333
000070 54 50 de bd a3 6c 90 be 23 cd 6e 3d 9c a3 e9 bf
       -0.10855165 -0.28207883 0.058301102 -1.8253055
000080 2a 8a 4a bf bc 4b e1 3e 8b 07 4d bf 88 ff 68 bd
       -0.7911707 0.44003093 -0.80089635 -0.05688432
000090 77 dd 32 be c7 2a d0 be 55 f1 ca bf 0f 8a d4 bd
       -0.17467295 -0.40657637 -1.5854899 -0.10377895
0000a0 7b 99 27 bf cc 95 c0 3e 1b a6 13 bf 8a 01 13 be
       -0.6546857 0.37614286 -0.5767533 -0.14356056
0000b0 98 50 9e be 11 de fd be a3 a8 88 be 21 b6 17 be
       -0.30920863 -0.49583486 -0.2669116 -0.1481557
0000c0 6d 2e 83 be f4 4d 53 bf 83 cb c2 bd 5d dd bc 3e
       -0.25621358 -0.8254082 -0.09511473 0.36887637
0000d0 f4 96 82 bf 9e 9b c3 3e e2 97 82 bf 95 f0 27 be
       -1.0202317 0.38204664 -1.0202601 -0.16400369
0000e0 fd 44 c5 be 5b 96 9a be 14 28 89 be 56 4d d4 be
       -0.38529196 -0.30192837 -0.2678839 -0.41465253
0000f0 d1 dc 20 bf ae f2 ee bd e1 67 de bc 85 f5 42 bf
       -0.6283694 -0.11667381 -0.027149143 -0.76155883
000100 10 41 1d 3d 21 c3 9e be d3 45 04 3d 76 9a 69 3e
       0.038392127 -0.31008247 0.032293152 0.22812828

bn2.running_mean f4 [68]
000000 25 45 cb c0 20 e1 1a c0 21 80 e9 be bb 96 7a c0
       -6.3521905 -2.4199905 -0.45605567 -3.9154499
000010 b6 86 8d bf fc cf 55 bf 86 e1 31 c1 d8 0f 3a c0
       -1.1056736 -0.83520484 -11.117559 -2.907217
000020 72 14 5b c1 fa 91 7d 3f 80 b6 e8 bf 32 89 c9 c0
       -13.692492 0.9905087 -1.8180695 -6.2979975
000030 10 b5 45 c1 02 11 08 c1 25 6f a2 3e 5b 7e e6 c0
       -12.356705 -8.504152 0.31725422 -7.2029243
000040 fd bb 5f c0 21 a6 93 c0 22 93 58 c0 df 8e 81 40
       -3.495849 -4.6140294 -3.3839803 4.0486903
000050 f3 04 40 40 74 b0 37 c1 81 8c 8e c0 3a fc 11 c1
       3.000302 -11.480579 -4.4546514 -9.124079
000060 e0 71 2f c1 41 60 26 c1 55 8a 96 40 d5 d4 13 40
       -10.9653015 -10.3984995 4.704386 2.3098652
000070 dd ed 00 c1 5e 20 25 bf 5b fe 79 3f 9b ab 47 c1
       -8.058072 -0.64502513 0.9765374 -12.479396
000080 3f 6f fd c0 92 6f 0b 3f 35 2f 0c c1 d7 60 79 c0
       -7.91983 0.5446712 -8.761525 -3.8965356
000090 99 d1 08 c1 04 a1 36 c0 0e 1d 2d c1 88 6f f9 c0
       -8.551171 -2.8535776 -10.819593 -7.7948647
0000a0 3c f4 bb c0 72 b6 03 c0 aa ae de c0 2f 1e 02 c1
       -5.873564 -2.0580106 -6.9588213 -8.132369
0000b0 e4 d2 9b bf 5b 02 d9 c0 01 77 a2 c0 12 3b 22 c1
       -1.2173734 -6.7815375 -5.077027 -10.139421
0000c0 0f 67 22 40 dd 0b bf c0 f6 69 28 c1 1b d1 58 40
       2.5375402 -5.970198 -10.525869 3.3877628
0000d0 8c db 00 c1 ae 94 a4 40 9b a9 57 c0 a9 99 4a c0
       -8.0536 5.1431494 -3.369727 -3.1656287
0000e0 82 36 62 c0 63 0f 72 c0 95 5e 38 c0 5a 34 48 c0
       -3.534577 -3.7821891 -2.8807728 -3.1281953
0000f0 7c 48 37 c0 4e 9d e3 bf e8 7d 5b c0 e6 e0 39 c1
       -2.863799 -1.778238 -3.4295597 -11.617407
000100 70 e5 84 c0 c5 ff 73 3e 64 8e 0c c1 ca f8 fe bf
       -4.1530075 0.23828037 -8.784763 -1.9919674

bn2.running_var f4 [68]
000000 d3 76 80 42 29 a1 b3 41 02 de 8a 41 9a b9 ca 41
       64.23208 22.453691 17.358402 25.340626
000010 6b e5 ab 41 7b 4c de 41 b0 c9 c3 42 74 61 95 41
       21.48702 27.787344 97.89392 18.672585
000020 16 c8 f7 42 4c a7 96 41 23 71 aa 41 88 5d 81 42
       123.89079 18.831688 21.305243 64.68268
000030 ea ad b4 42 5e 22 96 42 77 80 ce 41 dc a0 f3 41
       90.339676 75.06712 25.812727 30.453545
000040 8b 8d 9b 41 7f 39 34 42 d2 70 b2 41 d8 66 2e 42
       19.444113 45.05615 22.305088 43.600433
000050 f9 5c d1 41 a4 cf 9f 42 5e 2a 0c 42 2f 44 b6 42
       26.170397 79.90555 35.041374 91.13317
000060 3a aa bf 42 2d 56 86 42 5b 0b 11 42 5d 20 8e 41
       95.83247 67.16831 36.26109 17.765802
000070 30 5f 36 42 87 27 c9 41 c2 2e b5 41 00 2b c6 42
       45.592957 25.1443 22.647831 99.083984
000080 46 91 59 42 67 3f ee 41 5b d0 7d 42 f9 83 a0 41
       54.39187 29.780958 63.453472 20.06444
000090 2b d5 bd 42 2d 6d 9e 41 f8 a7 a5 42 36 82 98 42
       94.91634 19.803308 82.828064 76.25432
0000a0 ee 2f 1c 42 99 48 ad 41 eb 59 1b 42 01 90 af 42
       39.046806 21.660448 38.83781 87.78126
0000b0 7b 48 97 41 44 2e 2b 42 5b 6d 68 42 19 4c be 42
       18.91039 42.79518 58.106792 95.14863
0000c0 90 8b c0 41 a1 a1 52 42 c2 47 c7 42 ad 1c da 41
       24.068146 52.65784 99.64015 27.264002
0000d0 b1 c6 30 42 fc 47 dc 41 49 7a ba 41 20 ad ad 41
       44.194035 27.535149 23.30971 21.709534
0000e0 1f dc ab 41 1f 5a 9c 41 da df 99 41 40 84 ba 41
       21.482481 19.544004 19.234303 23.314575
0000f0 e1 86 ad 41 9f d7 a5 41 ce e7 b2 41 71 24 cf 42
       21.690859 20.730284 22.363186 103.571175
000100 7c fe b2 41 0b bf 10 42 c7 37 2a 42 c3 4b a6 41
       22.37426 36.186565 42.55447 20.786993

fc2.weight f4 [34, 68]
000000 4d 74 15 3f 8a 79 30 bd e2 df 30 3e 84 ea c6 bd
       0.58380586 -0.04308466 0.17272905 -0.09712699
000010 da de 23 3e da 7c b0 be 83 e3 9a 3f a4 46 30 3e
       0.1600298 -0.34470254 1.2100681 0.17214447
000020 2e bc e5 3f af 48 9e 3e dc 75 1f 3d bd f1 77 3f
       1.7948053 0.30914828 0.03893076 0.9685324
000030 f3 40 cb 40 4c f8 91 3f 53 f8 fc be 21 99 5d 3e
       6.3516784 1.1403899 -0.49408206 0.21640445
000040 58 ac cb bd 96 04 d8 3e fa b3 2a bd 4e 0b 36 be
       -0.09944981 0.42191 -0.041675545 -0.1777775
000050 ed 25 44 be 52 27 9e 40 fa 48 01 3e f7 05 4d 3e
       -0.19155093 4.9423 0.12625495 0.20021807
000060 f9 2a 22 40 80 a8 2f 3f 24 f6 b0 be c5 a0 0e be
       2.5338728 0.68616486 -0.3456279 -0.13928516
000070 4b 91 0c 3f 72 80 51 3e 21 54 a1 3e 72 a7 99 40
       0.549092 0.20459154 0.31509498 4.80169
000080 92 fe a2 3f f5 f4 95 be 8d b6 d1 3f d6 04 ab bd
       1.2733939 -0.2928845 1.6383835 -0.08350532
000090 f7 5d 70 3f 8b 22 6e 3e 04 7c 54 40 c7 a3 94 3e
       0.9389338 0.23255365 3.3200693 0.29031202
0000a0 4e c6 5a 3f 6d 52 a9 be 1a 5d fa 3e 12 ee 48 bd
       0.8545884 -0.33070698 0.48899156 -0.049055167
0000b0 9e 92 29 3e bd 53 09 3f 8e e6 0e 3f 4a af bc 3f
       0.16559836 0.536434 0.5582055 1.4740994
0000c0 8c 71 35 3e 7c 7d 2e 3e 5a f9 40 3f f8 11 03 bf
       0.17719096 0.17040056 0.7538048 -0.51199293
0000d0 f0 6b 49 3f d8 ed b0 be 48 8f 4a 3e d1 a7 4d be
       0.78680325 -0.3455646 0.1978122 -0.20083548
0000e0 f1 ab e2 3d 2c 1d 86 3d 28 d9 51 3e 35 d5 0b 3c
       0.110679515 0.06548533 0.20492995 0.008534719
0000f0 29 be e9 bd ba e9 d0 3d b9 22 d3 be 08 5c c0 3f
       -0.11413223 0.1020083 -0.4123743 1.5028086
000100 79 1f 80 be ff 5e 05 3e bf 09 02 3f dc 27 b9 be
       -0.25024012 0.1302452 0.5079612 -0.36163223
000110 69 de 92 bf e9 53 49 bd a3 68 4e 3e e5 bb d4 3e
       -1.1474124 -0.04915229 0.20157103 0.41549602
000120 a0 be 39 3e 34 42 6a bd 82 c2 87 bd f4 6c fd 3e
       0.18139124 -0.057192042 -0.06628896 0.49497187
000130 6d 19 00 3f f8 39 e3 3e 2e b0 53 be f2 6c b0 be
       0.50038797 0.44380164 -0.20672676 -0.3445812
000140 28 35 00 be 8d bf 33 bf 96 7e 90 bb df f6 a3 bf
       -0.12520278 -0.7021416 -0.0044096215 -1.2809714
000150 0e f9 f1 3e 61 e5 41 bf 62 7c e5 3d e4 90 f7 3f
       0.47260326 -0.7574063 0.11205365 1.9341092
000160 bc fd 3e bb b8 86 d3 3f cb e3 45 c0 78 d9 e0 bf
       -0.0029142937 1.6525488 -3.0920284 -1.7566366
000170 55 bd e9 3d 34 b3 d1 bf 72 ab ba 3f e6 fa 8e 3b
       0.11413065 -1.6382813 1.4583571 0.0043634055
000180 6b 70 c9 bf 81 a7 af 3e 48 2f 1d 3e 29 3a db be
       -1.5737432 0.34307483 0.15350068 -0.4281781
000190 b3 48 08 40 f5 98 b5 3e 33 94 de 3f 5b 92 66 3f
       2.1294372 0.3546826 1.7388977 0.9006707
0001a0 7f b1 c0 bf 55 32 5d 3d ba f9 b8 3f a0 77 f7 bf
       -1.5054168 0.05400308 1.445121 -1.9333382
0001b0 ab 92 c8 3e 9f 7d 4c 3e bc 59 8f bf dc b9 f6 bf
       0.391744 0.19969796 -1.119926 -1.927547
0001c0 08 7f 05 3e 8d 2a 81 3e 78 2c c1 bf b0 5d c0 bf
       0.1303674 0.25227776 -1.5091696 -1.5028591
0001d0 f1 4f b2 3e 8c 74 b7 bf 97 70 a0 bf 72 5e 07 be
       0.34826615 -1.4332442 -1.253436 -0.13219622
0001e0 ac ef 15 c0 5a d0 8e bc 16 cf fa 3f 6f d2 21 3f
       -2.3427534 -0.017433334 1.9594448 0.6321172
0001f0 8e bd 34 3f ab b1 86 3f d5 57 d5 3e 7f 1e a4 3e
       0.7060174 1.052297 0.41668573 0.32054517
000200 7f 27 23 3f c0 c2 f8 bd 62 25 ea 3e e0 d7 7b bd
       0.6373214 -0.121465206 0.45731646 -0.06148517
000210 d5 07 08 3f 1e a8 7f 3e 24 07 dc bf a5 7d 1f 3e
       0.5313695 0.24966475 -1.7189679 0.15575273
000220 48 1f 52 3f c5 f1 09 bc 6e 39 c1 3d e2 0e aa bd
       0.8207898 -0.008419459 0.09434782 -0.0830362
000230 4c 71 2e 3d 8d 36 37 bf e0 f7 26 3f 9f 2c 83 be
       0.042588517 -0.7156761 0.6522198 -0.2561998
000240 42 3b 0d 40 c2 99 83 3e 13 91 85 3e e4 cd 80 3f
       2.2067418 0.25703245 0.26087245 1.0062833
000250 d1 bb d1 40 60 b8 3a 3f 95 d2 15 bf 26 36 9f 3e
       6.554177 0.72937584 -0.5852445 0.31096
000260 e6 dc d0 be 00 45 e4 3e 37 6d 8c be 8f 29 57 be
       -0.40793532 0.44583893 -0.27427074 -0.21011947
000270 20 e4 da be 6a 12 ad 40 63 cb e3 3e f9 23 8f 3e
       -0.4275217 5.408498 0.4449111 0.27957132
000280 4d e6 e2 3f 23 6a 04 3f 21 11 0a bf b4 3f c0 be
       1.7726532 0.5172445 -0.53932387 -0.37548602
000290 87 85 19 3f c0 35 ba 3e d5 20 08 3e 9d 9c 88 40
       0.5996937 0.36369133 0.13293774 4.269118
0002a0 0e 37 8d 3f 87 dc 1d bf be 61 a5 3f be 90 a4 be
       1.1032426 -0.61664623 1.2920454 -0.3214168
0002b0 6a 67 65 3f 25 b7 a0 3e 6a 01 76 40 14 eb 50 3f
       0.8961092 0.31389728 3.8438363 0.816087
0002c0 f4 9a 40 3f cf 5f d8 be 17 ab 09 3f 04 14 06 bc
       0.7523644 -0.42260596 0.5377669 -0.008183483
0002d0 eb c8 e4 3d 17 1c be 3f 4d 3d be 3e 4b dc 6b 3f
       0.111711346 1.4852322 0.37156144 0.92133015
0002e0 d0 0f 4b 3e 3b 06 9f 3e dc d2 b4 3e 26 53 05 bf
       0.1983025 0.3105944 0.35317123 -0.5208
0002f0 b3 21 90 bb d2 aa b6 be b1 41 07 3f 8e 2b 2d be
       -0.0043985485 -0.356772 0.5283461 -0.16911146
000300 d4 9a 73 3d 70 55 bd be b4 39 c9 3d 42 a4 02 3d
       0.059473827 -0.36979246 0.09825459 0.03189493
000310 fb d2 85 3e 11 3d 9c 3c 1a f9 27 bf ac 53 34 3f
       0.26137528 0.019072087 -0.65614474 0.70440173
000320 fd 14 06 bf bf 23 f9 3e 11 bc 9a 3e 4b 3b 17 bf
       -0.52375776 0.48660085 0.30221608 -0.5907485
000330 68 7f 1c bf 31 4b c4 3e 5e 4d 5d 3e d8 21 3f 3f
       -0.61131907 0.38338616 0.21611544 0.74661016
000340 a1 9d 29 bd ca f8 2d bc 7b 53 80 bf c1 46 ac 3f
       -0.041410092 -0.010618398 -1.0025476 1.3459092
000350 d1 e7 e7 bf d1 bd 81 3e b6 5d 74 3f 9f 05 ea bf
       -1.811762 0.2534013 0.9545549 -1.8282965
000360 ff e6 b7 c0 8b 13 68 bf c9 b0 58 3d 9d c0 a8 bf
       -5.746948 -0.9065482 0.05290297 -1.3183781
000370 e7 18 bf 3f ee fb 7f bf 4e 7e b8 3d 63 3a 27 40
       1.4929475 -0.9999379 0.09008466 2.6129386
000380 d0 f3 59 be d0 8b 38 c0 18 a1 71 c0 2c d2 43 bf
       -0.21284413 -2.8835335 -3.7754574 -0.7649257
000390 08 a7 c9 bf ed 37 5a bf 2e 22 1b 40 fb 89 be bd
       -1.5754099 -0.85241586 2.4239612 -0.093036614
0003a0 b8 21 82 bf 76 56 c7 3e fb ce a8 3d be 38 8f c0
       -1.016654 0.38933152 0.082426034 -4.4756765
0003b0 ed fe 39 3f 9b 1c c6 3e 04 df 07 3f de ca 31 3f
       0.7265461 0.386937 0.5307467 0.69450176
0003c0 36 ca 2e bf f1 87 85 3f 6f d6 13 c0 ac 52 1e bf
       -0.682773 1.0432111 -2.309963 -0.618449
0003d0 a7 f0 70 3f 14 a0 ef 3e ac 56 36 bf 1c 5c 57 bf
       0.94117206 0.46801817 -0.71226 -0.8412492
0003e0 58 09 ff 3e 12 83 e3 3e 65 ce 6f bf 99 6b 11 bf
       0.49811816 0.44435936 -0.9367431 -0.56804806
0003f0 87 2d c6 3e d2 68 b1 bf ab a8 47 bf c1 0f bf be
       0.3870661 -1.3860114 -0.7799174 -0.37316707

fc2.bias f4 [34]
000000 7d e8 7b 3c b3 6f 9f bd 38 69 84 3d ca ea 8f bd
       0.015375254 -0.07784977 0.064653814 -0.07027204
000010 32 87 f4 3d 20 e8 87 3d 9f f1 91 3c 20 a2 c3 3d
       0.11939849 0.06636071 0.01781541 0.09552407
000020 1e 4c d3 bd cc 4d ad bc b2 77 42 3d ea 3b a5 bd
       -0.103172526 -0.02115526 0.04747743 -0.08068068
000030 4f 4c 54 3d bb 76 1d bd 1e c5 69 3d 63 f5 00 bc
       0.051830586 -0.03844331 0.05707275 -0.007871005
000040 a5 f4 70 3b 7a a6 b6 3d 39 01 c2 bd d8 b1 3b bd
       0.0036766913 0.08918472 -0.094728895 -0.045823902
000050 44 14 ca 3d 86 d9 dd bd 1c d0 5e 3c 81 a1 4d 3d
       0.098671466 -0.10832505 0.013599422 0.05020285
000060 ae 37 91 3d fd 27 a6 bd 2f e8 92 bd 96 96 bc bd
       0.07090698 -0.08113096 -0.07173192 -0.092084095
000070 94 2a e3 bd 8d 77 9c 3c 23 a3 80 bd 96 16 e2 bd
       -0.110921055 0.019099975 -0.06281116 -0.11039464
000080 9b 24 63 3a 23 d9 bc 3d
       0.00086648174 0.09221103

bn3.weight f4 [34]
000000 91 fe 59 3e 5e 45 0f 3f cb ea 74 3e e6 9e d7 3e
       0.21288516 0.5596522 0.23917691 0.42113417
000010 bf 3e de 3e 1d f8 7a 3e 8e 3c 7a 3e a2 53 63 3e
       0.43407246 0.2450871 0.24437162 0.22199872
000020 20 f4 cf 3e e8 91 7b 3e 14 4e e2 3e 18 18 b6 3e
       0.4061594 0.24567378 0.44200194 0.35565257
000030 4d 83 05 3f 66 12 a3 3e b3 87 6e 3e 64 4d cb 3e
       0.52153474 0.31849974 0.23293953 0.39707482
000040 ed a9 cd 3e 93 4c 21 3f d1 e2 6b 3e df 59 7a 3e
       0.40168706 0.6300747 0.23035742 0.24448346
000050 33 32 d1 3e ed e3 f5 3e 2a 6a 6c 3e be f9 c7 3e
       0.4085861 0.48025456 0.23087373 0.39057726
000060 60 db 84 3e 48 28 60 3e d5 35 15 3f 50 c2 8b 3e
       0.2594862 0.21890366 0.58285266 0.27296686
000070 ac 21 75 3e 14 ee f3 3e 08 f5 db 3e 7e d4 cf 3e
       0.23938626 0.47642577 0.42960382 0.40591806
000080 10 ae c8 3e 56 7f 7c 3e
       0.391953 0.2465795

bn3.bias f4 [34]
000000 59 5d 71 3d 1c d5 3c 3d bd 86 9f 3d 2c 25 4d 3e
       0.058926914 0.046101674 0.07789371 0.20033711
000010 87 89 87 3e cb de 28 3d 37 b6 7c 3d 0b ad 8f 3d
       0.26472113 0.041228097 0.06169721 0.07015427
000020 6c e5 69 3e cf 42 43 3d 58 dc 59 3e 47 74 88 3e
       0.22841424 0.047671136 0.2127546 0.26651213
000030 ba 5f c1 be 37 13 a4 bb d1 23 12 3d 89 13 4c 3e
       -0.37768346 -0.0050071734 0.03567869 0.19929327
000040 7e 70 4b 3e 51 47 18 be e8 df 4f 3d 0f 9b 93 3d
       0.19867131 -0.14870955 0.050750643 0.072073095
000050 26 2a 96 3e e7 fe 23 3e 00 dc a0 3d f2 84 7a 3e
       0.29329032 0.16015206 0.07854462 0.24464777
000060 1e f6 66 3d 52 dd ac 3d f6 1a ce be 76 08 82 3d
       0.05638706 0.08440651 -0.40254945 0.0634927
000070 82 17 6b 3d a5 2d 8c 3e 07 9f ba 3d d7 f4 9b bd
       0.057395466 0.27378574 0.09112363 -0.07615059
000080 3a 79 19 3e 3c 63 64 3d
       0.1498765 0.0557587
