models/model_weights/all_mammal_cleavage_map_sequence_mod.pt (torch_old, 166978 bytes, 14 tensors)

input.weight f4 [136, 262]
00000000: 6e9f 603b d3aa f0bd ea14 e3bc 68bc e7bc
00000010: 4aa3 92bd e680 8b3d b304 1e3d 2694 b7bc
00000020: ca42 38bd affb 8e3c 626f aa3d f4b6 2bbd
00000030: e7fc 8cbc 8c0a 673b b246 4cbd f1d7 57bd
00000040: 0422 a4bd 4e95 0abd 88b7 01be 53fd 4e3d
00000050: 511d 9abc 84f8 a1bd 80ae a73d f1d6 703d
00000060: cdf6 c1bc baf7 cb3c 2b09 f3bc 7db8 ce3d
00000070: 5442 3e3d 6b0a 7abc 0851 4b3d b56a 293c
00000080: 34b9 9dbd 9382 43bd 015e cf3c 198f 8bbd
00000090: e979 7cbc 8085 b0bb 5299 0fbe 4e6c 77bc
000000a0: ff38 1f3b 0d5c 09bd a551 23bd 634d 573c
000000b0: 23b7 d5bc cba8 9a3d 9d0f a73c c9d0 793d
000000c0: 3135 a33c 4539 743d c528 f43c 0cc2 1e3c
000000d0: 618b 6a3c 9d57 a13c be9e 6dbd f4f3 bdbc
000000e0: e5af ccbd ff96 a63c eb9c e6bc 55a5 97bd
000000f0: 967d 903b d2b7 813d f0e6 e1bc 4f17 93bc
00000100: 64f4 be3b f3bc 12bd ab64 15bc cc81 cf3a
00000110: ce46 2e3d 8776 1fbd c145 1e3e 001e 013e
00000120: dc8d 06bd ed3c b93c f5e1 5abb daf1 a9bd
00000130: 6904 06bd 364c 153d 3146 e93c 4eaf 51bc
00000140: f1f3 b13c d22d 543c 2a4b 27bc 892f d03a
00000150: aac2 0f3d c16c 183c 85d5 7d3c 135b 923d
00000160: be7b 79bd 29c6 0d3c 7410 463d 8f26 823d
00000170: 8c35 df3d adc4 66ba 8843 aebd b4f2 df3b
00000180: 697b cd3d 2fb7 993d 1fbd 2d3e df7a 983c
00000190: c6c7 f33d cf18 e6bd 8d8f 44bc e0f9 123b
000001a0: 2da3 ec3c 1e63 32bd b8e1 47bd 502d 8d3c
000001b0: f384 703d bc9c 54bc eecd 6c3d 6401 973c
000001c0: cf95 cdbd 84a6 e23c 22e6 dabb 7107 b03c
000001d0: f16a 0ebd 7d2a b23d 23a6 a43d fd1d 753d
000001e0: fc9c e23b d155 09bc 38d7 9b3d bd69 babc
000001f0: a61b e03d 402c c8bd 63f0 3d3d 85e2 453d
00000200: 1807 f0bc 3b5b 793d 50f0 243e 38b5 f1bb
00000210: 6071 f3bd d6af 11be ac4a 6b3c dccc 15bd
00000220: 907c c53c 6c5d eeba 9662 ab3d 6fd5 87bd
00000230: 2996 a53d e806 6a3d a884 6db9 6298 db3d
00000240: b1e4 6dbd 12a6 2dbc 370c b3bd c6bc 84bc
00000250: 4486 c5bc fbc2 56bd 7483 86bd b9b0 4a3d
00000260: 5f9a 203d dcaa 6e3d 28a7 a83d ae31 64ba
00000270: 03a3 24bd 3817 cf3c c492 85bd 7d4e bf3d
00000280: 5546 863c 1a0b 063e f419 bbbc f996 303d
00000290: 0c37 9b3d 4597 ff3c be3a 493d b5f3 8d3d
000002a0: 426c 4a3c 83d4 1c3d 705d fabd b606 8cbc
000002b0: 541e 3f3c 44f7 8838 0e7b bbbd 2ed8 6c3d
000002c0: 68e9 7abb 53f0 20bd ad3b 003d 7573 173c
000002d0: 954b dcbc 0933 8f3d 4efa 8d3c 8ead 68bd
000002e0: 908a e9bb 27f9 1fbd 1055 b0bd 4d23 e13b
000002f0: 7042 823d 961e 9c39 27a0 bfbd 5cd2 c4bd
00000300: b34f 82bc 1cdb d03c a3d5 02be 4f55 f6bb
00000310: e595 293d 5c43 66bb 2893 b13c 97e6 f4bb
00000320: 8130 a5bd e63f 8dbd f65f aebc 8324 76bd
00000330: 8955 143d f3a6 1d3d dd46 eebc 789f 463c
00000340: 90b7 48bd bbd0 0b3a 5c03 d1bd f88e 96bc
00000350: ce2d 0a3d 676d 89bd b60c 84bd a82d 483d
00000360: 89a6 dc3c 4f38 67ba 8565 a03a 156b 12bd
00000370: 6092 c2bd cda3 193d e923 083b 0b13 abbd
00000380: e514 90bb b318 0ebe f93f 1fbc a695 f2bc
00000390: e241 4dbb 5c8d f13a c914 95bd c8f8 823b
000003a0: 6690 bc3b b040 5ebd 32f3 653b c621 9abd
000003b0: dc16 0dba fc5e 7d3d 9bfd 3fbc 6b28 613d
000003c0: 19fd d3bc 8e0a f03d fe9b afbd 117b 1bbd
000003d0: c3b4 113e acb9 873d 27e5 8abd 90ca 913c
000003e0: 0abb c6bc 582e a53c 8ec6 273e 0ceb 37be
000003f0: 9874 70bc e11d 9bba 50b1 1dbb a539 15bd
0.0034274715 -0.11751332 -0.027719934 -0.028288081 -0.07160051 0.06811695 0.0385787 -0.02240951
-0.04498557 0.017453996 0.08322026 -0.041922525 -0.017210437 0.003525409 -0.049872108 -0.052696172
-0.080143005 -0.033833794 -0.12667668 0.050534558 -0.018812807 -0.07908729 0.0818758 0.058798734
-0.023677254 0.024898399 -0.029667458 0.10093782 0.046449974 -0.015261273 0.049637824 0.010340382
-0.0770134 -0.047731947 0.02531338 -0.06814403 -0.015409925 -0.005387008 -0.14023331 -0.015101505
0.0024295447 -0.033535052 -0.039872784 0.013141009 -0.026088303 0.07551726 0.020393187 0.06099013
0.019922825 0.05962493 0.029804597 0.009689819 0.014315457 0.019695098 -0.058012716 -0.023187615
-0.09994487 0.020335672 -0.028150996 -0.074045815 0.0044095023 0.06333889 -0.02757594 -0.01795545
0.0058274735 -0.035824727 -0.009118239 0.0015831529 0.042547993 -0.038931396 0.15456297 0.126091
-0.03285013 0.02261206 -0.003339884 -0.08298083 -0.03271905 0.036449634 0.028475853 -0.012798144
0.021722766 0.012950378 -0.010210792 0.0015883307 0.035097755 0.009303273 0.015492802 0.07146277
-0.060909025 0.008653202 0.048355535 0.06355011 0.10898885 -0.00088031107 -0.08508974 0.0068343524
0.10033304 0.075056426 0.16966675 0.018613277 0.11903338 -0.112352006 -0.011997116 0.002242677
0.028886402 -0.043551557 -0.048799247 0.01723352 0.05872054 -0.0129768215 0.057813577 0.01843328
-0.10038339 0.027667291 -0.006680266 0.021487923 -0.034769956 0.0869951 0.080395006 0.059843052
0.0069156867 -0.008382277 0.07609409 -0.022755498 0.109427735 -0.09774065 0.04637183 0.04831173
-0.029300258 0.06087802 0.16107297 -0.0073763393 -0.11886859 -0.14227232 0.014361065 -0.036572322
0.024107248 -0.0018185801 0.08368413 -0.06632506 0.080852814 0.057135493 -0.000226515 0.10722424
-0.058079425 -0.010598676 -0.08742564 -0.016203295 -0.024111874 -0.05243204 -0.065680414 0.049484942
0.03920972 0.058268413 0.082350075 -0.00087049126 -0.040194523 0.025279626 -0.06522134 0.09341142
0.016390959 0.13090172 -0.022839524 0.04311273 0.07578859 0.03120006 0.049128287 0.06931249
0.012354912 0.038288604 -0.12224853 -0.017093044 0.011664946 6.531042e-05 -0.0915433 0.057823353
-0.0038286094 -0.03929169 0.03130691 0.009243836 -0.02689151 0.06992156 0.017331269 -0.05680614
-0.0071271136 -0.03905597 -0.086099744 0.0068706633 0.06360328 0.00029777427 -0.093567185 -0.09610435
-0.015907144 0.025495104 -0.12776808 -0.007517494 0.041402716 -0.0035135364 0.021676615 -0.0074737775
-0.08065892 -0.06896953 -0.021285992 -0.060093414 0.036214385 0.038489293 -0.029086525 0.012122981
-0.049003184 0.00053335325 -0.10205719 -0.01837872 0.03373509 -0.0671032 -0.06447737 0.048871666
0.026934879 -0.00088203413 0.0012237286 -0.035746653 -0.09500575 0.03750973 0.0020773357 -0.083532415
-0.004397022 -0.1387661 -0.009719842 -0.029612374 -0.0031319787 0.0018428969 -0.07279355 0.003996942
0.0057545183 -0.05426091 0.0035087583 -0.07525973 -0.00053821295 0.061858162 -0.011718179 0.054970186
-0.025877522 0.11720763 -0.08574675 -0.037959162 0.14229111 0.06627211 -0.067819886 0.017796785
-0.024259109 0.0201637 0.16384336 -0.17960757 -0.014676236 -0.0011834466 -0.0024061985 -0.036431927

input.bias f4 [136]
00000000: 8f88 6e3d 29ee 4abc 6338 ccbc b811 9fbc
00000010: b08d ad3c 90d9 4fbd e295 43bc 5983 3cbd
00000020: 9b14 013c f8f7 74ba 7df9 21bd e4ec d8bc
00000030: 09fe 8fbc 93c1 803d dffe 823d 5853 70bd
00000040: 16b6 38bc a977 9e3d e3c6 10bc 642f 643c
00000050: 556d d4bc e5af 9d3d 765e ffbc 31ec 5d3d
00000060: 22da 073d 4624 83bc 0547 053d 621b bbbc
00000070: deb3 8aba d917 533d 5a68 0abd 1c7b 72bd
00000080: 97f6 9cbc ec97 a33c a258 9f3d 4739 7c3d
00000090: a213 48bd c7b5 1a3d 5c4c 733c e666 32bd
000000a0: 2489 453d f04a 0fbd c612 103d a04e abbc
000000b0: ff93 64bb a1ee 75bd 12d5 6b3d f536 2f3d
000000c0: 2b13 e3bc a899 103d 84a7 563d 14c7 eb3b
000000d0: 2bbe 073d 2689 563c 8a94 17bc 07c2 373d
000000e0: 9465 44bd ff90 1fbd 5c6b 93bd b19b 5abd
000000f0: 9ac0 7cbc 5f0d b7ba 1214 da3a 3a87 263d
00000100: f72e e9bc a143 7b3c e259 1d3c 2505 f8bb
00000110: 42c1 9abd 1aaa d53c fe41 30ba f8e0 ef3c
00000120: e1ec 4cbc 6fb4 6bbd dfe6 44bd ad62 76bd
00000130: 098f c6bc a03e abbc 279f 3c3d ca6f d4bc
00000140: a690 673d 4bee 4ebd 891b fa3b 3f43 de3c
00000150: 3990 c4b8 2a6e 223d 5c0c 89bc dd5f f33a
00000160: 32d3 193d 916d 2abc 0c64 60bd 51d5 833d
00000170: eab9 80bd d4e1 20bd b083 aabc 4352 3a3d
00000180: acc1 35bd fc78 caba 50f6 6cbc 2486 833d
00000190: 9e2e 4cbc fa52 99bb af9b 073d bd56 be3c
000001a0: 29ce 2c3d 10f8 8e3d d26b 4fbc 7e49 8bbd
000001b0: 162e 733d 6ac6 81bc 5058 e3bc f889 af3b
000001c0: f350 033b 8342 2b3d feda 3abd 9f1f b13c
000001d0: 3eeb 23bd 4aff 65bd c8d8 26bd 2200 2c3d
000001e0: 3e6b 633d 1dc4 3ebc ea31 1ebd 350f 253d
000001f0: 7d24 81bd f692 8abd 748a c4bb fc57 683d
00000200: 31fb e1bc d4cc 20bd df22 57bd a158 b83b
00000210: 1d16 593d d176 573d b2c8 d93c 9b7f 723d
0.0582357 -0.012385883 -0.024929231 -0.019417629 0.021185726 -0.050744593 -0.01193759 -0.0460237
0.007878448 -0.00093448116 -0.03954457 -0.026480146 -0.017577188 0.06286921 0.06396269 -0.058673233
-0.011273881 0.07737667 -0.008836481 0.013927314 -0.02593104 0.07699565 -0.031172972 0.054180328
0.033167012 -0.016008507 0.032538433 -0.022840206 -0.0010582169 0.051536415 -0.033790924 -0.059199437
-0.019160552 0.019969903 0.07780577 0.06157806 -0.04884685 0.037771013 0.014849748 -0.043555163
0.04822649 -0.034983575 0.035174154 -0.020911515 -0.0034878252 -0.060042027 0.057576247 0.04277702
-0.027719101 0.035302788 0.05240585 0.007195363 0.033140343 0.013094222 -0.009251723 0.044862773
-0.047948435 -0.03895664 -0.071982116 -0.053371135 -0.015426779 -0.0013965777 0.0016638061 0.040656306
-0.028464777 0.015335948 0.009603949 -0.0075689727 -0.07556392 0.026082087 -0.0006723701 0.029282078
-0.012507648 -0.05754512 -0.04807174 -0.0601527 -0.024238126 -0.020903885 0.046050217 -0.025932211
0.056534432 -0.050520223 0.007632677 0.027131675 -9.372872e-05 0.039655842 -0.016729526 0.0018567998
0.037554927 -0.010402099 -0.054782912 0.06437171 -0.0628546 -0.039277866 -0.020814747 0.045488607
-0.044374153 -0.0015447433 -0.014463022 0.0642207 -0.012462286 -0.004679081 0.033107456 0.02323472
0.042188797 0.06980908 -0.012659984 -0.06801127 0.059370123 -0.015841682 -0.027752072 0.0053570233
0.0020037263 0.041811477 -0.045619003 0.021621523 -0.040019266 -0.056151666 -0.040734082 0.041992314
0.055522196 -0.011643437 -0.03862182 0.040297706 -0.06305788 -0.06766312 -0.00599795 0.056724533
-0.027585598 -0.03925784 -0.05252349 0.0056257998 0.052999604 0.052603547 0.026584957 0.059203725

bn1.weight f4 [136]
00000000: 626e 793f 5fc4 773f 42a8 723f 7c54 813f
00000010: c665 723f 95a8 763f d92b 713f f3af 793f
00000020: 98cb 743f 0769 723f 76ca 763f 68e9 813f
00000030: 7b48 7a3f 1244 663f 5d3b 743f 8231 7f3f
00000040: 3757 753f 6ba3 7c3f a11c 793f 7f29 783f
00000050: e932 713f 62cb 723f c063 7a3f 0ff4 7b3f
00000060: 63b0 773f ff99 723f b1e4 783f 2389 6b3f
00000070: 444b 713f 4daa 7a3f 5191 713f 1716 6f3f
00000080: 5b68 813f 404a 7e3f 32a5 7e3f 11f5 7f3f
00000090: e57e 723f 4d8a 753f d08c 803f 1ae2 703f
000000a0: dffd 813f eb8a 703f b3d1 733f 8baa 7a3f
000000b0: 0f04 773f 6243 773f b8f2 793f 06a8 7f3f
000000c0: c655 6f3f 37e3 7a3f ee6b 773f 81dd 7b3f
000000d0: cff6 783f c11e 7e3f 1a39 763f e744 7a3f
000000e0: 20e9 803f 5e72 763f fa0a 6f3f 65a9 7a3f
000000f0: 0c0a 803f bf9a 713f c836 763f bb1d 6d3f
00000100: 2ece 6d3f 77f1 7b3f 5b91 7c3f 3482 743f
00000110: 55d9 713f 0917 743f 783f 6f3f d481 7d3f
00000120: 4ee1 7f3f 7e6f 773f 987b 763f 3bcc 743f
00000130: 2eef 793f 9f84 7b3f 70af 743f 15ea 793f
00000140: 5840 753f 7d46 753f 3d97 7c3f d7cc 703f
00000150: d48f 7b3f 5ea7 713f 704e 783f 27bc 803f
00000160: 3549 7b3f 7afb 6f3f 8353 783f d3e8 6e3f
00000170: 25a7 7a3f 5b22 763f 2e2c 7a3f 8777 773f
00000180: bc28 743f 8321 753f 6f37 7c3f 5ad7 763f
00000190: 817a 7b3f 8d9c 753f 12fa 733f 6892 733f
000001a0: b691 763f 0f9e 753f 744d 6c3f 50b8 7e3f
000001b0: dcaf 7c3f e194 693f 8d58 6d3f 31b7 6b3f
000001c0: 7690 7a3f e1c0 7d3f 15c3 6b3f da26 743f
000001d0: 1b19 843f 848f 783f fa10 803f 2d85 733f
000001e0: a589 7f3f 5ef5 753f 1c54 733f 32aa 783f
000001f0: 08fa 793f 13ba 7f3f e8da 6b3f 02d9 7b3f
00000200: 520b 7a3f 9213 713f 3442 813f 5bbd 793f
00000210: 5283 843f e9ed 733f 8e8e 7a3f d2ef 793f
0.97434056 0.96784014 0.9478799 1.0103908 0.94686544 0.96350986 0.9420753 0.975341
0.9562316 0.9469151 0.9640268 1.0149355 0.97766846 0.8994762 0.9540308 0.9968492
0.95836204 0.98686856 0.9730931 0.9693832 0.9421831 0.9484159 0.97808456 0.9841928
0.9675352 0.9476623 0.97223955 0.9200613 0.9425547 0.9791611 0.9436236 0.9339308
1.0109972 0.99332047 0.9947082 0.99983317 0.94724876 0.95914155 1.0042973 0.94095004
1.01556 0.9396197 0.9524185 0.9791648 0.9649057 0.96587193 0.97635984 0.9986576
0.93490255 0.9800295 0.9664906 0.98384863 0.972516 0.99265677 0.9618088 0.97761387
1.0071144 0.9626826 0.93376124 0.97914726 1.0003066 0.9437675 0.9617734 0.9262349
0.9289273 0.9841532 0.98659295 0.95511174 0.9447225 0.9534765 0.9345622 0.99026227
0.9995316 0.966545 0.9628234 0.9562413 0.97630584 0.9824924 0.95580196 0.97622806
0.95801306 0.9581068 0.9866827 0.9406256 0.9826634 0.9439601 0.96994686 1.005742
0.9815858 0.937431 0.9700243 0.9332401 0.9791129 0.9614617 0.9772366 0.9666676
0.95374656 0.9575426 0.98522085 0.9642235 0.982338 0.95942 0.9530345 0.95145273
0.9631609 0.95944303 0.92305684 0.9949999 0.9870584 0.91242796 0.9271324 0.920764
0.9787668 0.99122435 0.92094547 0.9537178 1.0320162 0.9709399 1.0005181 0.95125085
0.99819404 0.96077526 0.95050216 0.971347 0.9764714 0.998933 0.921309 0.98378
0.97673523 0.94170487 1.0098329 0.9755456 1.0352576 0.952849 0.9787377 0.9763156

bn1.bias f4 [136]
00000000: 2d70 a3be 3311 90be 1553 94be 3551 3bbe
00000010: b1f2 26be dc9f 4ebe 01e9 86be 6d0b 8fbe
00000020: b504 52be d41e 5dbe ec50 40be ce55 36be
00000030: a0cd 8bbe 3021 57be 14f1 77be e0d8 8abe
00000040: c8d8 cdbe bb19 88be e7fd 95be cc14 c6be
00000050: 2557 9bbe 002a b1be eb05 81be 64a4 b4be
00000060: ae4c bebe d61d a1be ad04 81be eead 90be
00000070: 8eff 7bbe 99f9 8dbe 5a04 83be efba 6dbe
00000080: 6599 b7be 368f b5be 01bf a6be 25f4 8dbe
00000090: 1763 9ebe c198 97be ef6a 8cbe 8076 a4be
000000a0: 0a59 3cbe 5a86 52be 344a b1be a8ea b6be
000000b0: cfb9 2abe 3109 90be e6eb b5be 0ebf 95be
000000c0: 82cd 91be 490a 3abe 996d 6cbe 6eab 8bbe
000000d0: e138 b9be a48c e2bd 219a acbe 38a7 86be
000000e0: 55b2 a1be 1112 9fbe 0227 89be 06ad 80be
000000f0: 147d 9ebe 92f3 84be 93c7 98be 9677 36be
00000100: ce95 94be 09da 8fbe 4f86 4bbe 8893 99be
00000110: 79e7 a4be cf68 a2be 8f98 7abe de06 a8be
00000120: cfba 35be 1c42 abbe 1363 79be 3b24 87be
00000130: e549 94be 0cb1 54be 8421 88be 359f 81be
00000140: 319e 89be d140 85bd d2e0 81be fe64 a8be
00000150: 3449 5abe dd31 2cbe 86e8 a2be 49b1 88be
00000160: 8f38 aebe d07a 61be 205c a8be 1df1 32be
00000170: ee2d 9bbe 5f21 84be c380 b8be 5982 76be
00000180: 1567 89be 92d6 a6be 44ba 4dbe 0b17 89be
00000190: 1c71 8bbe ec20 88be c75b 8dbe e0fb c3be
000001a0: 7a09 53be 0b7b 8bbe 48ab 08be 5578 9ebe
000001b0: 8607 80be c692 e2be 0753 88be 6dd6 68be
000001c0: 752f 82be adfb b3be aada 0ebe 9283 a4be
000001d0: a19a 27be a157 e6bd 4759 9abe 1f59 9dbe
000001e0: a997 20be 94d5 6fbe 9df4 55be 37c8 6cbe
000001f0: 272a aabe 74ce a6be 5e04 71be 4412 85be
00000200: 5e49 4bbe dd73 7dbe 9ea3 23be 10f9 b0be
00000210: b1d0 b1be ce2b 0dbe ef3b 94be c656 a2be
-0.3192152 -0.28138122 -0.28969637 -0.18292697 -0.16303517 -0.20178169 -0.26349643 -0.27938405
-0.20509608 -0.21593791 -0.18780869 -0.1780617 -0.27305317 -0.21008754 -0.24213058 -0.27118587
-0.40204453 -0.2658213 -0.29295275 -0.38687742 -0.30339924 -0.34602356 -0.25199828 -0.3528167
-0.37167877 -0.31468076 -0.2519888 -0.28257698 -0.24609205 -0.2772949 -0.25589257 -0.23215841
-0.35859218 -0.35460824 -0.325676 -0.2772533 -0.30934975 -0.2960873 -0.27425334 -0.32121658
-0.1839334 -0.20559064 -0.34626925 -0.35725904 -0.16672443 -0.28132012 -0.3553154 -0.29247326
-0.28477103 -0.18167986 -0.23088683 -0.27279228 -0.36176208 -0.11061981 -0.3371134 -0.26299453
-0.3158137 -0.3106847 -0.26787573 -0.25132006 -0.30954802 -0.2596708 -0.29839763 -0.17819056
-0.29020542 -0.28096035 -0.19875453 -0.2999537 -0.3220785 -0.31720588 -0.24472259 -0.3281774
-0.17747043 -0.33448875 -0.243542 -0.2639483 -0.28962627 -0.20770663 -0.2658807 -0.25316778
-0.26878503 -0.065065034 -0.25366837 -0.3288955 -0.21316987 -0.16815896 -0.31818026 -0.26697758
-0.34027526 -0.22019506 -0.32882786 -0.1747479 -0.3030848 -0.2580671 -0.36035737 -0.24073161
-0.26836458 -0.3258558 -0.20090586 -0.26775393 -0.27234733 -0.26587617 -0.27609083 -0.38278103
-0.20609084 -0.27242312 -0.13346589 -0.3095118 -0.2500574 -0.44252604 -0.26625845 -0.22738047
-0.25426832 -0.3515295 -0.13950601 -0.3213163 -0.1636758 -0.11247183 -0.30146238 -0.30732056
-0.15682854 -0.23421317 -0.20894094 -0.23123251 -0.33235285 -0.32579386 -0.23536822 -0.25990498
-0.19852206 -0.2475123 -0.15980384 -0.3456502 -0.3472953 -0.13786241 -0.28951976 -0.31706828

bn1.running_mean f4 [136]
00000000: 37a1 013e a74b 623c ffd9 71bd 2d10 38bd
00000010: 0b67 8bbd 1284 383e 680d 10bc 04dc 183c
00000020: 9489 01bd d15c ebbd 3a03 263e 07c1 463d
00000030: cc1a 0c3c 36d3 5a3e e3da 153d 8b16 1dbe
00000040: 5c81 9fba b408 193e d3f1 f53d 7f82 bb3d
00000050: 8826 2ebe 855f 183e d3ce 19be 953e 313e
00000060: 8446 793e 1d63 693d 2cbd 2c3e c55b 61bd
00000070: ea11 33bc 9046 9c3e 9191 72bd 9d34 6e3c
00000080: d0a5 743d dc32 333e ac38 443e 5af8 a43d
00000090: d682 6f3d 8517 8c3c 7aa4 af3d 7c62 683c
000000a0: c67a 2e3e 257e 48bd 3aed 173e d7b6 92b9
000000b0: e681 abbc 55a5 743d 9793 6e3e 02a8 02bd
000000c0: 037c 1f3e f17d 2cbd fa59 8ebd 70e7 4a3e
000000d0: b854 453d 95f5 613e 6309 363e 5b12 8fbe
000000e0: 0054 e13a 5afb edbb 3e17 24be b9f6 8a3d
000000f0: 64b8 453e d54c 433d 2e24 363d ef7b 11bc
00000100: 25bf 5e3d 95d2 00be cc94 bfbd dab4 97bd
00000110: 0abf bb3d ee97 0a3b dea3 843d 995b 423e
00000120: 230f bebc 3646 64be 465a 47be 88fe 8d3d
00000130: 1fb8 a83d e460 2f3d cb8d 663d 3a9c 46ba
00000140: 27bd f73d 25a8 b5bd e473 8f3c 8291 f43d
00000150: 8230 84bd e5fb d0bd 9ecc 03be 31ed 843d
00000160: 7de1 cb3d 0c41 efbd c837 1a3d 2edd f03d
00000170: 5d89 10be f022 813d 4805 c53d 7cf3 a93d
00000180: fc4c 1fbe f27d 943c 58f6 7d3d 87a2 273e
00000190: e5b7 94bc 0fa0 26bb 69d5 183e 2b99 af3d
000001a0: 5417 25bd d140 803e f59c 2f3d 7d73 9ebd
000001b0: a6c6 3f3e f73c 893c cd71 423d efeb 02bc
000001c0: e864 b63d 98cc 983d f2d7 113e 8d67 afbd
000001d0: a30c 70bd f129 a6bd e2f1 233c 3acc f23d
000001e0: dd3c 093e 0375 53be 394c 0e3e f628 3c3d
000001f0: 9fbe 0fbf 8c42 1bbe 2c2c 1c3d c243 283e
00000200: 9cef 4abe c06e 1fbd c8a5 aabd 5d59 c23d
00000210: 754e 693d ccba 6f3e 7bf7 31be e316 b4be
0.12659155 0.013811982 -0.059045788 -0.0449373 -0.06806763 0.18019131 -0.008792259 0.0093298
-0.031625345 -0.11492313 0.16212168 0.04852393 0.008551311 0.21369633 0.0365857 -0.1534063
-0.0012169289 0.14944726 0.12009015 0.091557495 -0.17006886 0.14880188 -0.15020303 0.1730903
0.24343306 0.056979287 0.16869038 -0.05501916 -0.010929564 0.30522585 -0.059220854 0.014538911
0.059728444 0.1749987 0.19162244 0.08055182 0.058474384 0.017101059 0.08576293 0.014183637
0.17039022 -0.048948426 0.14836589 -0.00027983516 -0.020935964 0.059727985 0.23298489 -0.031898506
0.1557465 -0.042112295 -0.069507554 0.19814849 0.048176497 0.22066338 0.17777018 -0.27943692
0.0017191172 -0.0072626295 -0.16024491 0.0678534 0.1930862 0.047680695 0.044468097 -0.008879646
0.05438151 -0.1258033 -0.093545526 -0.074075416 0.09167297 0.0021147686 0.06476568 0.18980254
-0.023200577 -0.22292408 -0.1946803 0.069333136 0.08238243 0.04281701 0.056287568 -0.000757638
0.12096625 -0.08869962 0.017511316 0.11941816 -0.06454565 -0.10204295 -0.12871024 0.06490553
0.09955118 -0.116823286 0.037650853 0.11760937 -0.141149 0.06305492 0.09620148 0.08298394
-0.15556711 0.018126462 0.06200251 0.16370593 -0.018154094 -0.0025424992 0.1492516 0.08574136
-0.04030545 0.2504945 0.042874295 -0.077368714 0.18728122 0.016752703 0.04747181 -0.007990821
0.08905965 0.07460898 0.14242533 -0.085646726 -0.0586058 -0.081134684 0.0100064 0.118553594
0.13402124 -0.20650105 0.13896264 0.0459375 -0.5615024 -0.15162104 0.038128063 0.16432098
-0.19817966 -0.03892398 -0.083324015 0.09489701 0.056959588 0.23411101 -0.17379563 -0.3517371

bn1.running_var f4 [136]
00000000: ab41 143d 2a1a 3a3d dcf7 2a3d f138 293d
00000010: 4ca3 133d ee0c 1f3d 82ab 323d f344 1d3d
00000020: 4d27 2e3d 961b 323d bd42 1c3d cbce 253d
00000030: 3054 213d a1ce 203d ff1b 263d 24e1 283d
00000040: f8c8 3a3d c980 2c3d be46 2d3d ff34 323d
00000050: 7213 343d 991c 223d 514b 1e3d 63bd 373d
00000060: 79f4 203d 87e3 213d 5fdc 4d3d 5ca2 393d
00000070: 323e 1a3d 8977 2a3d 6fbb 353d 148b 2d3d
00000080: 8b5a 2b3d 8e2b 343d b72d 353d 3abb 423d
00000090: 86ca 113d 839e 293d 0376 2e3d 8ad8 2e3d
000000a0: b2ec 1d3d c2c7 2b3d fa2e 3e3d b327 363d
000000b0: be2e 3c3d 216a 4d3d 8057 1a3d b644 323d
000000c0: 42d8 303d 2501 313d 6738 2c3d d875 443d
000000d0: 9390 343d fd86 193d 5c7c 283d 4f3c 2d3d
000000e0: e39e 323d 89e9 343d d1c0 2e3d afe7 343d
000000f0: 5597 2d3d cf76 303d 4815 213d 2ac4 203d
00000100: 9818 2c3d dd82 363d 76ec 323d cf88 393d
00000110: b8ce 263d 09fb 3e3d d4db 103d 9066 2d3d
00000120: 0137 303d 3faf 423d 16a9 383d 0d0f 263d
00000130: a26c 403d c204 323d d33c 253d 727a 1b3d
00000140: 743b 313d b62a 1b3d f23a 1c3d 131f 1e3d
00000150: a83f 213d f48b 263d 71d8 3d3d 4058 423d
00000160: 4549 2f3d 840e 183d d10c 2b3d 8250 1e3d
00000170: 5df8 283d 3418 143d 16a7 203d d501 3c3d
00000180: 10e4 2e3d 5333 2f3d e4e8 1c3d 5d53 0e3d
00000190: 57d6 283d 214b 3a3d eb93 233d e459 293d
000001a0: dd48 233d da78 203d da13 1b3d fbae 323d
000001b0: c006 123d c7ab 313d b03b 403d 2a21 1e3d
000001c0: bd33 383d 9bac 4c3d f427 183d 9ede 203d
000001d0: 7216 253d 9930 1f3d 4ef7 2e3d b2e1 2b3d
000001e0: ae58 123d adcd 393d dbab 2d3d f362 1e3d
000001f0: 387b 373d 0bb4 303d 30e5 2c3d 9a8b 3b3d
00000200: a9db 233d 6a85 303d df62 143d 6cac 313d
00000210: 4ca7 483d 3d5e 0f3d 16f8 2e3d 9441 2f3d
0.03619544 0.04543511 0.041740283 0.04131407 0.036044404 0.03883069 0.043620594 0.038395833
0.04251795 0.04348334 0.038149584 0.040480416 0.039386928 0.039259557 0.040554043 0.041230336
0.045601815 0.042115007 0.042303793 0.043507572 0.043963857 0.039578054 0.038646046 0.044858348
0.039295647 0.039523628 0.05025899 0.045320854 0.03765697 0.041617904 0.044368204 0.042368963
0.041834395 0.04398685 0.04423305 0.047541834 0.035593532 0.041410934 0.042593013 0.042686976
0.03855581 0.04193855 0.04643152 0.044471454 0.045943014 0.05015004 0.037681103 0.04352256
0.04317499 0.043213982 0.042045977 0.047963947 0.04408319 0.03748225 0.041134223 0.042293843
0.043608557 0.04416803 0.042664353 0.044166263 0.04238065 0.043082055 0.039326936 0.039249577
0.042015642 0.044558395 0.043682538 0.045296486 0.040724486 0.046626125 0.035365894 0.04233414
0.043021206 0.04753041 0.045083128 0.040541697 0.0469786 0.04346157 0.04034121 0.03795857
0.04326959 0.03788253 0.038142152 0.038603853 0.039367348 0.040660813 0.046348993 0.047447443
0.042794485 0.03712322 0.04176027 0.038650997 0.041252483 0.036155894 0.039221846 0.045900185
0.042697966 0.042773556 0.03830804 0.03474747 0.041220035 0.045481805 0.039935987 0.041345492
0.03986441 0.039177753 0.03786073 0.043623906 0.03565097 0.04337671 0.046931922 0.038605846
0.044971216 0.049969297 0.037147477 0.039274804 0.04030461 0.038864706 0.042716317 0.041963287
0.035729103 0.045362163 0.042400222 0.038668584 0.044795245 0.043140452 0.042210758 0.04578743
0.040004406 0.043095984 0.036227103 0.043377325 0.04898767 0.035001982 0.042717062 0.04278715

fc2.weight f4 [34, 136]
00000000: b1e5 59bd 76d5 723d 2068 b53d 5e2d 9cbc
00000010: af6a f73c 7ad9 6ebd 7e6e a9bc d7ca 9a3c
00000020: d812 d83c 0877 e63d e631 d0bd 6163 b13d
00000030: d317 9ebd 87d3 edbc 5fee f8bd 31e2 37bb
00000040: f675 e4bc 71ef a83c e8df 9bbd 510d a1bd
00000050: b7c6 a83d 0078 febc 8ccf 6a3c e7b2 b8bd
00000060: 9602 603c 37a6 e4bd 5ca7 a8bd a3b9 1a3d
00000070: 45ba db3d 39c1 d53d 3318 2cbd 5623 503d
00000080: ee3f cabc 37fb 0abe 8191 54bd c75d 083d
00000090: 0403 203d 44c5 a9bd 3a86 d3bc 2636 85bd
000000a0: 35a7 c0bd 417c 8ebc 6fa3 13bd 42d2 8f3b
000000b0: 4275 d0bd 8ab6 c93d 272c 2ebd 86d7 623c
000000c0: 954a e1bd 3bb2 063e 1718 a53d 2a36 ff3d
000000d0: c9df c43d 1118 67bc b6ba a1bd 7963 983d
000000e0: 4d85 d93c ef89 1b3d 5b43 30bd 2ebf da3b
000000f0: 8498 45bd e264 e93d 04c2 9fbd bbb3 dc3c
00000100: f86f cdbd 098a 243e 1c11 013e 280c c03c
00000110: 7525 eebc 7eb4 c9bd 2ac9 b4bc 7dc3 51be
00000120: 9b68 623d 2633 c13d b1b3 3c3c ff79 2e3b
00000130: efc5 c2bd 2638 2abd ebb9 86bc 1257 fd3d
00000140: 924d ba3b 3fe4 953d d9fa 943d 10a5 e13d
00000150: 290e 49bd d380 96bd e40f 833d a134 6cbd
00000160: d460 983a 58c5 97bd 50f5 80bd aca4 813c
00000170: c72b 243d 603b 9f3d 4663 1dbd 6c99 9ebd
00000180: 6c19 143d 9319 a3bd 1ad9 aa3d 4d8d e73b
00000190: 8a54 1b3d 164c 52bd bec7 85bc 6165 2d3c
000001a0: 9336 dd3d e9f0 8fbc dbfb d8bd 98db 35bc
000001b0: f811 b03c 9584 dc3b 2462 5ebd 81d5 05bd
000001c0: 8015 3c3c c52b bdbd 537c 6fbd f88b cdbd
000001d0: e0f5 5dbc 17d2 ca3b ad32 9abd 287a 483d
000001e0: 963e bdbc 063c 393d 7034 e0bd dcba 443d
000001f0: 497d df3d e261 81bd 97f8 9fbb 5263 84bd
00000200: 0196 d13c 8fac 2fbd ac01 c83d e275 e0bd
00000210: f3f4 733d 0943 c1bd b2be ce3c 889a 69bb
00000220: 5daa 9ebd 8b22 0dbd ae62 58bd 98f3 b43d
00000230: dd09 073d d70c e43d 4d98 83bd 9194 b73d
00000240: ec30 22bb 99a6 6d3d 16d1 513d 2377 a7bd
00000250: 6507 59bd 7fdf b23c b6be dd3c 7cfa 87bd
00000260: 91ed 20bd f39e e0bb 0291 1bbb 0dc5 45bd
00000270: 6a7c bfbd 2564 14bd 52e2 903c e0e0 25bd
00000280: 9302 5fbc d243 8839 3d04 d8bd d729 b23d
00000290: 9b62 0b3d faf1 e93d 7c4d 0ebb eb2c 733d
000002a0: 0dd9 09bd bd14 62bd 9853 e5bc 14dd 433c
000002b0: 6221 d2bd 75d1 36bc db08 15bd 6116 cfbc
000002c0: 4c4e b83d a6c5 f83c 4935 c8bd 157e 0c3b
000002d0: 89bc c7bd 73b3 bf3d c817 9abd 9e3f aebd
000002e0: 3a95 53bd bf74 d43d cdbe e9bd 9503 af3b
000002f0: 5737 453d a97f 823d 13f3 97bd a659 913d
00000300: fa92 36bd 1e97 2b3d 0fbc d03d bb19 90bd
00000310: e3ab 86bd 55f4 be3b 54db 97bd 781d 5f3c
00000320: 481d dabc e6c7 06bd 83e9 e63c 4a41 4e3c
00000330: 4592 f2bc 9037 5ebd d050 1bbd 9a92 9ebd
00000340: 3931 5a3b d8b6 e63c 25b1 bd3c dec3 98bc
00000350: fcfb 96bd 9d11 f4bc f1aa 1dbd 97b8 a63d
00000360: d39b e33d 8f45 cfbd c5a6 6ebd 13b0 7bbd
00000370: 4313 e53d 7ba3 093d 4500 1f3c 98e2 053d
00000380: a358 d7bd 7aa3 7fbc 3389 cdbd 4425 dd3c
00000390: 4d7e ce3d a86c db3d 3e0c d8bd 2289 f0ba
000003a0: c65f 94bc e320 64bd acce e9bd b7f3 c8bc
000003b0: 6df7 773d 201d eebd e824 97bc f615 e1bc
000003c0: 6122 3e3d 6130 35bd f0c9 1bbd 4aae 9bbd
000003d0: 53e6 17be fa0d b83d c960 973d 1471 97bd
000003e0: 548f 01be 90a0 87bd 55e3 5fbd b599 a9bc
000003f0: 7d07 5abd 10a7 a63c 5c01 bebd cac4 1d3d
-0.053197566 0.059285603 0.08857751 -0.019064602 0.030202238 -0.05831287 -0.02068257 0.01889555
0.026376173 0.11253172 -0.10165767 0.08661533 -0.07719388 -0.029031528 -0.12154841 -0.0028058405
-0.02788828 0.020621987 -0.07611066 -0.07863868 0.08241027 -0.03106308 0.01433171 -0.09018498
0.013672492 -0.111645155 -0.08235046 0.037774693 0.107288875 0.10437245 -0.042015266 0.05081495
-0.024688687 -0.13572393 -0.051896576 0.033292558 0.039065376 -0.082895786 -0.02582084 -0.065044686
-0.09406892 -0.017393233 -0.036044534 0.0043890784 -0.10178615 0.0984927 -0.042522576 0.01384533
-0.110005535 0.13153927 0.080612354 0.12461503 0.09612996 -0.014104859 -0.078969404 0.07440848
0.02655282 0.03797334 -0.043032985 0.0066756224 -0.048241153 0.11396195 -0.078006774 0.02694117
-0.10031122 0.16068281 0.12604183 0.023443297 -0.029070595 -0.09848879 -0.022068579 -0.20484729
0.05527554 0.09433584 0.011517451 0.0026623008 -0.09510409 -0.041557454 -0.016446074 0.12370123
0.0056855166 0.07318925 0.07274408 0.11017811 -0.04908577 -0.0734879 0.06399515 -0.05766738
0.0011625537 -0.07410687 -0.0629679 0.015825592 0.04008081 0.07774997 -0.038424753 -0.07744107
0.036157057 -0.07963862 0.0834219 0.007066405 0.03792242 -0.051342092 -0.016330596 0.010583253
0.10801425 -0.01757093 -0.105949126 -0.0110997185 0.021492943 0.006729672 -0.054292813 -0.032674316
0.011479735 -0.09236864 -0.058468174 -0.100364625 -0.013547391 0.0061895954 -0.07529197 0.048944622
-0.023101132 0.04522326 -0.10947502 0.048029765 0.10912568 -0.06317498 -0.004881929 -0.06464256
0.025584223 -0.042889174 0.09765944 -0.10959984 0.059559774 -0.09436614 0.025237415 -0.0035645086
-0.07747338 -0.03445677 -0.052828483 0.08835524 0.03296839 0.111352615 -0.064255334 0.08963884
-0.0024748398 0.058020208 0.05122479 -0.081770204 -0.052985568 0.021835087 0.027068477 -0.06639573
-0.03928906 -0.0068548857 -0.0023737554 -0.048283625 -0.09349902 -0.036228318 0.017686043 -0.04049766
-0.013611454 0.00025990471 -0.105476834 0.086993866 0.034029584 0.114231065 -0.0021713665 0.05936901
-0.03365426 -0.05519556 -0.027993962 0.011954565 -0.102602735 -0.011158337 -0.0363854 -0.025279226
0.08999309 0.030367684 -0.09775788 0.0021437455 -0.09752757 0.09360399 -0.07524067 -0.08508228
-0.051655985 0.1037383 -0.114133455 0.005341003 0.04814848 0.063720055 -0.074194096 0.07097177
-0.04457376 0.041892163 0.10192119 -0.07036158 -0.065757535 0.0058274665 -0.074148804 0.013617866
-0.02662529 -0.03290548 0.028187519 0.012588808 -0.029610762 -0.054252207 -0.037918866 -0.07742806
0.00332935 0.028163359 0.023155758 -0.018648084 -0.07372281 -0.029793555 -0.0384931 0.081406765
0.111137055 -0.10120689 -0.058264513 -0.061447214 0.111853145 0.033603173 0.009704654 0.0326868
-0.10514953 -0.015602941 -0.10035934 0.026995309 0.10082684 0.10714084 -0.1054921 -0.0018351416
-0.018112075 -0.055695426 -0.11416373 -0.024530275 0.060538698 -0.11626649 -0.018450215 -0.027476292
0.046419505 -0.04423559 -0.03803438 -0.076016024 -0.14833955 0.08987041 0.07391507 -0.07394615
-0.12652332 -0.06622422 -0.05466016 -0.020703176 -0.053229798 0.020343333 -0.09277603 0.03851775

fc2.bias f4 [34]
00000000: e585 17bd c146 97bd 0402 673d b372 9ebd
00000010: b8c6 14bc 0280 b33c 7a45 8cbd d946 9cbc
00000020: e453 383d bd85 a33d aebc 6d3d 0658 603d
00000030: be2e 29bd aaff 9b3b 7660 8dbd 60f5 373d
00000040: 9d2c 1dbd 60f8 dcbc 375a 4dbd 2aa8 71bd
00000050: c7a3 823c 78e4 25bd 2c1d 803d 75f9 dd3c
00000060: 2297 36bd fdbc b03d 11c0 853d fba9 f53c
00000070: 44a2 4a3d 0161 803d e81f 5cbd 8e1b 6a3d
00000080: 631e 64bd 7a9e 4c3c
-0.036992926 -0.07386542 0.056398407 -0.07736721 -0.009080581 0.021911625 -0.06849189 -0.019076752
0.04500188 0.07984493 0.058041267 0.054771446 -0.041304342 0.004760702 -0.06903164 0.044911742
-0.038372625 -0.026973903 -0.050134864 -0.058998264 0.015947236 -0.040501088 0.06255564 0.02709649
-0.044577725 0.08629797 0.065307744 0.02998828 0.049471155 0.06268502 -0.053741366 0.057155184
-0.05569304 0.012488956

bn3.weight f4 [34]
00000000: 9498 a23f 3864 a33f 6ac5 a63f 102d ab3f
00000010: 6f7f a63f 602c 983f ad40 a03f 313a a33f
00000020: 39a6 9f3f ee1d a63f 6afe a23f 53b3 a53f
00000030: dd9c 9b3f 5716 9b3f a174 a53f 0e45 a53f
00000040: a8fe 963f a9fd 9e3f f998 9a3f ce88 a73f
00000050: 88c8 ab3f f3d8 a83f d877 a63f b7ec 9c3f
00000060: b6d3 9b3f af89 a03f a96c 9f3f 8346 a43f
00000070: 2f56 9f3f e4e6 af3f cea1 9c3f 2f61 b03f
00000080: 6d27 a43f c941 a03f
1.2702813 1.2764959 1.3028996 1.3373127 1.300764 1.1888542 1.2519737 1.2752134
1.2472602 1.2977884 1.2733891 1.294535 1.2157246 1.2116193 1.2926217 1.2911699
1.1796465 1.2421161 1.2077934 1.3088624 1.3420572 1.3191208 1.3005323 1.225974
1.2173984 1.2542018 1.2455035 1.2834018 1.2448176 1.3742337 1.2236879 1.3779658
1.2824532 1.2520076

bn3.bias f4 [34]
00000000: fe50 c13c 6d03 433d eccf 073e df1b ca3d
00000010: 79c8 213d 5b78 eb3c ceb1 983d b191 843d
00000020: e65d 893b bb2a b83d 7693 cd3d b21f d33d
00000030: 4a69 6aba 7556 993d 1b74 193d 7468 c23d
00000040: 0943 6f3d 1041 0abd 9db5 bc3c f1d3 183d
00000050: 87a3 9c3d 0a11 483d f0a8 9b3c 006a 253b
00000060: 5582 90bc 87d2 023d 1dca 883d 6ab4 133d
00000070: c7c0 06bc 7945 c13d 0765 15ba 5c34 033e
00000080: bad9 ba3d 6c1a 323d
0.02359819 0.04761069 0.1326291 0.09868597 0.039497826 0.028743913 0.074557886 0.06473101
0.004192102 0.08992525 0.100378916 0.1030878 -0.0008942081 0.074871935 0.037464242 0.09492579
0.05841354 -0.033753455 0.023035819 0.037311498 0.07648378 0.048844375 0.019001454 0.0025240183
-0.017640272 0.031939056 0.06679175 0.036060728 -0.008224673 0.09437079 -0.0005698953 0.12812942
0.09123559 0.04348223

bn3.running_mean f4 [34]
00000000: 3a69 40be 57d8 dfbe e8d1 3f3e 6cd2 843d
00000010: 66bb fcbd 0a7c 4cbe 6662 34be 0d53 dbbd
00000020: 50d0 a9bc ecf1 743e 38d8 c7bd d8ed 2abe
00000030: 5d5f 29be 68af 423e f73b 03be aa4b 41bd
00000040: 682f 32be 3476 35bf cf2c 933c d72a 85be
00000050: b72e 973c af43 863d ccb8 16bf 4747 383e
00000060: 986e 5e3e 7d85 1b3e d490 b0be b161 d6be
00000070: 7cea 84be f5be d1be 5f93 373d 8474 09bf
00000080: bb83 a63d 6ab6 78ba
-0.18790141 -0.43719742 0.18732417 0.06485447 -0.12340431 -0.19969192 -0.17615661 -0.107092
-0.020729214 0.23920411 -0.09758037 -0.16692293 -0.16540284 0.19012225 -0.12815844 -0.0471913
-0.17400897 -0.7088349 0.017965702 -0.26009247 0.018454893 0.06555878 -0.5887573 0.1799594
0.21721876 0.1518764 -0.34485495 -0.41871408 -0.25960147 -0.40966 0.04481828 -0.53693414
0.08130594 -0.0009487631

bn3.running_var f4 [34]
00000000: 2a69 b23e 9601 a53e 7a51 d03e bd07 c23e
00000010: d6ba c83e 6ff5 a53e d386 a83e 2ef5 b53e
00000020: 1dc1 ac3e c636 a73e 4e58 c53e 4495 b93e
00000030: ce5b ab3e da84 ad3e 2607 be3e 2428 be3e
00000040: 8f60 963e 8cbd ba3e 3a2b 8f3e e98c c63e
00000050: 98f6 cf3e 6926 cc3e 5937 b73e 4585 883e
00000060: dc7f a63e 3fd1 973e ba19 ab3e 53e0 bc3e
00000070: 7764 a23e 78fb ec3e 1d3b 993e 4b2f f63e
00000080: de7b a53e 09e0 b23e
0.3484586 0.32227772 0.40687162 0.3789653 0.39205045 0.32413813 0.32915363 0.3553862
0.33741084 0.32658976 0.38543934 0.36246693 0.3346848 0.3389042 0.3711483 0.3714
0.29370543 0.36472738 0.27962667 0.3877938 0.40617824 0.39873055 0.35784414 0.26664177
0.32519424 0.2965183 0.33418065 0.36889896 0.31717274 0.46285605 0.29927912 0.48082957
0.32321066 0.3493655

out.weight f4 [2, 34]
00000000: a31b ab3e e48e 733e a7c4 65be afc9 323e
00000010: e9fb 72be c077 993e 28eb 6dbe ed66 873e
00000020: 37c4 a9be 33d3 0dbe 7a6f e7bd 4352 47be
00000030: 3758 5b3e 2a4f a1be ae05 87be d8f7 05be
00000040: d453 49be b9d6 833e 0a01 66be 46ad 353e
00000050: 0896 b6bd c81d 5abe 36e1 ab3e 6453 a6be
00000060: be9d 50be 39d1 2c3e b210 963e fd11 413e
00000070: 7c2d 8b3e d532 a73e 61ee 993e b976 4d3e
00000080: 2941 71be eb0d 9dbe 3236 a0bd 3329 b0be
00000090: 9f7c 1c3e b949 89be 1a6c 563e 300d 8dbe
000000a0: 9227 993e 6152 9bbe 30b9 943e e323 873e
000000b0: 8504 ad3e 82b2 863e 3eb7 0ebe 3ccf 903e
000000c0: b17e cb3e eb47 af3e 0527 4a3d d5f0 8fbe
000000d0: 3c14 8c3e 3d4c 54be 989d b83e 3378 373e
000000e0: 6a35 fabd 332a 123e 14ed 663e f77a 89be
000000f0: 1f14 81be 2dd6 96be 7d6e aabe 99a4 e8bd
00000100: 09a0 a2be 6b0f 6cbe 1725 873e 44c7 a93e
0.33419523 0.23784977 -0.22438298 0.17459749 -0.23728909 0.29974174 -0.23234236 0.26445714
-0.33157513 -0.13850097 -0.11300559 -0.19464974 0.2142037 -0.3150571 -0.2637152 -0.13082826
-0.19660884 0.25749758 -0.22461334 0.1774188 -0.08915335 -0.21300423 0.3357026 -0.32485497
-0.20372674 0.16876687 0.29309613 0.18854518 0.2718314 0.3265597 0.3006468 0.2006482
-0.23560013 -0.3067468 -0.07822837 -0.34406433 0.15281914 -0.26814058 0.20939675 -0.27549124
0.29913002 -0.30336288 0.29047537 0.26394567 0.3379251 0.26308066 -0.13937089 0.28283107
0.39745095 0.34234557 0.04935362 -0.28113428 0.27359188 -0.20732208 0.36057734 0.17916946
-0.12217219 0.1427391 0.22551376 -0.26851627 -0.25210664 -0.29460278 -0.3328742 -0.113595195
-0.31762722 -0.23052756 0.26395485 0.3315984

out.bias f4 [2]
00000000: a758 133e 9b26 31bd
0.14389287 -0.043249708
