models/model_weights/human_only_epitope_motif_mod.pt (torch_old, 13635 bytes, 16 tensors)

conv.weight f4 [4, 1, 3]
000000 38 ad 36 c0 c5 03 a5 be e9 59 46 be 0f cf 7d bd
       -2.8543224 -0.32229438 -0.19370236 -0.061965045
000010 8a e8 90 3c ee 38 a0 be f2 fa 97 3e 39 58 3b 3f
       0.017689008 -0.31293434 0.29683644 0.7318149
000020 62 97 37 40 b2 10 3f c0 64 af bb be 21 ed 06 bf
       2.8686147 -2.985394 -0.3665725 -0.5270558

conv.bias f4 [4]
000000 be 84 c8 be f0 80 c8 be c2 79 0a 3f 2f 75 b7 bd
       -0.39163774 -0.39160872 0.5409204 -0.08957898

fc1.weight f4 [38, 44]
000000 d4 49 8b 3d ed 48 a8 3e c0 4b 2c 3f 01 74 54 3f
       0.06801191 0.32868138 0.67303085 0.8298951
000010 9e ff 0e bf ff fa 16 40 d2 ba 1d c0 56 d0 5f 3f
       -0.5585879 2.3590696 -2.4645276 0.8742727
000020 76 7d 8c 3e 5e 10 94 bd 86 b5 dc bd 14 0a 4d be
       0.2743947 -0.07229684 -0.1077681 -0.20023376
000030 ee 9d 5f bd 2a 94 a7 3f d6 c8 a0 bd 39 51 96 be
       -0.054593973 1.3092091 -0.078508064 -0.29358843
000040 72 38 dc 3c 34 bd 4e bf e5 96 1d 3d 28 f9 71 3e
       0.026882384 -0.8075745 0.038473982 0.23630202
000050 f9 ea 3a be 91 29 04 ba 32 13 33 be 0f fe bf 3e
       -0.18253697 -0.0005041594 -0.17487791 0.3749852
000060 83 2f 76 3f 71 e8 f6 bf 5f 42 c1 bf eb be 8e 3e
       0.9616625 -1.9289685 -1.509838 0.27880034
000070 bc 7b 3a 3b 18 5f ff bd 0b d2 ee 3d d6 d9 b1 bd
       0.00284551 -0.124693096 0.11661156 -0.08684127
000080 b7 71 27 be 6c 8c d5 3d 53 1a 97 3e 3e b7 ab 3e
       -0.16351973 0.10427174 0.2951227 0.3353824
000090 f4 47 7e be 0c c6 c7 3f 03 f7 8e 3f 21 cd e1 bf
       -0.24832135 1.5607314 1.1169132 -1.7640725
0000a0 b0 ca 00 3f 53 b6 1a bf 2c c6 c9 bd 71 83 75 3e
       0.50309277 -0.60434455 -0.098522514 0.23975922
0000b0 31 46 bd bd 8b 24 0d 3d 1e d7 43 3d 66 99 02 3e
       -0.092419036 0.03445868 0.047812574 0.1275383
0000c0 18 d7 3f 3f 3e 07 6c 3e 4a 4a 82 3f 08 33 81 40
       0.7493758 0.23049638 1.0178921 4.0374794
0000d0 76 ff 9a 3f b3 fe 3f 40 2f 71 41 be ee ca fc 3d
       1.210921 2.9999206 -0.18890832 0.12343393
0000e0 c4 d6 4b 3d ec fb 41 be a6 f3 fd 3e 92 68 33 bf
       0.049765363 -0.18943757 0.49599952 -0.70081437
0000f0 b8 77 a8 3f 54 e1 e7 3e 0a 53 99 3e 4e db 2e 3d
       1.3161535 0.452891 0.29946166 0.042689614
000100 be 9e 55 3d 77 6f 68 3d f2 9d 0f 3e 38 60 4d 3e
       0.05215334 0.056746926 0.14025095 0.20056236
000110 e8 4b 4d be de 21 5a 3e 67 68 88 bf c0 4b c4 bf
       -0.20048487 0.21301982 -1.0656861 -1.5335617
000120 2a 8d 2f be ca fc 6b bf e1 55 91 3d b5 ee 85 bd
       -0.17143694 -0.921826 0.07096458 -0.065396704
000130 2c 5e 48 3e 7b b9 17 3e f4 1c 09 3d d4 d3 c8 bd
       0.19567174 0.14816849 0.033474877 -0.09806028
000140 22 6d b4 3e 03 ea 1c bf bc 8e 87 3f f1 81 18 3f
       0.35239512 -0.61294574 1.0590434 0.59573275
000150 fd 83 e0 3e 6b 88 8e be 45 74 10 be 00 64 c0 3c
       0.438507 -0.27838454 -0.14106853 0.023485184
000160 13 b5 2a 3e ed cf 32 bd 3c 1e a4 3e c7 64 e3 3e
       0.16670637 -0.043655325 0.32054317 0.44412825
000170 b0 9b 91 40 4a ac 56 be 09 00 f8 bf 47 b4 82 3e
       4.550255 -0.2096416 -1.9375011 0.25528166
000180 13 9a b4 3c 8a e9 8a be 0d 1e 10 be c0 71 ac be
       0.022046125 -0.271313 -0.14073963 -0.33680534
000190 3d 7d 72 3e e5 77 e4 3f 08 da 5a be 1f 5b 8d 3d
       0.23680587 1.7849089 -0.21372235 0.069021456
0001a0 72 73 0c bf c9 5c 56 3e 49 96 fe be 5c 2d 38 3e
       -0.54863656 0.20933832 -0.49724033 0.17986053
0001b0 a5 e7 88 be b9 f8 0d be c0 3e 20 bd a2 50 56 3e
       -0.2673923 -0.13864411 -0.039122343 0.20929196
0001c0 e4 4e 5c bf ff ea b4 bc 24 77 52 bf 0a f2 bd be
       -0.8605788 -0.022084711 -0.82213044 -0.37098724
0001d0 ad d8 c6 3d ea 05 21 bf e0 32 0e bd bd 67 9a be
       0.097092964 -0.6289965 -0.034716487 -0.3015727
0001e0 f0 23 40 3d 69 d2 51 3c 63 e0 8f 3e ef 4a 07 3d
       0.046909273 0.012806513 0.2810088 0.033030447
0001f0 52 17 1d 3e 81 55 a4 bf 89 86 8d 3e 59 15 c3 be
       0.15340927 -1.2838594 0.27641705 -0.38102224
000200 00 91 27 bf ea a5 dd 3e b3 cb 8e 3d 42 ef e8 3d
       -0.6545563 0.43290645 0.06972446 0.1137376
000210 ba 04 64 3f 65 d0 e4 be 2b b8 61 be 0b a6 8e bf
       0.8906971 -0.44690242 -0.22042911 -1.1144422
000220 7f 17 3e bf fd cd 1d 3e e1 97 79 bf b4 ea b6 bf
       -0.742546 0.1541061 -0.97497374 -1.4290376
000230 bf 4e ad bf ec 4c 52 bf 65 73 e7 be 26 99 31 be
       -1.3539656 -0.82148623 -0.45205227 -0.17343578
000240 20 90 dc 3b e4 83 e7 3d 26 b6 13 be 3b d6 a2 be
       0.006731048 0.11304453 -0.14424953 -0.3180407
000250 b2 1e 70 3f 6b 17 82 3f 50 59 c0 3e 01 42 f8 bd
       0.9379684 1.0163397 0.3756814 -0.12121964
000260 2d ad 92 bc cf ce 42 3d 12 1d 2e 3f 75 00 e2 bf
       -0.017904842 0.04756051 0.6801311 -1.765639
000270 7e a2 0e bf 4f 68 14 3e 24 50 50 bf 2a 9a 44 be
       -0.55716693 0.14492916 -0.81372285 -0.19199434
000280 5c 65 ed 3e 3b 93 f9 3e ce 5c 30 3e 6d 93 cd 3e
       0.46366394 0.4874514 0.17222902 0.4015154
000290 a6 71 a0 3e 24 a4 83 bf 9f 3e d0 bf 26 eb e0 bf
       0.31336707 -1.0284467 -1.626911 -1.7571762
0002a0 13 29 10 3f c6 6e 36 3f 57 a2 15 3f 63 1b 8b 3f
       0.56312674 0.71262777 0.58450836 1.0867733
0002b0 15 0e cb 3e e1 e2 48 be 2a fe 0e bf f2 94 5e bf
       0.3965918 -0.19617797 -0.55856574 -0.8694602
0002c0 3c 61 7a c0 a0 ca a9 3e 21 f1 8c 3e c5 67 a5 bd
       -3.9121847 0.33162403 0.27527717 -0.08076433
0002d0 34 58 45 3c db 3f 01 be 8f 4a 44 be c7 d5 44 bb
       0.012044955 -0.12622015 -0.19169067 -0.0030034648
0002e0 70 f8 49 bd dc 7b 2d 3a 8c 68 24 bd 56 1d e9 3e
       -0.049309194 0.0006617883 -0.040138766 0.45530194
0002f0 03 9b 8d 3d e8 3f b1 bd e1 c8 20 3b 41 32 e5 bd
       0.06914332 -0.08654767 0.0024533796 -0.11191226
000300 85 d3 b7 bc 09 35 81 3d b7 72 02 3e 79 c8 b4 3c
       -0.022439728 0.06308944 0.12739073 0.022068249
000310 22 80 21 bd 4f c7 9f 3b 73 11 55 be 9b e7 2b bd
       -0.039428838 0.0048760544 -0.20807438 -0.041968923
000320 5f 97 31 3d cd d8 0d 3e 82 a2 58 3c 08 e5 19 bc
       0.04335725 0.13852234 0.013222339 -0.009392984
000330 6b fd 91 bd f5 75 06 be 2e 98 4e 3d 8c 6f 9b bd
       -0.07128414 -0.13130935 0.0504381 -0.07589635
000340 fe 06 b6 bd 3e 07 33 c0 d9 fd 3c 3e 78 a9 7a 3f
       -0.088880524 -2.797317 0.1845621 0.9791484
000350 f8 25 cf bc 0b bb 9b be 5f 2a dd ba a9 48 d6 3c
       -0.02528666 -0.3041614 -0.001687359 0.026157694
000360 51 03 84 bc a6 b4 36 3c 2a 47 ec 3d 31 20 67 bd
       -0.016114863 0.011151468 0.11537011 -0.056427184
000370 84 23 c5 bf d8 ae be bf c6 75 0e c0 66 fe 93 bf
       -1.5401464 -1.4897108 -2.2259383 -1.1562011
000380 90 51 6c bf 45 96 73 bf 0c a3 9a bf b5 8d 29 3f
       -0.92311954 -0.9515117 -1.2081008 0.6623185
000390 47 98 2d 3f 68 ed 16 3f 76 3b a0 3e 1c cd 4c 3f
       0.6781048 0.58956003 0.31295365 0.8000047
0003a0 4c 49 c7 bf 6f 7c 3a be 80 18 f9 bd 23 d1 f4 3e
       -1.5569243 -0.1821153 -0.12162876 0.4781581
0003b0 56 5e a8 be 27 dd 4e 3e b3 d0 11 bd 8e 2f 1f bf
       -0.32884473 0.2020155 -0.03559942 -0.6218194
0003c0 64 e8 9b be 3e a3 8b bd 11 8c ea 3e 9b 42 49 3f
       -0.30450737 -0.06818245 0.45809987 0.78617257
0003d0 68 e7 e9 3e 51 64 99 3f a6 71 f1 3e 03 9c a6 be
       0.4568436 1.1983739 0.4715702 -0.32540902
0003e0 71 82 89 3d ba 98 b2 be 7a 24 29 bf 29 99 8a be
       0.06714333 -0.34882146 -0.66071284 -0.27069977
0003f0 b6 e2 8d bc 8a d1 60 3e 5f 30 ca be d8 b5 92 3e
       -0.017320018 0.21954933 -0.3949003 0.2865436

fc1.bias f4 [38]
000000 1d 83 8d 3d 14 a4 d8 bd 2e 19 ae bd 33 1e f9 3d
       0.069097735 -0.105781704 -0.085008964 0.12163963
000010 22 eb b6 bd f3 08 6b bd f4 10 3d 3c fa 7f de bd
       -0.08931567 -0.05738158 0.0115396865 -0.10864253
000020 f0 30 00 be 36 55 b0 bd ba 4b c9 bd 13 64 0c 3e
       -0.12518668 -0.08610003 -0.09828897 0.1371005
000030 05 cf 1d 3e 6c 1d 00 be d4 9e df 3d ef 64 81 bc
       0.15411003 -0.12511224 0.10918966 -0.0157952
000040 a8 95 05 be 99 76 94 3d 0b 4e 73 bd 42 9b c9 3d
       -0.1304537 0.07249183 -0.0594006 0.09844066
000050 e8 27 1f bd 9a 09 9c bd cf 74 f3 3d ea b1 e2 bd
       -0.038856417 -0.07619019 0.11887514 -0.11069091
000060 8e fd 87 3d 03 34 3b 3d 88 ec 40 bd 43 5b 4c bd
       0.066401586 0.0457039 -0.047100574 -0.04989172
000070 97 32 45 bd ab 44 62 bd a6 d9 cd 3d 20 02 a8 3b
       -0.04814395 -0.055241268 0.10051279 0.0051272064
000080 95 ee 3c bd 04 2c 7c 3d 36 c8 a1 3c 37 60 08 3e
       -0.046125967 0.061565414 0.019748788 0.13317953
000090 e9 c8 87 3c 4c ba 5f bc
       0.016575294 -0.0136552565

bn1.weight f4 [38]
000000 37 db 75 3f a6 9d 84 3f 53 ed 8c 3f 69 4d 5d 3f
       0.9603762 1.036061 1.1009926 0.86446244
000010 6a 54 83 3f dc d5 42 3f cd 5d f8 3f 98 11 67 3f
       1.0260136 0.76107574 1.9403626 0.9026122
000020 50 bc 50 3f 7c c5 eb 3f 6d 07 86 3f 3a 44 d1 3f
       0.8153734 1.8419642 1.0471016 1.6348946
000030 e6 d2 a0 3f 86 15 0e 3f 8b dd 82 3f 8c 06 70 3f
       1.2564361 0.5550159 1.022386 0.9375999
000040 f1 21 6a 3f 88 c8 7f 3f 17 65 6e 3f 8b 82 9e 3f
       0.9145804 0.9991536 0.93123 1.2383589
000050 62 a9 95 3f 75 ed 84 3f af 28 4b 3f 25 58 3c 3f
       1.1692317 1.0384966 0.79358953 0.73572
000060 53 fc 82 3f 78 54 d6 3f bc 3e 41 3f cd f9 2f 3f
       1.0233253 1.6744528 0.7548635 0.6874054
000070 15 e2 53 3f d4 53 9b 3f ca 37 74 3f 1f 89 5f 3f
       0.8276685 1.2134957 0.9539763 0.87318605
000080 6c 71 48 3f 3e 74 63 3f ba ab aa 3f 44 cc 60 3f
       0.7829807 0.88849247 1.3333657 0.87811685
000090 ad 54 5d 3f c9 04 6e 3f
       0.8645733 0.9297605

bn1.bias f4 [38]
000000 bf 40 33 bf aa 06 73 bf 1e d5 28 bf 63 f3 07 bf
       -0.7002067 -0.94932044 -0.6595019 -0.53105754
000010 11 89 0e c0 ae 67 08 bf 52 1d cd bf 5a 13 42 bf
       -2.2271159 -0.532832 -1.6024573 -0.7581078
000020 94 01 83 bd 44 2f 97 bf a0 86 44 bf e3 52 0f bf
       -0.063967854 -1.1811299 -0.7676792 -0.5598585
000030 1b 7a 9d bf 0d da 47 be 71 22 86 be 3d 5a ca be
       -1.2302889 -0.19516774 -0.26198152 -0.3952197
000040 50 80 e4 be 57 23 98 bf 98 ec 25 bf 02 36 3f bf
       -0.44629145 -1.1885785 -0.6481414 -0.74691784
000050 32 ea 70 bf 03 ec 9d bf 74 16 3c bf 00 96 db 3c
       -0.94107354 -1.233765 -0.7347176 0.026804924
000060 08 33 3f bf 15 8c 51 bf 36 f6 85 bd 9b 2d 0a be
       -0.7468724 -0.81854373 -0.06541102 -0.1349396
000070 cc 69 24 bd 51 68 6e bf 9b e1 f8 bf e2 7e be be
       -0.04013996 -0.93127924 -1.9443849 -0.3720618
000080 91 38 01 bf f5 d5 2d bf 0b dd 55 bf f0 8f f5 be
       -0.5047694 -0.679046 -0.8354041 -0.47961378
000090 3f 12 76 be 18 d7 e3 be
       -0.24030398 -0.4450004

bn1.running_mean f4 [38]
000000 5d 7c f3 c1 bb 26 82 c3 4c e0 df c2 84 72 e2 41
       -30.435724 -260.30258 -111.93808 28.305916
000010 a5 47 d7 41 6b 78 40 43 bf bc 28 43 6d e7 ba 42
       26.909983 192.47038 168.73729 93.452
000020 92 db 26 43 f9 ad ab c2 ef e3 2b 41 8d 49 9e 41
       166.8577 -85.83979 10.743148 19.785913
000030 cf ba 01 42 c0 80 e0 40 a4 47 ab 42 4b 9e 0c c3
       32.43243 7.0157166 85.63992 -140.61833
000040 0d f8 b9 42 e1 72 99 c0 49 3d 1e c3 bc 27 0d 43
       92.984474 -4.7952733 -158.2394 141.15521
000050 c0 3b 9e c2 a8 31 3f c2 6b c9 a1 41 0e 35 88 c2
       -79.1167 -47.798492 20.223349 -68.10362
000060 dc ab 56 c1 9c 87 6e c2 53 a3 d0 42 e3 0d 3b c2
       -13.416958 -59.63243 104.31899 -46.76356
000070 b3 47 c5 c1 dc 05 ec 42 32 aa b2 42 7d 21 63 42
       -24.66001 118.011444 89.33241 56.782703
000080 f2 3c 22 43 59 41 e0 42 2e b5 07 c3 86 57 0c c1
       162.23807 112.12763 -135.70773 -8.771368
000090 bf 4a fa 42 49 58 ca c2
       125.14599 -101.17243

bn1.running_var f4 [38]
000000 51 b2 2e 44 2e be 9c 44 11 63 aa 44 b2 ad 68 44
       698.7862 1253.9431 1363.0958 930.714
000010 63 00 e8 43 a4 9c 52 44 cc e9 2e 45 92 77 8d 44
       464.00302 842.4475 2798.6123 1131.7366
000020 a5 50 dc 44 94 33 c6 44 e7 48 74 44 b6 f7 90 44
       1762.5201 1585.6118 977.1391 1159.741
000030 4b 10 9d 44 8d 17 17 44 d9 25 8b 44 56 e2 7f 44
       1256.5092 604.368 1113.1827 1023.5365
000040 63 d2 61 44 75 75 dd 43 26 fd 9f 44 99 8e 28 45
       903.2873 442.91763 1279.9109 2696.9124
000050 6e d4 84 44 4c 58 07 44 cd eb fb 43 69 5c 39 44
       1062.6384 541.37964 503.8422 741.4439
000060 63 96 84 44 0e 7d b9 44 64 da ad 44 ad ce 0b 44
       1060.6996 1483.908 1390.8247 559.2293
000070 68 d0 95 44 92 e9 a5 44 7e 51 10 44 04 d0 34 44
       1198.5127 1327.2991 577.2733 723.25024
000080 f9 53 56 44 1e 8c 80 44 a6 a9 c8 44 ae 3b cb 43
       857.3121 1028.3787 1605.3015 406.46625
000090 4d cc c4 44 00 8e 16 44
       1574.3844 602.21875

fc2.weight f4 [20, 38]
000000 9d 1f 16 bf 29 79 9d 3e 16 ba b0 be 63 e5 9f 3e
       -0.5864199 0.307565 -0.34516972 0.31229696
000010 0c 3d 71 c0 0d 38 a0 bf 02 34 d3 bd cb c1 48 3f
       -3.769351 -1.2517105 -0.10312654 0.78420705
000020 0d 69 c0 bb e0 2e c4 bf 7d 17 69 bf cc 8a 10 3d
       -0.005871898 -1.5326805 -0.91051465 0.035288617
000030 f1 3a 60 bd c7 f0 a2 3e d5 0b b2 3e ad d5 b6 bf
       -0.05474371 0.31824324 0.34774652 -1.4283959
000040 e1 f9 51 c0 86 74 36 bf 7f 72 96 be a3 70 93 3e
       -3.2808764 -0.7127155 -0.2938423 0.28796872
000050 23 42 1a 3f c5 58 e0 3d a2 a0 20 c0 1c ce a7 bd
       0.60257167 0.109544314 -2.5098042 -0.08193609
000060 92 99 49 bf a1 7e 83 be 73 c9 82 3e 85 b5 9b bf
       -0.78749955 -0.25682548 0.2554432 -1.216477
000070 f5 b4 85 3e ef fa 3d 3f 0d b1 ee bf 45 bb a7 bf
       0.26114622 0.7421102 -1.8647782 -1.3104025
000080 7e 8b 0c c0 93 73 c5 3e 98 c5 40 c0 86 a1 cb bf
       -2.196014 0.3856474 -3.0120602 -1.5908668
000090 4f e0 c9 3e 67 94 6c be eb bd a3 3d 04 e8 52 be
       0.39428946 -0.23103486 0.07995208 -0.2059632
0000a0 50 87 78 3e 7e d3 83 3d d0 be 8a 40 8e a4 24 3e
       0.24270368 0.06436823 4.3357925 0.16078398
0000b0 90 64 88 c0 7d ac 0e bd 29 af ce bf b9 ac 3a bf
       -4.2622757 -0.034832466 -1.6147205 -0.72919804
0000c0 70 96 5f 3e 53 7f 04 bf da cc 4a c0 aa ff ac 3e
       0.21834731 -0.5175678 -3.1687531 0.33788806
0000d0 ed 9d ca bf e1 a0 23 bd 55 5b 29 be 4d 06 cc 3d
       -1.5829445 -0.039948348 -0.16538747 0.09962139
0000e0 6a 5c d3 3e e1 91 29 c0 ba c9 05 bf 90 40 0b 3e
       0.41281444 -2.6495287 -0.52260935 0.13598847
0000f0 48 25 83 3e e2 ff 5a 3e ad 95 25 3d 22 d4 45 bf
       0.2561438 0.21386674 0.040425945 -0.77276814
000100 8d 6b 34 bf 8e d9 21 3e 44 28 3e bf 1f d1 cb bf
       -0.7047661 0.15805647 -0.7428019 -1.5923194
000110 79 83 55 3f 11 fa 16 3e 20 08 e4 3d b8 92 35 bf
       0.83403736 0.1474383 0.11134362 -0.70927
000120 e9 5c 94 3e 9d 28 c8 3d f2 87 cd bf 3b f4 0e bf
       0.28977135 0.09773371 -1.6057112 -0.55841416
000130 88 86 c7 3e 3c b1 69 be 67 b0 1e 3e 4e e8 cd be
       0.38969827 -0.22821516 0.1549698 -0.40216297
000140 3f 19 b1 3e 98 9d f9 3e f3 5b 4f 3f 67 38 6d bf
       0.34589574 0.48753047 0.8099968 -0.9266419
000150 85 79 21 bf b4 54 65 c0 9c a0 0f 3d 44 35 d7 bf
       -0.6307605 -3.5832949 0.03506528 -1.681313
000160 3a d5 14 c0 09 c7 49 3e 7d fc 9b be 8e 23 59 3f
       -2.3255143 0.19704832 -0.3046607 0.8481988
000170 3f 7f 9a 3e b1 ee fd be d4 31 f8 be 85 8e 58 bf
       0.30175206 -0.4959617 -0.48475516 -0.8459247
000180 7a 68 8a bb ff bb 8b be 72 9d 48 bb d8 9a 7d 3d
       -0.0042238804 -0.27291867 -0.0030611423 0.06191525
000190 ea 0b 59 bf 79 fd 38 c0 95 6d a9 bf c6 f7 a6 3d
       -0.84783804 -2.8904707 -1.3236567 0.08152728
0001a0 12 f2 ca bf 1f a8 a0 bc d6 da fe be 97 fb 92 3e
       -1.5855124 -0.019611416 -0.49776334 0.28707573
0001b0 2a 3e c4 3c 55 ca ef bc d6 83 4f 3f 26 9a 39 3f
       0.023955423 -0.029271284 0.8106054 0.72500837
0001c0 6d 14 40 bf 48 ab 8c be 91 14 14 3e 70 d5 c2 be
       -0.7503117 -0.27474427 0.1446097 -0.38053465
0001d0 e8 37 a0 3e 38 07 be 3d 26 0a c3 40 d7 d5 85 3d
       0.31292653 0.092787206 6.094989 0.06534927
0001e0 dd 40 97 c0 b1 ea 85 bd be ad 34 bf c7 80 2a bf
       -4.726668 -0.065389045 -0.7057761 -0.6660275
0001f0 ea 5a 5d 3e 5e 57 9a be 3a 05 80 c0 07 c7 3d 3e
       0.21616712 -0.3014478 -4.000638 0.18532954
000200 01 7f 2a bf 87 e8 8b 3e 84 81 cb bd f9 17 60 be
       -0.6660004 0.27325842 -0.099368125 -0.21884145
000210 a1 bf 48 3e 42 12 e4 bf cf da 14 bf 6e 9e 2f 3f
       0.1960435 -1.7818072 -0.58146375 0.6860112
000220 e7 ec 83 3e a0 79 3d 3e a5 28 48 3e 18 93 e1 be
       0.2576668 0.18503428 0.19546755 -0.44057536
000230 1c 4f 54 be d9 66 ac 3d 43 5d 0f bf ca 73 aa bf
       -0.20733303 0.08418054 -0.5600168 -1.3316586
000240 4e 76 e6 3f b7 dc 03 3e 28 5d 46 3e 34 3b b8 be
       1.8004854 0.12877165 0.19371474 -0.35982668
000250 6e 12 ee 3e 57 a3 c0 3d 24 52 cc be 8d a8 00 bf
       0.46498436 0.094061546 -0.39906418 -0.5025719
000260 aa fb 97 bf a8 2a 7d 3f 13 bf 18 bf 6d 70 2b 3f
       -1.1873677 0.98893213 -0.59666556 0.66968423
000270 cc 8f 98 c0 48 7c 78 bf a9 56 a9 3e c1 19 61 3f
       -4.7675533 -0.9706464 0.3307393 0.8792992
000280 07 41 71 3e 15 e2 22 bf f2 46 33 bf 85 db 0b 3c
       0.23559962 -0.63626224 -0.7003013 0.008536224
000290 d1 f1 5d 3f 4d 2e 1c 3f 4e b8 81 3e cb e8 99 bf
       0.8669711 0.6100815 0.25335926 -1.2024168
0002a0 ee fb 64 bf e6 54 b7 bf bf fd 4e bf bf 31 1e 3f
       -0.89446914 -1.4322784 -0.80855936 0.61794657
0002b0 47 69 fb 3f 1e 61 96 bf d6 41 8a bf ec 5f b4 bf
       1.9641503 -1.1748388 -1.0801342 -1.4091773
0002c0 48 79 6e bf 12 99 dd bd a8 9c e5 3d 17 ed 72 bf
       -0.9315381 -0.108202115 0.112115204 -0.9489302
0002d0 b0 a7 f2 3d df 9e a2 3e 70 99 07 c0 ce f3 ec bf
       0.1184839 0.31761834 -2.11874 -1.8511903
0002e0 8c 70 17 bf af 81 ef 3e 04 ff 06 c0 41 18 d6 bf
       -0.5915611 0.46778628 -2.109315 -1.6726152
0002f0 a0 fe bb 3e 7d 36 c3 be 7a 0d 0f bf 63 96 84 3f
       0.367177 -0.3812751 -0.5587994 1.0358394
000300 8e 9c 9c bf b7 df 0d 3f ba ba 83 c0 cf 75 27 bf
       -1.2235277 0.55419487 -4.116544 -0.65414137
000310 c2 73 d5 3d d4 28 88 3e d3 ae c7 3c 63 fb 9f 3b
       0.1042247 0.2659365 0.024375355 0.0048822626
000320 01 5b 3a bf 1f 7f 0a 3c 79 18 42 3f 3d b8 01 3f
       -0.7279511 0.00845316 0.7581859 0.5067175
000330 de 91 ba bd e4 9c 1d bf 00 97 43 3d f1 b9 ee bf
       -0.09109853 -0.6156752 0.047751427 -1.8650495
000340 41 3b a1 bf 90 35 d3 3e 19 fa 92 3f c1 42 2d c0
       -1.2596208 0.41251802 1.1482574 -2.7071993
000350 34 1f 4b bf f2 4d 3d c0 da c1 92 bf d5 62 66 3e
       -0.7934449 -2.9578824 -1.1465409 0.22498639
000360 74 03 10 3e b0 b5 39 bf 74 71 9d be 3b 0b 01 3f
       0.14063817 -0.7254286 -0.3075062 0.5040776
000370 81 30 f5 bf 43 a4 2e bf 4e 89 d3 be 6d f6 dc 3e
       -1.9155427 -0.68219393 -0.41315693 0.43156758
000380 47 29 f0 bf 01 51 00 c0 bf b0 0f 3e b9 b7 20 bf
       -1.8762597 -2.004944 0.14032267 -0.6278034
000390 e9 56 27 bf 5f 33 91 3f 96 f1 77 bf b6 7f 9a 3d
       -0.6536699 1.1343802 -0.96853006 0.0754389
0003a0 ef 1b 05 c0 e8 30 2e bf 9b 3e 33 bf 8c 2c 98 be
       -2.07983 -0.68043375 -0.70017403 -0.29721487
0003b0 60 1e a8 3c 4a 06 97 be bf 44 37 bf 59 d2 67 3e
       0.020522296 -0.29496986 -0.71589273 0.22638835
0003c0 fe 3a 88 3e 68 36 eb 3e ad 5b 74 bf 67 46 04 bf
       0.26607507 0.45939946 -0.95452386 -0.51669925
0003d0 a3 98 bd be 8b 46 88 bf a3 46 39 bf c5 c1 36 3d
       -0.37030515 -1.0646528 -0.7237341 0.044618387
0003e0 38 27 9c 3f 56 55 cc bf 0f ad 47 bf d5 3c b5 bf
       1.2199469 -1.5963542 -0.7799844 -1.415919
0003f0 5c d0 1d bf 1a fc 2e 3e 6d df ca bd 1e 0b 31 bf
       -0.61646056 0.17088357 -0.09905896 -0.6915759

fc2.bias f4 [20]
000000 d5 0e bf bd af 85 dd 3d 11 5b de bd 50 d4 bf 3d
       -0.09329001 0.10816514 -0.10857213 0.09366667
000010 4e a2 c3 3d 43 15 eb bd 15 0d 0d be ce 85 c4 3d
       0.095524415 -0.11478665 -0.13774522 0.09595834
000020 36 01 11 3e 55 61 11 be 04 bb 3b 3e 24 12 62 3d
       0.14160618 -0.14197285 0.1833306 0.05519308
000030 8c 3f 13 3e 75 99 16 be 10 5a 92 be 91 f1 3f be
       0.1437971 -0.14706977 -0.28584337 -0.18744494
000040 00 4e cd 39 42 9a f7 3d f0 0a 06 3e 27 dc 16 be
       0.00039158762 0.12089969 0.1309011 -0.14732419

bn2.weight f4 [20]
000000 bf 8f 46 3f 1d 6b 4c 3f 3e 96 53 3f e2 d0 48 3f
       0.7756309 0.7985094 0.82651126 0.7844373
000010 b0 c5 db 3e 79 58 00 3f 8b 67 34 3f 65 e7 08 3f
       0.4292426 0.50135 0.70470494 0.5347808
000020 f4 cd 1f 3f fe ae 2e 3f 5b 87 46 3f a5 db 0c 3f
       0.62423635 0.68235767 0.77550286 0.5502265
000030 91 ae 80 3f 6d 32 14 3f 05 f6 f7 3e 80 e4 82 3f
       1.0053273 0.57889444 0.48429886 1.0225983
000040 43 da ef 3e 20 20 e1 3e fc 67 84 3f 94 93 43 3f
       0.46846208 0.43969822 1.0344234 0.7639706

bn2.bias f4 [20]
000000 04 7a d0 be 2c 63 b8 bd 3e 41 ad bd 11 ef 4a bd
       -0.4071809 -0.090032905 -0.084597096 -0.049544398
000010 0e 37 0e 3c 72 3c 82 bd c5 53 65 be 5c 14 09 be
       0.008680118 -0.06359185 -0.22395237 -0.13386673
000020 36 bf 99 3d bc 7d 78 bf 91 f4 77 bd 7c f2 d4 bd
       0.07507174 -0.97066855 -0.06053597 -0.10397813
000030 b4 75 bd be d2 e1 2a bd 95 3c 79 3e d8 a4 01 bf
       -0.37003863 -0.041719265 0.24339516 -0.50642157
000040 cd b8 81 bd 64 30 bd 3c 34 d1 cc be 8e ee ca be
       -0.06334076 0.023094364 -0.4000336 -0.39635128

bn2.running_mean f4 [20]
000000 ac 68 0f c0 a2 70 40 c0 84 6d 24 c0 d4 48 e2 bf
       -2.2407637 -3.0068746 -2.5691843 -1.7678475
000010 38 5a c7 bf 1e 8e 18 c0 6f 73 29 c0 41 ba df bf
       -1.5574408 -2.3836741 -2.6476705 -1.7478715
000020 aa ae 20 bf 82 23 cf 3f 3f 12 1a c0 8a 2c 11 c0
       -0.62766516 1.6182711 -2.4073637 -2.2683434
000030 ba 3f 43 c0 9d b5 f9 3f 56 ae 10 be fd 9a 42 c0
       -3.0507646 1.9508549 -0.14129004 -3.0407097
000040 54 13 b0 bf 6d 0d f7 bf b0 05 0e c0 39 eb 38 c0
       -1.3755898 -1.9300972 -2.2190971 -2.8893569

bn2.running_var f4 [20]
000000 cc 1b f7 40 df ab 8c 41 be 82 27 41 a3 07 12 41
       7.722143 17.583921 10.4694195 9.126864
000010 98 a8 f5 40 88 f0 02 41 77 b3 19 41 a6 af fe 40
       7.6768303 8.183723 9.606315 7.9589415
000020 81 29 f1 40 9e ee 3d 40 52 38 69 41 30 e5 e2 40
       7.5363164 2.967689 14.57625 7.090477
000030 76 d1 2f 41 02 04 33 40 c5 a9 63 40 ac 37 e0 40
       10.988638 2.7971196 3.557237 7.006796
000040 88 42 d9 40 33 5e ec 40 e7 41 c4 40 ce 3a 04 41
       6.7893715 7.386499 6.1330447 8.264357

out.weight f4 [2, 20]
000000 bc 84 91 bd de 10 08 3e 35 e1 44 3d e3 be 20 3e
       -0.07105395 0.13287684 0.048066337 0.15697818
000010 4a 47 5c be c7 fb 7a be d0 69 fe bd bc 90 72 3b
       -0.2151157 -0.24510108 -0.12422526 0.0037012538
000020 83 8b 97 3e ea 52 9c 3e a1 ff 91 3e 77 0f 01 be
       0.29598626 0.30532008 0.28515342 -0.12603556
000030 3f dd 23 3e 29 df fb 3d 1c 73 87 3e 14 f4 9a 3e
       0.16002367 0.12298424 0.2645501 0.30264342
000040 4b 2d 94 bd 1c ea 4d be 49 a0 8d 3e 32 ee bc bd
       -0.072352014 -0.20108837 0.2766135 -0.0922512
000050 2d a6 a9 3e 06 55 b0 be ec a7 c3 be df d4 a9 be
       0.33134595 -0.34439868 -0.38214052 -0.3317022
000060 4c 5d 32 3e 8f e0 ff 3d ef 37 73 3e 3e d5 9e 3e
       0.17418402 0.12494003 0.23751806 0.31022066
000070 e2 dd 48 be 64 52 ca be a7 44 91 be 5f e0 82 3e
       -0.19615892 -0.39515984 -0.2837269 0.25561807
000080 aa 90 ae be e0 b3 8e be ac c2 5e be b6 fb a2 be
       -0.34094745 -0.2787161 -0.21753949 -0.31832665
000090 c5 f2 87 3e 02 e8 47 3e a6 00 93 be c6 d7 ad 3e
       0.26552406 0.19522098 -0.28711432 0.33953685

out.bias f4 [2]
000000 64 f5 90 bd 16 68 a4 3d
       -0.070780545 0.08027665
