model_comparisons/model_weights/all_mammal_epitope_motif_mod.pt (torch_old, 13635 bytes, 16 tensors)

conv.weight f4 [4, 1, 3]
00000000: d431 54c0 fc8e aebe 22fb 43be 792d 02bd
00000010: fb6f 733c 1ac9 a5be 9224 653e 4729 ca3e
00000020: 8beb 5440 f3c3 3bc0 b8b6 d3be d6ff 15bf
-3.3155413 -0.34093463 -0.19138768 -0.031781647 0.014858241 -0.3237999 0.22377232 0.39484617
3.3268764 -2.9338348 -0.4135034 -0.585935

conv.bias f4 [4]
00000000: 1b77 f4bd ab8e edbe 0aa2 e73e 0ce3 e53d
-0.1193678 -0.4639791 0.45240813 0.112249464

fc1.weight f4 [38, 44]
00000000: 8636 303e 0e10 df3e fef0 9b40 9c36 19bf
00000010: c3b2 a7be 256b a3bc def0 273d 8022 073c
00000020: 3e52 9b3d 0d18 ca3c 73bb 413d 9bdc 9c3f
00000030: e1bb fd3c de6d 32be c78a aebe fef2 463d
00000040: 60b6 ebbd 12cd 78be aa54 b0bc 9e20 953d
00000050: 303f 37be 8843 2fbe 7221 88c0 a014 5e3d
00000060: 7344 4abd 2c14 a3bb 5a72 dfbd 1416 e83d
00000070: a37e e4bc 088f 43bd 8cbc acbd ebfe 7ebd
00000080: b68e b9bd 6def 023f 5902 8d3e c937 693f
00000090: bf12 99bd 7a02 43be f4a9 b1be e265 cf3e
000000a0: b83e a7be eb47 b9be cd92 263e 5727 163e
000000b0: 6448 81bd b684 6240 d2a2 eabd 764a b4be
000000c0: d7e3 5cbe b37f 133d 4a46 343e c991 ca3c
000000d0: d7d9 88be 8db2 e4bc 578f c43c 22a0 7fbe
000000e0: c638 603c f1e8 83bb 037f bdbd 910f 76be
000000f0: e7f8 873d f499 2a3d 401a 89bd 6c19 65ba
00000100: f89a 043e 77ac 47bb 34c4 7b3d f232 21bd
00000110: 8fe9 0cbe 5f82 c33b 2b9f 233e 5b4e cdbc
00000120: fea2 a73d 2d7c 3ebd 76e4 a13d d948 553c
00000130: 6761 853d c4d3 38be 5da1 95c0 ce1e fb3e
00000140: 97ad 303f 91e1 d7be f2ac 3bbd 6066 c93d
00000150: 13d4 4b3d 9917 abbd d08c b5bd bae0 04be
00000160: b9b7 8a3e af3e 40be fb71 ed3e 0d27 3a3f
00000170: 0871 8740 da22 34be a14e eabf e509 c73e
00000180: d75f 623e 5c35 7bbe 0a73 db3c 4b43 dabe
00000190: d3ab 85bd c68b 2a40 441e 473c 2bf2 593f
000001a0: 129a 2dbf 5c2c 973d befc ccbe 5903 04bd
000001b0: 60a5 d9bd e9ee 11be 32f7 a8bc fd04 be3e
000001c0: 8c79 65bf 9e2d 273f e61d 67bf da60 1dbe
000001d0: 59b9 bb3d b6df e0be 17b1 60be a964 0dbe
000001e0: 3b3a 8f3d 0ac2 7f3e 944c 2fbd 0c52 dcbb
000001f0: f39c a1be 006a 55be e41d b7be 9508 003e
00000200: f29f 55bf 55cc a83c bcd2 dd3e 1e23 7f3d
00000210: af42 a03e 51ad 203e f777 d93e 3ca2 bb3e
00000220: fec2 583f 4fda 8b3e b158 e63f e4c4 2a3e
00000230: e038 213e 3b67 773e b209 c93e 7042 02be
00000240: 9c70 913d 094e 023f e0a4 d4bb 3dc7 86c0
00000250: ab69 493d e5af 0e3f 80f1 c23d 60b3 e4bb
00000260: 15ae 9b3d bd9d ec3d f9d6 2f3e 4a0c 0f3e
00000270: 10c6 79bb 3877 d5bc 2108 f83e c24b d53d
00000280: 71ec 0dbe eda9 803d bad2 133e 9662 343e
00000290: 6634 533e 56ea 8e3e 0f85 b23d e221 aa3d
000002a0: 569c a03d 9d82 853f b284 b63e b66d b13f
000002b0: 4537 ab3c ac73 463e 71b7 5f3d b60b 5dbe
000002c0: 80e6 29bd 51ea 693d 971a 7a3e dd52 3a3e
000002d0: 37ad 7f3e 0861 31be 654e 713f 0a81 8b3d
000002e0: 3e5b 3e3e ab01 223e dde0 4f3e 0578 bdbd
000002f0: 773b a4be 7a2d 44bf 5f46 eb3e 33d1 3140
00000300: 1e14 6ebe 3031 fabd 5565 f4bd b917 03be
00000310: 4478 523d 17a7 003e 6bb5 ad3d da49 8a3e
00000320: 8e5f f4bb 882b 063f e81e 0c40 0ee6 283d
00000330: 3901 2abe 3f45 5dbd 074b 79be aa7e 58bc
00000340: 8b7b 1dbd 6aaa ec3c 01ea 76bd 021f 1e3e
00000350: a4c1 ecbd 93f1 b7be bcfe 68bf 85ab 6340
00000360: 2e0d abbf 10ba f6be 045a e33e 9f24 8d3e
00000370: abf2 76bf e8ac 1dbf 9e4d 0bbc 5f1f bfbe
00000380: f90e 853e 06e7 24be 31d9 313e e5ab 193f
00000390: 06a6 3bbd bc79 7b3e 26d7 203f e633 1b3f
000003a0: 0446 e2bd c559 e5bf 1b62 33bf 2b86 2340
000003b0: 45f5 e83e 3d43 203e 1482 16be 62a0 2abf
000003c0: 9bdb 03bf 5a14 a0bf ea17 d8bd 820a fe3d
000003d0: 8e02 b83e 17c4 353f 1dd6 dc3e b700 023f
000003e0: 77d8 aebe 96ff 9bbe f66b d5be 34a0 b9be
000003f0: 3c63 57be 1193 b43e 5ec3 653e 5e29 203f
0.17208299 0.43566936 4.873168 -0.5984895 -0.32753572 -0.019948551 0.041001193 0.008247972
0.07584046 0.024669671 0.047297906 1.2254823 0.030973377 -0.17424724 -0.34090254 0.04857158
-0.11509395 -0.24296978 -0.021524746 0.07281612 -0.17895198 -0.17115605 -4.2540827 0.05421889
-0.049381685 -0.00497677 -0.10910483 0.11332336 -0.027892416 -0.047743827 -0.084344 -0.062254827
-0.09060423 0.51146585 0.27540854 0.91100746 -0.07474279 -0.19043913 -0.34699976 0.40507418
-0.32665038 -0.36187682 0.16266938 0.14663444 -0.063126355 3.53935 -0.11456837 -0.3521306
-0.21571289 0.036010455 0.17604938 0.024727719 -0.267287 -0.02791717 0.023994131 -0.2496343
0.013685411 -0.0040255715 -0.09252741 -0.24029376 0.06639271 0.041650727 -0.0669446 -0.0008739445
0.12949741 -0.0030467787 0.06146641 -0.039355226 -0.1376097 0.005966469 0.15978687 -0.025061777
0.08185385 -0.046505142 0.079049036 0.0130178565 0.06512719 -0.18049532 -4.6759477 0.4904694
0.6901488 -0.4216428 -0.04581923 0.098339796 0.049762797 -0.0835411 -0.088647485 -0.12976351
0.27093294 -0.18773912 0.46376023 0.72715837 4.2325478 -0.1759142 -1.8305246 0.38874736
0.22106872 -0.24532074 0.026788253 -0.42629465 -0.065269135 2.664781 0.012153212 0.85135144
-0.6781322 0.07381508 -0.40036577 -0.032229755 -0.10627246 -0.14251293 -0.020625684 0.3711318
-0.8963859 0.6530398 -0.90279996 -0.15368977 0.09166212 -0.43920678 -0.21942554 -0.1380793
0.069935285 0.24976364 -0.04279764 -0.006723648 -0.31565055 -0.20841217 -0.35764992 0.12503274
-0.8344718 0.020605246 0.4332484 0.06228935 0.31300876 0.15691115 0.42474338 0.36647213
0.84672534 0.27314994 1.7995816 0.1667667 0.15744352 0.24160473 0.3926521 -0.12720656
0.07101557 0.5090032 -0.006489381 -4.211821 0.04917304 0.55737144 0.09518719 -0.006979391
0.07601563 0.11553524 0.1717185 0.13969532 -0.003811244 -0.026057824 0.48443702 0.1041484
-0.13859726 0.06282411 0.14435855 0.17615733 0.20625457 0.2791316 0.08716785 0.08307244
0.07842319 1.0430485 0.35648113 1.3861606 0.020900378 0.19380063 0.054618303 -0.21586499
-0.041479588 0.057108227 0.24424206 0.18195672 0.2496842 -0.1732217 0.94260246 0.068117216
0.18589494 0.15820949 0.20300622 -0.092514075 -0.32076618 -0.7663189 0.45952126 2.7783935
-0.23249862 -0.12216413 -0.1193339 -0.12802018 0.051384225 0.1256374 0.08481868 0.2700947
-0.00745768 0.52410173 2.1893864 0.041235022 -0.16602029 -0.054021116 -0.24345027 -0.013213793
-0.038447898 0.028889854 -0.060281757 0.15441516 -0.115603715 -0.35926494 -0.91013694 3.5573437
-1.3363397 -0.4818883 0.44404614 0.27567002 -0.9646403 -0.6159196 -0.008502392 -0.37328622
0.25987986 -0.16103753 0.17368008 0.60027915 -0.04581263 0.24558157 0.6282829 0.60626066
-0.11048511 -1.791802 -0.7007157 2.555064 0.45499626 0.1565065 -0.14698058 -0.66650975
-0.51506966 -1.2506211 -0.10551436 0.12404348 0.3593945 0.71002334 0.43132105 0.5078234
-0.34149525 -0.30468434 -0.4168393 -0.36255038 -0.21033949 0.35268453 0.22437808 0.6256312

fc1.bias f4 [38]
00000000: c52f 703d 36bf c2bd 7636 a5bd 32aa eb3d
00000010: e24e 5cbd 0e32 9fbd d67c c0ba 5b87 eebd
00000020: 114e fbbd a289 9fbd 35ed debd 5a6c 163e
00000030: 83eb 0d3e 5ae0 0bbe 743a d03d 9302 aebc
00000040: 966f 09be 292e 493d 1e03 aebd e08b d93d
00000050: f949 67bd 0de7 96bd 6102 dd3d 22ab eabd
00000060: 0b26 b83d 1800 2d3d c461 95bd b6b3 6fbd
00000070: 4c7d 94bc 2e90 3bbd c4ee 003e 9152 a23a
00000080: ccce 25bd 8566 773d eb35 103d 905e 0a3e
00000090: e56a 6c3c 9e11 f7bc
0.058639307 -0.09509127 -0.08067028 0.115070716 -0.053786166 -0.07773219 -0.0014685642 -0.11646911
-0.12270749 -0.07789923 -0.108850874 0.1468977 0.13859372 -0.13659802 0.10167399 -0.021241462
-0.13421473 0.049116287 -0.08496688 0.10622382 -0.05646703 -0.07368288 0.10791469 -0.11458422
0.08991631 0.042236418 -0.07294038 -0.058520995 -0.018126152 -0.045791797 0.12591082 0.0012384226
-0.04048042 0.060400505 0.03520767 0.13512635 0.0144297825 -0.030159768

bn1.weight f4 [38]
00000000: 790b b73f e926 853f 54ec 8c3f 6fb4 a03f
00000010: b3f5 593f 3963 4a3f 06ed f73f a8b9 593f
00000020: bd85 293f 2d11 473f dfb2 923f ec50 823f
00000030: d4a9 973f cbfb 8f3f 48a7 d13f 8a5d 563f
00000040: fb9b 593f 8704 853f 4fec 493f 2b02 533f
00000050: 4300 873f 29af 6e3f dbc7 4e3f 303f 6e3f
00000060: 37f7 8d3f 0f4d d93f 9d74 a33f bf8e 3a3f
00000070: 8519 e83f a35d 703f ccbc c33f 9dc6 453f
00000080: 9689 833f 2ffe 343f dca2 8d3f 7da2 653f
00000090: 736f 3a3f 0a4c 473f
1.4300376 1.04025 1.1009622 1.2555064 0.8514053 0.7905765 1.9369209 0.85048914
0.66219693 0.77760583 1.1460837 1.0180945 1.1848702 1.1248716 1.6379175 0.8373648
0.8500363 1.0392007 0.78876203 0.82425183 1.0546955 0.93236023 0.80773705 0.93065166
1.1091069 1.6976641 1.2769963 0.72874063 1.8132788 0.9389288 1.5291991 0.77256185
1.0276363 0.70700353 1.1065326 0.8970106 0.7282631 0.778504

bn1.bias f4 [38]
00000000: 0863 68bf cfcc 77bf e87a 19bf deff 93bf
00000010: 36f4 ae3d 44b1 b7be d413 dabf 9819 29bf
00000020: a4cf 173c 1ab0 01bc db3c 12bf 700d 35bf
00000030: 4d11 24bf aaf0 73bf 146f 36bf 224e 59be
00000040: c8a8 a9be 55e2 37bf 2225 b6be f6c5 04bf
00000050: 12ac 1dbf 17be 13c0 0fb4 41bf 1dd6 44bf
00000060: aa41 43bf dead 29bf 34cd 8abf a7ab dbbe
00000070: b9bf 89bf 3c2f 0bbf 43ad 83bf bfea fdbe
00000080: 6b48 c5bf d64d 88bc 4ad6 2cbf 6d4e 27bf
00000090: 92a4 1ebd 9b0a 88be
-0.9077611 -0.9679689 -0.59953165 -1.156246 0.08542673 -0.3587743 -1.7037301 -0.6605468
0.009265814 -0.007915521 -0.5712411 -0.7072363 -0.640889 -0.952891 -0.7126324 -0.21221212
-0.33136582 -0.7182973 -0.35575205 -0.51864564 -0.61590683 -2.3084772 -0.7566537 -0.7688921
-0.7627207 -0.66280925 -1.0843873 -0.42904398 -1.0761634 -0.5436895 -1.028725 -0.4959316
-1.5412725 -0.016638678 -0.6751448 -0.65354043 -0.038731165 -0.2657059

bn1.running_mean f4 [38]
00000000: 5f8e f3c2 f03a 04c3 f278 29c3 bc05 2242
00000010: ea13 7fc2 717f 0643 693e 1e43 4bb7 9742
00000020: c599 8d42 8fdc 2843 a6a9 b8c2 aa36 aec3
00000030: 2e17 3443 e04a 39c2 40ea 20c2 f4e9 0143
00000040: 103b 4442 01e3 18c2 e04a 0a42 b787 e442
00000050: a5c5 f842 f2ae 7f42 f62b 3a43 caef ce41
00000060: c06d 3ac3 6326 1042 3175 4c43 89a4 1742
00000070: 065f e9c2 79c6 de42 60b8 0ec3 a9c5 3f43
00000080: 0388 50c2 9420 2043 0efd 2dc3 4dad 34c2
00000090: a50c 0343 b9cf 94c2
-121.77807 -132.23022 -169.47244 40.5056 -63.769447 134.49782 158.24379 75.857994
70.80033 168.86156 -92.331345 -348.42706 180.09055 -46.32312 -40.22876 129.91388
49.05768 -38.221684 34.57312 114.26507 124.386024 63.920845 186.17172 25.867085
-186.42871 36.037487 204.45778 37.91068 -116.68559 111.38764 -142.72021 191.77211
-52.132824 160.12726 -173.9885 -45.16924 131.0494 -74.40571

bn1.running_var f4 [38]
00000000: 6441 f544 07d6 ad44 1b3c da44 0ebc b044
00000010: d0fd 4144 fa7c 6644 6331 3045 c137 8d44
00000020: 0bb1 f444 12e7 0a45 39d5 b744 df09 d144
00000030: 7c7a 3c45 5335 aa44 9601 3245 9f25 bd44
00000040: 4522 b244 4fb5 8a44 fa21 7544 9bd7 7644
00000050: 9949 cc44 69cb 1744 356a 8c44 2ace 3544
00000060: 962c d644 3c85 1145 af97 3f45 a3d2 2544
00000070: c288 4d45 fb97 af44 2e37 f344 3164 a844
00000080: 4280 1844 29af 0745 fa20 b244 ccbc 6644
00000090: 3f0a 0f45 df5e 3844
1962.0435 1390.6884 1745.8783 1413.8767 775.9658 921.95276 2819.0867 1129.7423
1957.5326 2222.442 1470.6632 1672.3085 3015.6553 1361.6664 2848.099 1513.1757
1425.0709 1109.6659 980.5309 987.36884 1634.2999 607.1783 1123.319 727.2213
1713.3933 2328.3271 3065.4802 663.2912 3288.5474 1404.7494 1945.7244 1347.131
610.004 2170.9475 1425.0305 922.94995 2288.6404 737.48236

fc2.weight f4 [20, 38]
00000000: 1df6 babf f74b 913f 27a6 93bf eeb7 08bc
00000010: 4217 41c0 9efb b2be 8181 5ebf d7b6 90be
00000020: 811b 1cbe c049 683d 74fc 84bf b3fc 643f
00000030: 066c 223f f5b8 d63e 314c a53e 5437 bdbf
00000040: f76b 72bf 8357 49bf edd8 75bf 47aa 483e
00000050: c778 0cbf cf62 34c0 ecef 88be 37ed 5dbf
00000060: 811b 2abf 7bc9 453e f742 093f 81ef 79bf
00000070: 7617 2abf 8210 913b b842 4b40 ba89 cdbe
00000080: 7f32 10c0 a2bc e6bd 287e 1abf 5088 31bf
00000090: 8717 603d b252 16c0 9d7d 1340 0dec 8ebf
000000a0: 83ba 4f3f 9f8c c8bf 3381 a53e 516e 523f
000000b0: 9949 09c0 f633 29bf 9260 2ebf c017 29bf
000000c0: 8dc7 c23e 8f41 b4bf 28db b7bf 7477 92bf
000000d0: a71e 6bbf 3701 da3e 5db8 953d f6b5 743f
000000e0: 2b7a 1c3f 2130 d3be d006 c0bf 4fc7 5d40
000000f0: d94b 8e3f 15e0 9b3f 1b6b b53f 0974 46bf
00000100: 9522 11bf f53f 303f 422a 1ebf d952 f3be
00000110: c112 22c0 bc04 413f 1dcd 9abe 6243 46bf
00000120: 2b38 503f cf01 453f 483d 56bf cfb9 56be
00000130: f5c7 28c0 ca31 8b3f 37ef 8ebf 483c a63e
00000140: e675 90be 9cba e5be 41d5 15be 2111 823f
00000150: ba85 403e 8ea3 f43e 1aa0 d7bf 7b8c 043f
00000160: 4339 293e 9d9d 023f 73af 20be f24c f13d
00000170: 5ddd 4ebf c85e efbe 8f66 5bbf 4224 123f
00000180: e40d a33e 7627 6fc0 8760 11c0 36df bfbf
00000190: 2a73 e8bf 6228 22bd 2dac c13e 7737 abbf
000001a0: 5b3d c7bf dea0 803e 8ab5 2c40 d069 1fc0
000001b0: 09eb a6be ad81 b33e 7288 08c0 3e69 cfbf
000001c0: ca0c 263e be13 1e3e 7dcc 0b3f e047 babe
000001d0: eaab 7a3e f54a 61c0 0f66 21bc 5b36 393e
000001e0: 76b1 d6c0 11c2 5cbc 9a1f cbbe fe62 14bf
000001f0: cebf 503e f613 1abe dd3c 16c0 9a21 cdbe
00000200: 3cc5 aebe 6b92 b13d d944 c83d ac6a 8a3e
00000210: eb02 8a3d e91e 8abe 3f43 30bf 9e11 9a40
00000220: 5a2b d33e dc0f 423d 7faa db3e 02f8 a9be
00000230: fe2f b3c0 938f e2bd 9960 81bf 2381 c9be
00000240: d0f1 4abf d6ef a43c 7660 d33e 0ad8 0bbf
00000250: afcc a03e 1372 823d 2917 17bf 50fb c5be
00000260: 9030 a0bf 6a2d 4a3f 6647 9bbf 976a 0c3f
00000270: 623b f2bf 224a 4e3e 8fab b1bf b0f3 9cbe
00000280: 2dc1 9abe 5c32 853c 1367 0bc0 0627 f83e
00000290: aeba a33e 9cd5 f03e c0f2 bb3e 16b3 40c0
000002a0: ae26 4abf 2373 b6bf e36a afbf b661 163e
000002b0: f984 07bf 749a 28c0 014c fdbe db4b 60bf
000002c0: e620 13bf 2a3a be3e a64e b83e 9594 87bf
000002d0: e6d6 883d c21c af3e ad1c aa3f 4d82 2bbe
000002e0: 2f27 1dc0 11cc 28bd 1659 20bf 0c21 99bf
000002f0: 1650 80bc b9ab 03c0 3d24 e0bf 93db 8e3f
00000300: 50c4 1abf ffc2 9e3e ac5b 01c0 082e 87bf
00000310: 439e e53c fd66 313f ce15 81bd f890 6f3d
00000320: 466c 8bbf 4258 703f 3d5b c23e e0d2 6f3f
00000330: 6c5f e9bd 2266 b0be ae9b 47bf 9fda 22bf
00000340: cb8d 75bf 4042 3c3f 5a31 383f 7e14 80c0
00000350: 5763 22bf 0074 16bf efcd 81bf c4a7 43bd
00000360: fdec 2e3f b0b7 9fbf 04ba 03bf c0f0 833f
00000370: 1fee 9240 9536 12bf ecbe 0ac0 9702 b03d
00000380: e0bc 97bf fdbd 82bf 3a13 2f3e ea27 33bf
00000390: e87c 983f d9ef c9be 217e f23e ddec 0bc0
000003a0: fdf2 653e 06be b33e d723 05c1 1de7 9e3d
000003b0: 76dd debe 3057 39bf c5f3 923e 51d8 96be
000003c0: 6260 94bf 4043 2fbf 974e d5be 2788 533e
000003d0: f733 023e 5a30 9a3c 84c3 353f c7c7 f9be
000003e0: 7a44 82bf e1fb c340 d9b7 b63e 0e25 c83d
000003f0: bf49 8c3e fec3 cabe 2826 10bf e802 eb3d
-1.4606358 1.1351308 -1.1535081 -0.0083446335 -3.0170445 -0.34957594 -0.8691636 -0.28264496
-0.15244867 0.05671096 -1.0389543 0.8944809 0.6344608 0.41937986 0.32284692 -1.478251
-0.9469599 -0.7864916 -0.9603413 0.19596206 -0.5487179 -2.8185308 -0.26745546 -0.86690086
-0.6644822 0.1931514 0.53617805 -0.9763108 -0.6644205 0.0044270167 3.1759472 -0.4014414
-2.253082 -0.112664476 -0.6034875 -0.6934862 0.054709937 -2.3487973 2.3045418 -1.1165787
0.8114397 -1.5667914 0.32325134 0.8219958 -2.145117 -0.6609491 -0.68116105 -0.66051865
0.3804287 -1.4082507 -1.4363756 -1.1442704 -0.91843647 0.42579052 0.07310555 0.9559015
0.61123914 -0.41247657 -1.5002079 3.4652898 1.1116897 1.217776 1.4173311 -0.77520806
-0.56693393 0.6884759 -0.6178323 -0.47524145 -2.5323946 0.7539785 -0.30234614 -0.7744657
0.81335706 0.76955885 -0.8368726 -0.20969318 -2.6372044 1.087457 -1.1166753 0.32467866
-0.2821495 -0.44868934 -0.14632131 1.0161477 0.18801013 0.47781032 -1.6845734 0.51776856
0.1652575 0.5102175 -0.15691929 0.11782254 -0.80806524 -0.46752 -0.85703367 0.57086575
0.31846535 -3.7367835 -2.2715166 -1.4989994 -1.8160145 -0.039589293 0.37826672 -1.3376302
-1.5565599 0.25122732 2.6985803 -2.4908333 -0.32601193 0.35059872 -2.133328 -1.6203992
0.16215816 0.15437219 0.546089 -0.3638296 0.24479643 -3.5202 -0.009850993 0.18087141
-6.7091627 -0.013474003 -0.39672548 -0.5796355 0.20385668 -0.15046677 -2.3474648 -0.40064698
-0.34134853 0.08670505 0.09778757 0.2703451 0.06738838 -0.26976708 -0.6885261 4.8146505
0.41244012 0.047378406 0.42903516 -0.33197027 -5.5996084 -0.11062541 -1.0107604 -0.39356336
-0.79275227 0.020133894 0.4128453 -0.54626524 0.3140616 0.06369414 -0.59019715 -0.386683
-1.251482 0.78975546 -1.2131164 0.54850143 -1.8924372 0.20145467 -1.388048 -0.3065467
-0.30225506 0.016259365 -2.1781662 0.48467273 0.31978363 0.4703797 0.3670864 -3.0109305
-0.7896527 -1.4253887 -1.3704494 0.14685711 -0.52937275 -2.634427 -0.4947205 -0.87615746
-0.57472074 0.3715375 0.35997504 -1.0592219 0.066816136 0.34201628 1.3290001 -0.16748925
-2.4555166 -0.041210238 -0.62635934 -1.196321 -0.015663188 -2.057356 -1.7511059 1.1160759
-0.604558 0.31008145 -2.0212202 -1.0560923 0.028029567 0.6929777 -0.06302987 0.058487862
-1.0892417 0.9388467 0.37960234 0.93681145 -0.113951534 -0.3445292 -0.77971923 -0.6361484
-0.95919484 0.7353859 0.71950305 -4.0025015 -0.6343283 -0.5877075 -1.0140971 -0.047767416
0.68330365 -1.2477932 -0.5145571 1.0307846 4.5915675 -0.57114536 -2.167903 0.08594244
-1.1854515 -1.021423 0.17097178 -0.6998278 1.1913118 -0.39440802 0.47361854 -2.186332
0.22455974 0.35105914 -8.32125 0.07758925 -0.43528336 -0.7239866 0.28701606 -0.2946191
-1.1591914 -0.6846199 -0.41661522 0.20657407 0.12715136 0.018821884 0.7100146 -0.4878523
-1.0177147 6.124497 0.3568714 0.097726926 0.27400014 -0.39602655 -0.5630822 0.11475164

fc2.bias f4 [20]
00000000: 2faf 4dbe 2bb5 be3d 71b0 fcbb 1d24 fa3d
00000010: c46c b83d f3df debd 5042 39be b8a7 bc3d
00000020: eb19 a63e 79ee 1dbe 34d7 6f3d 5ad8 a53d
00000030: 8bb1 2e3e ba4a 34be 52f0 45be 51d9 8cbe
00000040: 2ea4 ee3c de68 493e 129b 403d 0d8f 10be
-0.20086358 0.09311899 -0.007711463 0.12213919 0.090051204 -0.10882559 -0.18091702 0.09211677
0.3244165 -0.15423001 0.058554843 0.080979064 0.17059915 -0.17606631 -0.19329956 -0.2750955
0.029131021 0.1966891 0.047022887 -0.1411707

bn2.weight f4 [20]
00000000: ca79 243f b008 033f 4480 193f a8d9 4e3f
00000010: e7ff 193f a463 d63e 7451 1c3f 1c7b 1d3f
00000020: d0a0 7a3f 7ca4 133f 0239 423f 8910 c73e
00000030: 006e 3a3f 176a 2b3f 8325 f93e 8973 853f
00000040: cf3c c13e 8a5d 383f 5507 823f ca9e c63e
0.64248335 0.5118513 0.5996134 0.8080087 0.601561 0.41872895 0.6106179 0.61515975
0.9790163 0.5767286 0.75868237 0.38879803 0.72824097 0.66958755 0.48661432 1.0425884
0.37741706 0.7201773 1.0158488 0.3879302

bn2.bias f4 [20]
00000000: 2684 5bbe a413 3a3e dc17 52be 6207 fdbd
00000010: 58b4 89be 5d54 ccbb eddf e43d 13da 1bbe
00000020: b5da e4be a4f5 003e c22e a5bd f798 343d
00000030: 4d05 77bc 5d9e 89bf 7883 33bd 23d2 d5be
00000040: c6aa 243d a408 a5be 7a11 efbe 7dfc f2ba
-0.2143713 0.18171555 -0.20516914 -0.12354924 -0.26895404 -0.006235643 0.11175523 -0.15219907
-0.4469811 0.12593704 -0.08065559 0.04409119 -0.015076947 -1.0751454 -0.04382655 -0.41761884
0.040201925 -0.32233155 -0.4669302 -0.0018538382

bn2.running_mean f4 [20]
00000000: 0e98 53c0 8cdd 5bbf b9d7 d2bf 940c 09c0
00000010: e5a9 4ec0 c5b3 ebbf f66b cfbf 016a 11c0
00000020: 8762 3fc0 015f 19bf ea4b 2dc0 3de1 a0bf
00000030: ffa6 0ac0 0fc9 3c3f 8bb0 1440 bdc6 79c0
00000040: 759e acbf 326d 01c0 ff43 53c0 f35b b5bf
-3.3061557 -0.8588493 -1.6472083 -2.1413927 -3.2291195 -1.8414236 -1.6204822 -2.272095
-2.9903886 -0.5991059 -2.7077584 -1.2568737 -2.1664426 0.7374429 2.3232753 -3.902755
-1.3485857 -2.0222898 -3.3010252 -1.4168686

bn2.running_var f4 [20]
00000000: 1bf4 2f41 c86c 1c41 1403 c540 a064 3b41
00000010: b02f 2841 fb1d f840 ec16 fe40 47aa 1941
00000020: 5f42 0641 06f1 9940 0f6f 4641 f1c1 cc40
00000030: 68f7 fa40 1a54 d03f 1ce8 1240 3be5 2941
00000040: 5c34 df40 8aeb e640 2d37 0e41 746a 0041
10.997096 9.776558 6.1566257 11.712067 10.511642 7.7536597 7.940298 9.604072
8.391204 4.810672 12.402114 6.3986745 7.842701 1.6275666 2.2954168 10.618464
6.9751415 7.2162523 8.888471 8.02599

out.weight f4 [2, 20]
00000000: 76fb 8bbd 946b 053e 1f68 a7be 1cd0 493e
00000010: 0f6a 4fbe a1fc 6dbe 2c3d 8a3e e1d1 ebbb
00000020: 88e6 9c3e c6d2 433e 5cdd 8d3e 9772 d7bd
00000030: 65e1 dc3d f93c 8f3e 2f54 653e 9294 903e
00000040: 392d 8ebd 98bc 34be 8fc1 853e 5549 e8bc
00000050: d943 a83e cb01 afbe 2922 e8bb 7d5d bebe
00000060: 2981 253e 18e9 e53d 5e79 20be fc68 a43e
00000070: e191 53be 90e8 8fbe 8922 8dbe 8b6c 703e
00000080: f8d7 93be 0df9 debe 4631 35be 099d 98be
00000090: 9e72 863e 3cba 2e3e 3922 8bbe b320 8d3e
-0.06835072 0.13029319 -0.32696626 0.19708294 -0.20255302 -0.23240902 0.26999795 -0.0071966504
0.3064463 0.19123372 0.27707946 -0.10519903 0.10785178 0.27976206 0.22395395 0.2823835
-0.06942219 -0.17650068 0.26124236 -0.02835528 0.32864264 -0.34181055 -0.0070841503 -0.371807
0.16162552 0.112261 -0.15671298 0.32111347 -0.20661117 -0.2810712 -0.2756541 0.23478906
-0.2887571 -0.43549386 -0.17694578 -0.29807308 0.2625932 0.1706323 -0.27174547 0.2756401

out.bias f4 [2]
00000000: 9700 adbd dc71 c03d
-0.08447378 0.09396717
