model_comparisons/model_weights/all_mammal_cleavage_map_motif_mod.pt (torch_old, 5989 bytes, 10 tensors)

conv.weight f4 [4, 1, 3]
00000000: f98b 10be 471a 173f ecbd 783d c385 153e
00000010: e717 fbbd d445 cc3d 9241 07be 7c68 2e3f
00000020: 102b 013e 336f 44bf 8dc8 0bbe 04af babd
-0.14115895 0.5902447 0.060728 0.14601807 -0.122604184 0.09974256 -0.13208607 0.6812818
0.12614083 -0.76732177 -0.13650723 -0.09115413

conv.bias f4 [4]
00000000: 16ad ae3c 4261 1cbd 9401 fb3e 4365 61bd
0.021322768 -0.03817869 0.49024642 -0.05502821

fc1.weight f4 [20, 46]
00000000: 621b 3dbe 5192 44be f522 17bd eef7 563e
00000010: 530a 043d 166d 48be 6cc6 013f 9452 f8bd
00000020: 112e e8bc 51b9 3bbd e175 5d3e 9485 49b8
00000030: be24 3d3d c132 ed3c 2dc2 acbd 04e8 a43c
00000040: 9d56 343d 660d 3c3e 9968 38be 20b0 a13d
00000050: b333 273e 5f54 a63c 0b0e a93d 4560 38be
00000060: d787 9ebd 8dbc 3f3e f247 f8bc bb05 6a3c
00000070: ac18 a3bd 8cbc 82bd 5b06 ab3d 8786 0fbd
00000080: c29f 6a3d 94c6 283e da76 2abe 5970 22be
00000090: 5a70 e03d 1914 c43c ff84 443e 47ec 293c
000000a0: 1d33 6f3d eae9 2ebe 9f1a 343d ca68 e7bc
000000b0: 1134 0d3e be3b fc3e e953 00be 37b8 1f3d
000000c0: 947e 59bd cb80 493d 4090 bbbd 2fff 443e
000000d0: 32d7 edbd be78 5ebd cc65 123e fb81 01bd
000000e0: af85 b43d bcc2 a3bc 5f70 c73c b557 18bd
000000f0: c306 26bc 1aba 0abe 47af 46bd b28c 08bd
00000100: 6f48 e23c 84c6 eb3d 2beb 023e 8028 823d
00000110: 237d 1bbc 320b 8b3d 99c3 8c3d c8fc be3d
00000120: cc6e 613e af7e dc3c f5f9 adbd 6780 e6bd
00000130: 235a efbc 5fcf 433d 7a70 763d 3cb4 4d3d
00000140: ad11 d13d e664 223e 2228 03be 1415 6bbd
00000150: dd6f d0bd ad83 f93c 23b1 273e 7f76 5ebe
00000160: 1a44 b5bd 129e a7bd 4461 c63b 54c6 f33e
00000170: d47c 94bd 8215 17bd 017f 353d f14d c8bc
00000180: 2fe2 823c 79c7 c6be 5801 613e 79bf 5c3c
00000190: 1e75 d2be 28b2 543e 0e79 b1bd 0618 3bbd
000001a0: 83e6 ff3d 4534 303d 4dae 2fbd 20a5 5bbd
000001b0: 47cb 0cbe 87ed f7bb 37bd 233d 66bc 483d
000001c0: 94a8 363d a7a4 2d3c 93ec 0e3c f769 9cbe
000001d0: 0764 21be 4024 103e 0c7f 33be ed33 0b3d
000001e0: f0fa 0e3d 7626 55bd d1e3 10be dbcd 60bd
000001f0: 0176 65be d845 2e3e 0b2f f63d ad8d 29be
00000200: f0ab 8a3c bda8 a6bd d892 c63d 65bb 2f3d
00000210: fb07 f3bd af76 d7bd 7861 0fbe 20ca 61bc
00000220: 3db1 9d3e a246 38be 84be 793d d878 2d3e
00000230: 12a4 84bd 46b5 8bbd 2fc4 a43c 133f efbd
00000240: e28f 5c3e 08e6 363d c2ef 9a3d 8100 e73d
00000250: 0a92 39bd 00b5 a33d 4122 a1bd 29e5 b0bd
00000260: e20b a53d ca00 1c3e 806c 86bd e859 603d
00000270: 7e0e e13d c4a4 83bb ff75 3cbb 94fe f73d
00000280: f118 483e c411 2c3e fd58 d9bd 36b1 433d
00000290: acd4 2f3e f17a 18bb b4b9 ecbb 4992 023e
000002a0: 2483 b4bd b1d0 d1bd 9fbf 39be 04c0 183d
000002b0: 56ad cdbd 9673 593c 7f01 153d a086 1d3e
000002c0: e0d4 8e3e 716e 883d 8dc5 59be a816 2ebe
000002d0: 5504 463e 4ca3 05bb d8bf 343e 0aa1 a63e
000002e0: 432b 1ebe ea53 20bd 9821 97bc 4d6f 593c
000002f0: f141 cbbd 8469 96be 1470 653e 6580 30be
00000300: 3ed9 08be 61d9 413c 344a 6abd 4256 3b3d
00000310: b8d2 473c 72c4 ae3d 7a82 353d 54f2 04bd
00000320: 0ab3 65bc 4e1b 843d b09f 75bd b6f7 19bd
00000330: a663 53bd 9cb9 3bbd 0f5a dcbd 377c 593d
00000340: b193 ffbd 239c 693c 269b bcbd 1ae2 8dbc
00000350: a972 abbd 5068 24be f20d 723d 8184 35be
00000360: 3ed6 f3bd 339e e63d db48 1abe f495 b53d
00000370: d22a 53be fc6a bfbc 8437 273e ab12 14be
00000380: e14b 5a3d a2c3 7dbe ca04 4c3c bf46 67be
00000390: 87bc 0b3f e7f2 28be 0ffd 91be 4d2b d33c
000003a0: c487 fb3d 0e95 cf3b 5860 8abe 0aba fcbe
000003b0: fac7 713d f95d a9be 7280 dbbd 4775 1c3e
000003c0: d160 603c 41cf 74bd c3d2 753d 21de c7bd
000003d0: fa46 0ebd 83c0 953d 654a 98bc f7a5 0abe
000003e0: 791d 353e ffeb 893d ba1b 52be 1afa ddbd
000003f0: 512c 9ebd 2f46 953e 859d f93d 2965 1cbc
-0.18467477 -0.1919644 -0.036898572 0.20993015 0.03223641 -0.19572863 0.5069339 -0.121251255
-0.028342279 -0.04583103 0.21626998 -4.804654e-05 0.04617762 0.028954865 -0.084354736 0.020130165
0.044027913 0.18364486 -0.18008651 0.07894921 0.16328315 0.020303903 0.082546316 -0.18005474
-0.07740753 0.1872427 -0.030307744 0.014283593 -0.0796369 -0.06383619 0.083508216 -0.035040405
0.057281263 0.16482002 -0.16646901 -0.1586317 0.10958929 0.023935365 0.19191359 0.010371274
0.058398355 -0.17081419 0.0439707 -0.02824821 0.13789393 0.4926433 -0.12532009 0.03899404
-0.05309923 0.049195092 -0.09158373 0.1923797 -0.11613311 -0.054314367 0.14296645 -0.0316181
0.088145606 -0.019990318 0.024345575 -0.03719302 -0.010133448 -0.13547555 -0.048507 -0.033337303
0.02762243 0.11512473 0.12785022 0.06355381 -0.009490284 0.06789245 0.06873245 0.09325558
0.22014922 0.026915876 -0.08494941 -0.112549596 -0.029217785 0.047805186 0.06016586 0.050220713
0.102084495 0.15858802 -0.12808278 -0.05739315 -0.10177586 0.030458296 0.16376166 -0.2172489
-0.0885088 -0.081844464 0.0060540754 0.4761225 -0.072503716 -0.036885746 0.044310573 -0.024451228
0.015976993 -0.3882406 0.21973169 0.013473385 -0.41104978 0.20771086 -0.086656675 -0.045677207
0.124951385 0.043018598 -0.042890836 -0.053624272 -0.13749419 -0.0075661573 0.03997537 0.049007796
0.044594362 0.010598338 0.008723396 -0.30549595 -0.15760814 0.14076328 -0.17528933 0.033985067
0.03490728 -0.052038632 -0.14149405 -0.05488382 -0.22408296 0.17018831 0.120206915 -0.16557951
0.01692769 -0.08137653 0.09695977 0.042903323 -0.118667565 -0.10520684 -0.14002025 -0.0137811005
0.30799285 -0.17995694 0.060972705 0.1694063 -0.064766064 -0.068216845 0.020113079 -0.11681952
0.21539262 0.04465297 0.075652614 0.11279393 -0.04530529 0.079935074 -0.078678615 -0.08637459
0.08058907 0.15234676 -0.065636635 0.05477324 0.10989092 -0.0040174443 -0.0028756855 0.12109104
0.19540764 0.16803652 -0.10612676 0.047776423 0.17170972 -0.0023266638 -0.007224286 0.12751116
-0.088140756 -0.10244883 -0.18139504 0.037292495 -0.10042827 0.013272187 0.03637838 0.15383387
0.27896786 0.0666169 -0.21266766 -0.1700083 0.1933759 -0.0020391522 0.17651308 0.32544738
-0.1544619 -0.039142527 -0.018448636 0.013271165 -0.09924687 -0.29377377 0.22406036 -0.17236479
-0.13364121 0.011831612 -0.057199672 0.04573656 0.012196235 0.08533563 0.044313885 -0.032457665
-0.014019737 0.064505205 -0.059966743 -0.03758975 -0.051608704 -0.045831308 -0.10759365 0.053096976
-0.12479342 0.014258417 -0.0920928 -0.017319728 -0.08371479 -0.16055417 0.05909533 -0.17726327
-0.11906098 0.11260643 -0.15066855 0.08866492 -0.20621803 -0.023366444 0.16329771 -0.14460246
0.05329502 -0.24781659 0.012452314 -0.22585581 0.54584545 -0.1649891 -0.2851338 0.025777483
0.122817546 0.0063349074 -0.2702663 -0.49360687 0.059028603 -0.33079508 -0.107178584 0.15279113
0.013694958 -0.059767965 0.06001545 -0.097591646 -0.034735657 0.07312109 -0.018590162 -0.13539873
0.17687024 0.06734466 -0.2051839 -0.10838719 -0.077232964 0.29155108 0.121882476 -0.009545603

fc1.bias f4 [20]
00000000: c39a 75bd ba6b d2bd d2c4 c93d 9429 50bd
00000010: f862 cc3d 3c0c 203d 6c0e ccbd 7c1d 883d
00000020: 4de9 e2bd ae7e 993c e1ca 85bd dc3c e73b
00000030: 9826 bbbd d2df 0a3b 0827 953d 7753 113e
00000040: d481 673d fa26 bdbb 33db 993c 15da a4bb
-0.059962045 -0.102744535 0.098519936 -0.050820902 0.09979814 0.039074168 -0.09963688 0.06646249
-0.11079655 0.018737163 -0.06532837 0.0070568155 -0.091382205 0.0021190536 0.07282835 0.14191996
0.056520298 -0.0057724686 0.01878128 -0.00503088

bn2.weight f4 [20]
00000000: b953 873f 7c2b 883f bb79 833f 4e9d 833f
00000010: 1eeb 813f c8e6 873f 3b17 973f 91bc 903f
00000020: f834 963f a523 773f c3eb 813f b4d5 903f
00000030: 5e03 8f3f d50d 903f 951e 843f 8b7f 623f
00000040: 6d3e 8c3f 0492 883f b620 873f ac5b 713f
1.0572425 1.063827 1.0271524 1.028238 1.0149877 1.0617304 1.1803964 1.1307546
1.1734915 0.96538764 1.0150074 1.1315217 1.1172903 1.1254221 1.0321833 0.88475865
1.0956551 1.066956 1.0556858 0.94280505

bn2.bias f4 [20]
00000000: 4cdf 9dbd 0427 13be 57b0 eebd 1b83 85bd
00000010: 0155 7dbd 3fb8 9fbe eaac cd3b 1a5e b7be
00000020: d6d7 19be 9b94 35be 9120 84be 4f3d 90bc
00000030: f67d 7dbe 7892 0cbe 454c 8fbe 9617 05be
00000040: 832a 93bd 3318 0d3c 84bb b0bd 7f27 f4bd
-0.07708606 -0.14370352 -0.11654728 -0.06519147 -0.061848644 -0.31195256 0.0062767165 -0.3581398
-0.15023741 -0.1773247 -0.25806096 -0.01760736 -0.24755082 -0.13727748 -0.27987877 -0.12997279
-0.07185843 0.008611727 -0.08629516 -0.11921596

bn2.running_mean f4 [20]
00000000: 6324 8a40 0702 ef3e 70e2 5ec0 377d da40
00000010: b233 aac0 606a a5c0 f73a 7e3e e323 aebf
00000020: d6fb e4c0 f408 b7c0 f2fc 8b40 4180 9b3f
00000030: ab56 07bf db2b aebf f5f5 31c0 69be 983e
00000040: 7add 1240 14ea 2240 1f71 86c0 f805 8a3f
4.3169417 0.46681234 -3.4825706 6.827785 -5.3188105 -5.169235 0.24827181 -1.3604702
-7.1557417 -5.719843 4.374627 1.2148515 -0.5286662 -1.3607134 -2.780637 0.2983277
2.2947679 2.545537 -4.2013087 1.0783072

bn2.running_var f4 [20]
00000000: c2c8 7840 a66f a83f 00d0 1540 86b1 5d40
00000010: 8b23 2240 b9ca ad40 5413 4740 b4fd 0840
00000020: e0ee 9140 5ff6 9740 f91a 8140 fea2 ea3f
00000030: 587b 0a40 a9d4 e83f c68b bb3f dce5 9440
00000040: f8f5 4640 bbf7 2f40 769a ca3f f3d7 0040
3.8872533 1.3159072 2.3408203 3.4639602 2.5334194 5.4309964 3.1105547 2.1404848
4.5604095 4.7488246 4.0345426 1.8330991 2.1637783 1.8189899 1.465203 4.653059
3.1087627 2.7494953 1.5828388 2.0131805

out.weight f4 [2, 20]
00000000: 560f 6bbe 4ec1 563e 71f4 c9bd 9a24 16be
00000010: 09ea 2ebe 33a7 00be f72a bf3d 8451 b63a
00000020: 7e28 293d 2062 713d 6106 ed3d e3fc 813d
00000030: d5ff 60be 0162 45be 893d 053e 07b3 bbbd
00000040: 5265 53be 1c2e 803e c2ef 93bd 58e5 d23d
00000050: e5e3 52bd fb29 3dbe 3a57 183e 2714 9a3d
00000060: 90fa 3c3d ceb5 b93d 5d36 48be e9b1 a3be
00000070: c0e8 87be 56bd 42be 40be 823e 2eb2 4cbe
00000080: aadb fe3d 0f0e 9e3d 60c1 7dbe ca03 03bd
00000090: fcac ec3b 5759 9b3c c991 1f3e d097 02be
-0.22955069 0.20972177 -0.098610766 -0.146624 -0.17081465 -0.12563781 0.09334367 0.0013909792
0.041298382 0.05893147 0.11573482 0.063470624 -0.21972592 -0.19275667 0.13011755 -0.09165006
-0.2064412 0.2503518 -0.072234645 0.1029765 -0.05148687 -0.18473046 0.14877024 0.07523375
0.046137393 0.090678796 -0.19551988 -0.31971672 -0.26544762 -0.19017538 0.25535774 -0.19989845
0.12444241 0.07717525 -0.24780798 -0.031986035 0.00722277 0.018963499 0.15582956 -0.12753224

out.bias f4 [2]
00000000: e02c f0bc eca0 a63d
-0.029318273 0.08136162
