model_comparisons/model_weights/all_mammal_cleavage_map_full_mod.pt (torch_old, 221169 bytes, 22 tensors)

conv.weight f4 [4, 1, 3]
-0.17452194 0.017946135 -0.22411945 0.03398163 -0.09234834 0.08480584 -0.21581224 -0.17304413
-0.19434834 0.22446287 -0.08155335 0.1544598
00000000: e1b5 32be c603 933c 927f 65be 5230 0b3d
00000010: 2021 bdbd afae ad3d e2fd 5cbe 7b32 31be
00000020: 4003 47be 98d9 653e 7105 a7bd b62a 1e3e

conv.bias f4 [4]
-0.49764246 -0.33061334 -0.23286505 -0.15268129
00000000: feca febe 2746 a9be 2d74 6ebe 7c58 1cbe

input.weight f4 [136, 306]
-0.01620639 -0.03263009 -0.17280348 0.00084271503 0.026917491 -0.11627731 -0.083024405 0.04099913
0.07155121 -0.063793205 -0.2677994 0.14987265 0.12841783 0.016134359 0.10727367 0.024636112
-0.016131766 -0.054835077 -0.04585355 0.039997146 0.028590456 -0.15229164 0.0009673618 0.13493353
0.041525852 -0.13075617 -0.16585293 -0.030969998 0.07375116 0.079146236 0.045204304 -0.0007905251
-0.15568756 0.019236656 -0.06554314 -0.06275086 -0.07019013 0.0072424314 -0.023134084 -0.09394976
-0.10276848 0.17818426 -0.07290019 0.20374568 0.0208704 -0.043174665 -0.11775719 -0.061311897
-0.03561908 0.2081013 -0.0153229125 0.15139024 -0.2533948 -0.08917691 -0.10332907 0.025150914
-0.20808895 -0.16153607 0.10005994 -0.21166094 0.2015103 -0.118969314 0.11471848 -0.03330085
-0.14330073 -0.0035593146 0.15190372 -0.10156928 0.003699006 -0.012627294 -0.03155675 0.1331875
-0.022457039 -0.016084217 -0.10720528 0.023324512 -0.06753708 -0.026581118 -0.038448777 0.16130805
0.059797026 0.049349975 0.03774616 -0.08834351 0.002261658 -0.007913014 0.028683063 0.15166967
0.10270827 -0.003327667 -0.08250246 -0.11433774 0.24936427 -0.07688698 0.008086354 -0.17493267
0.07330287 -0.016639033 -0.09344015 -0.15716834 -0.14910094 -0.13278237 0.06830765 0.12806429
-0.04257622 0.08492249 0.08739707 0.029715972 0.017677536 0.020166917 -0.018218255 0.19024727
0.24691267 -0.15082918 -0.008667452 -0.1744333 0.17130446 -0.12006328 -0.055941895 -0.31074843
-0.1761698 -0.14649628 0.046224605 0.118302524 -0.10333928 -0.042295884 -0.06675908 0.10490301
0.027762355 0.050417643 -0.06673855 0.073609225 0.10719355 0.0077936375 -0.105644606 -0.026321102
0.00086057646 -0.07876641 -0.021049602 0.028567206 0.06464974 -0.070953265 -0.18039861 0.014935282
-0.036982544 -0.053030998 0.11985708 0.16638952 -0.038354896 0.049278643 0.080048434 0.052862257
-0.068696626 0.0006581007 -0.015782068 -0.13366716 0.19515432 -0.04678189 0.015215287 -0.22091049
0.0015391604 -0.16670266 -0.058550466 0.003521464 -0.0123896375 0.17389444 0.023064738 -0.052916713
0.094029635 -0.02000188 -0.12337916 0.024323994 -0.112924 -0.09126721 -0.12632577 -0.2633189
0.14511435 0.16805501 -0.16747907 -0.05320721 -0.04238414 -0.11706447 0.0779801 0.031479277
0.0020850704 0.0067379237 -0.007925242 0.029411044 -0.09365152 -0.28984076 -0.038850315 0.011781579
-0.034970548 0.040526364 -0.061109867 0.010098319 0.14785424 0.07682229 -0.061510533 0.11801215
0.08141392 -0.030505637 0.020206435 0.027838642 -0.08117402 -0.20275235 0.19406764 0.055562235
0.10983225 -0.024534173 -0.10869859 0.014451742 0.03320819 -0.15463844 -0.098044366 -0.006432505
-0.30855486 0.123897344 -0.015380324 -0.09661815 0.04586855 0.03577001 -0.026716605 0.011630508
-0.041341715 -0.20719291 -0.06667988 0.09061096 0.21655254 -0.096005715 -0.19464724 -0.061065275
0.15809503 0.17755063 0.015839815 -0.05053807 0.06186816 -0.081332855 -0.094702676 -0.028067447
0.029906986 0.021243693 0.20483395 0.019606784 0.012106068 -0.012380057 0.060895853 -0.034797292
-0.09984477 0.1065877 0.051481906 -0.108176716 0.0682216 0.008873532 -0.2395692 0.07479972
00000000: 43c3 84bc 21a7 05bd 65f3 30be a6e9 5c3a
00000010: 1282 dc3c cc22 eebd b308 aabd b4ee 273d
00000020: 7189 923d 03a6 82bd 011d 89be 3778 193e
00000030: f77f 033e 342c 843c 4cb2 db3d acd1 c93c
00000040: c426 84bc bf9a 60bd efd0 3bbd 0cd4 233d
00000050: 8836 ea3c 57f2 1bbe 8d96 7d3a 042c 0a3e
00000060: 0317 2a3d f2e4 05be 5ad5 29be cbb4 fdbc
00000070: d90a 973d 6c17 a23d 2628 393d 3e3b 4fba
00000080: 8f6c 1fbe 3196 9d3c 7b3b 86bd 8683 80bd
00000090: d8bf 8fbd eb51 ed3b b183 bdbc bb68 c0bd
000000a0: 4878 d2bd ef75 363e b24c 95bd b5a2 503e
000000b0: 67f8 aa3c ebd7 30bd ae2a f1bd 2f22 7bbd
000000c0: 50e5 11bd 8218 553e f40c 7bbc 0b06 1b3e
000000d0: f7bc 81be 62a2 b6bd 319e d3bd 4a09 ce3c
000000e0: 4515 55be b669 25be 3aec cc3d a5bd 58be
000000f0: b758 4e3e 2fa6 f3bd 86f1 ea3d 7966 08bd
00000100: 6dbd 12be 6443 69bb a68c 1b3e 8e03 d0bd
00000110: 066b 723b b6e2 4ebc a741 01bd 4e62 083e
00000120: d3f7 b7bc 0cc3 83bc 718e dbbd 0c13 bf3c
00000130: e150 8abd a5c0 d9bc 777c 1dbd f02d 253e
00000140: baed 743d 3323 4a3d b89b 1a3d 71ed b4bd
00000150: 5338 143b 96a5 01bc bef8 ea3c 4b4f 1b3e
00000160: b758 d23d fd14 5abb 0df7 a8bd e829 eabd
00000170: 5959 7f3e ec76 9dbd a07c 043c 8d21 33be
00000180: d11f 963d 954e 88bc 8d5d bfbd bdf0 20be
00000190: ebad 18be 1af8 07be e2e4 8b3d 4923 033e
000001a0: 6764 2ebd d8eb ad3d 3cfd b23d e96e f33c
000001b0: 7bd0 903c 1735 a53c 733e 95bc 2ed0 423e
000001c0: add6 7c3e f772 1abe ee01 0ebc a59e 32be
000001d0: 706a 2f3e bde3 f5bd 5423 65bd 6b1a 9fbe
000001e0: db65 34be 1f03 16be 0356 3d3d 9848 f23d
000001f0: 8ba3 d3bd 733e 2dbd fcb8 88bd 64d7 d63d
00000200: e16d e33c bb82 4e3d 39ae 88bd 6fc0 963d
00000210: 4b88 db3d c561 ff3b 335c d8bd 5a9f d7bc
00000220: 4f98 613a 4950 a1bd 3770 acbc c605 ea3c
00000230: 1567 843d f24f 91bd 6aba 38be 1db3 743c
00000240: 027b 17bd 0837 59bd a177 f53d 0462 2a3e
00000250: 061a 1dbd 67d8 493d 6ff0 a33d 1886 583d
00000260: d1b0 8cbd 6484 2c3a 6549 81bc 0be0 08be
00000270: 89d6 473e 5e9e 3fbd 8a49 793c 5c36 62be
00000280: a7bd c93a 1ab4 2abe 9dd2 6fbd 5dc8 663b
00000290: e8fd 4abc 6211 323e 43f2 bc3c 32bf 58bd
000002a0: 9c92 c03d fcda a3bc 37ae fcbd 1d43 c73c
000002b0: b344 e7bd 4eea babd 8b5b 01be bcd1 86be
000002c0: db98 143e 9d16 2c3e a27f 2bbe ceef 59bd
000002d0: fe9a 2dbd 7fbf efbd 08b4 9f3d 6af0 003d
000002e0: ada5 083b cdc9 dc3b e0d8 01bc 6eef f03c
000002f0: 5ecc bfbd 0266 94be 8221 1fbd 8607 413c
00000300: 473d 0fbd f9fe 253d 574e 7abd 6b73 253c
00000310: 1a67 173e 0155 9d3d 78f2 7bbd 5bb0 f13d
00000320: 57bc a63d f5e6 f9bc f787 a53c dd0d e43c
00000330: 913e a6bd 509e 4fbe abb9 463e 3a95 633d
00000340: bbef e03d e4fb c8bc 5e9d debd 00c7 6c3c
00000350: 5005 083d 8a59 1ebe 7ccb c8bd c3c7 d2bb
00000360: e7fa 9dbe e4bd fd3d c1fd 7bbc bddf c5bd
00000370: a9e0 3b3d 9383 123d c8dc dabc e38d 3e3c
00000380: ee55 29bd 612a 54be 768f 88bd 3d92 b93d
00000390: f3bf 5d3e a59e c4bd 9b51 47be 951f 7abd
000003a0: aae3 213e d5cf 353e 80c2 813c 0201 4fbd
000003b0: 7869 7d3d d791 a6bd 7af3 c1bd b4ed e5bc
000003c0: 7fff f43c 4107 ae3c febf 513e 689e a03c
000003d0: 8858 463c b9d5 4abc ee6d 793d 9b87 0ebd
000003e0: 6a7b ccbd a74a da3d b1de 523d c18b ddbd
000003f0: c4b7 8b3d 4a62 113c a151 75be 9830 993d

input.bias f4 [136]
0.009122221 0.057986993 0.014992862 0.010319608 -0.046749137 0.04121931 0.038803656 0.04106187
0.00208409 0.002695215 0.050847452 -0.036280494 -0.02403701 0.043462135 0.02578793 -0.014702013
0.04136549 0.007818173 0.047008697 -0.04112108 -0.008088689 0.04175974 -0.036209047 -0.0074100723
-0.03641017 -0.0040333048 0.039198294 0.031191254 -0.0068626846 0.02144316 0.04157514 0.017477782
0.00014945894 -0.043297976 -0.02674822 -0.04456366 0.007484858 0.0417637 -0.017643964 0.02234449
-0.055236656 -0.010889094 0.009054834 -0.008407635 -0.055681445 0.05321342 -0.048190005 -0.041489262
-0.034187872 -0.014841455 0.0140319355 0.021135552 0.0050756778 -0.0028165572 0.056355312 -0.032345757
-0.002948859 -0.024677197 -0.00535643 -0.024312602 0.031470336 0.025998402 -0.0041131787 -0.041001685
0.017137865 0.013754354 -0.029612577 -0.0370945 0.049003016 -0.058397688 -0.0055607986 -0.020920707
-0.012031344 -0.041755054 -0.030279106 -0.055061966 0.036255155 0.05069139 0.01355054 -0.04360615
-0.04975726 -0.05405524 0.05223213 0.027138876 0.004703524 0.03508635 0.008250853 0.027341353
-0.04391008 0.007791154 -0.057139397 0.0339894 -0.019391522 -0.03909432 0.033327352 -0.024088219
-0.020797037 -0.0025188094 -0.02281215 -0.050813425 0.052911438 -0.016030092 -0.000907349 -0.010579272
-0.03732398 0.048801173 0.011681551 0.012557123 0.03439538 0.057539787 0.040807314 -0.015190137
0.03623053 -0.009535848 0.024359083 0.040242646 -0.027623698 0.053357843 0.013715625 0.025948627
-0.050015755 -0.05786777 -0.032285634 0.05491504 -0.0023228184 -0.025761727 0.032640282 0.0028093364
-0.051867466 0.02258462 -0.04058114 -0.056181338 -0.03725295 0.04050324 -0.0004372708 -0.03827831
00000000: 5e75 153c c583 6d3d 9fa4 753c 9313 293c
00000010: 067c 3fbd 94d5 283d 95f0 1e3d 7e30 283d
00000020: 3a95 083b 34a2 303b 6b45 503d db9a 14bd
00000030: 43e9 c4bc 5a05 323d 3541 d33c b6e0 70bc
00000040: dc6e 293d cb17 003c 318c 403d 946e 28bd
00000050: 6c86 04bc 430c 2b3d f04f 14bd 31d0 f2bb
00000060: d522 15bd d029 84bb 648e 203d cd84 ff3c
00000070: 5fe0 e0bb 91a9 af3c b24a 2a3d 912d 8f3c
00000080: 14b8 1c39 3859 31bd 151f dbbc 6288 36bd
00000090: 8a43 f53b 6a10 2b3d 138a 90bc cb0b b73c
000000a0: d53f 62bd 2c68 32bc ba5a 143c 2dc0 09bc
000000b0: 3a12 64bd 51f6 593d e262 45bd a5f0 29bd
000000c0: 9508 0cbd 9329 73bc 34e6 653c 7724 ad3c
000000d0: df51 a63b fd95 38bb d4d4 663d fc7c 04bd
000000e0: a541 41bb d527 cabc fe84 afbb 392b c7bc
000000f0: 0ae7 003d 9afa d43c d8c7 86bb 62f1 27bd
00000100: b564 8c3c f159 613c 1396 f2bc 67f0 17bd
00000110: 63b7 483d 6a32 6fbd 5c37 b6bb e761 abbc
00000120: 1d1f 45bc 5907 2bbd e30b f8bc a888 61bd
00000130: 4980 143d c6a1 4f3d 1603 5e3c 5d9c 32bd
00000140: 45ce 4bbd 0769 5dbd 5cf1 553d 5952 de3c
00000150: 0520 9a3b b4b6 0f3d 962e 073c f9fa df3c
00000160: 0edb 33bd f04c ff3b 000b 6abd 7838 0b3d
00000170: f8da 9ebc 5e21 20bd 4382 083d a854 c5bc
00000180: 8c5e aabc 9c12 25bb 8ce0 babc bd21 50bd
00000190: aab9 583d 8a51 83bc 29db 6dba af54 2dbc
000001a0: 08e1 18bd bde3 473d fa63 3f3c 64bc 4d3c
000001b0: 2ce2 0c3d d7ae 6b3d 9225 273d 0de0 78bc
000001c0: 7766 143d 3f3c 1cbc b38c c73c 79d5 243d
000001d0: 184b e2bc c18d 5a3d 80b7 603c 3792 d43c
000001e0: 52dd 4cbd c106 6dbd f13d 04bd 98ee 603d
000001f0: 6d3a 18bb 420a d3bc d1b1 053d d81c 383b
00000200: fb72 54bd 6203 b93c 6938 26bd 671e 66bd
00000210: 8d96 18bd bae6 253d 7e41 e5b9 b8c9 1cbd

bn1.weight f4 [136]
0.91135556 0.9688067 0.93221086 0.9575556 1.0189356 0.93762666 1.0453283 1.0055388
0.9471303 1.0529157 1.0582999 0.9860418 0.988445 1.0229465 0.95147175 0.90855646
0.950677 1.0213991 0.9766776 0.9619906 0.92946094 0.9578406 0.9388397 0.97672915
0.95623285 1.0622556 1.0389967 0.9563146 0.94606894 0.95821685 0.9570223 1.0074874
1.0008618 0.98819655 1.0057286 1.0123922 0.9484678 1.0055622 0.9835629 0.9469968
1.0238851 1.0150878 0.96471894 0.9941986 0.9028747 1.0046977 1.0747912 0.9985625
0.9841116 0.9490233 1.0146537 1.026196 0.9484468 0.9036342 0.9750961 0.9546263
0.9689547 0.9085974 0.8995138 0.93027234 0.93713 0.9619172 0.95632666 0.90221566
0.9663634 1.0209442 0.9695591 1.0139668 0.914489 0.97488445 0.94467974 0.9339743
0.99291646 0.95562845 0.98077923 0.97733605 1.111083 0.9144221 0.9548413 1.0019794
0.90280855 0.9798212 0.8859008 0.957355 0.9511478 0.99695855 0.95344806 0.95204467
0.8743415 0.98646426 0.93860066 0.9244959 1.0359199 0.96105546 1.0083166 0.9827482
1.0107208 1.0356537 1.0415871 0.9633625 1.1790359 0.96987224 1.0168327 0.9866253
0.96305794 1.0264226 1.0261614 0.99226975 0.94826555 0.9648362 0.9722481 0.9125805
1.0091717 0.88971317 0.9279207 0.97122085 0.9240669 0.98601204 1.040478 0.95991194
1.0103145 0.97688013 0.9521104 0.94672644 0.9561619 0.98906267 0.93789643 0.9903977
0.964839 1.0164825 0.9323808 0.9488503 1.0409398 0.9472153 0.9909238 1.0040128
00000000: 994e 693f b703 783f 5fa5 6e3f 5d22 753f
00000010: 7b6c 823f 4d08 703f 51cd 853f 7fb5 803f
00000020: 2277 723f f1c5 863f 5f76 873f 3c6d 7c3f
00000030: bb0a 7d3f e9ef 823f a793 733f 2897 683f
00000040: 915f 733f 35bd 823f 8b07 7a3f 0445 763f
00000050: 27f1 6d3f 0b35 753f cc57 703f ec0a 7a3f
00000060: adcb 743f fef7 873f d8fd 843f 09d1 743f
00000070: 9331 723f b34d 753f 6aff 743f 59f5 803f
00000080: 3d1c 803f 73fa 7c3f b7bb 803f 1196 813f
00000090: c9ce 723f 43b6 803f c7ca 7b3f 626e 723f
000000a0: ab0e 833f 66ee 813f d2f7 763f cd83 7e3f
000000b0: cc22 673f ef99 803f c292 893f cba1 7f3f
000000c0: bdee 7b3f 31f3 723f 2ce0 813f 645a 833f
000000d0: 69cd 723f 9254 673f e69f 793f 6462 743f
000000e0: 6a0d 783f d799 683f 8946 663f 5426 6e3f
000000f0: c0e7 6f3f 3540 763f d3d1 743f 9bf7 663f
00000100: 9763 773f 4dae 823f 0635 783f aac9 813f
00000110: f31b 6a3f 0792 793f 88d6 713f f118 6f3f
00000120: c62f 7e3f 11a4 743f 5914 7b3f b232 7a3f
00000130: f837 8e3f 9117 6a3f 7b70 743f dc40 803f
00000140: 761e 673f 90d5 7a3f 65ca 623f 3815 753f
00000150: 6c7e 733f ad38 7f3f 2c15 743f 33b9 733f
00000160: d8d4 5f3f ec88 7c3f 2248 703f c3ab 6c3f
00000170: 0699 843f bb07 763f 8510 813f 6395 7b3f
00000180: 4d5f 813f 4d90 843f ba52 853f ed9e 763f
00000190: a6ea 963f 8c49 783f 9327 823f 7a93 7c3f
000001a0: f78a 763f d161 833f 4259 833f 6405 7e3f
000001b0: 88c1 723f 81ff 763f 40e5 783f e09e 693f
000001c0: 8a2c 813f 3ec4 633f 368c 6d3f eea1 783f
000001d0: a68f 6c3f 496b 7c3f 622e 853f cabc 753f
000001e0: fc51 813f d114 7a3f 82bd 733f aa5c 723f
000001f0: 07c7 743f 3633 7d3f fb19 703f b48a 7d3f
00000200: b0ff 763f 191c 823f 82b0 6e3f dae7 723f
00000210: 843d 853f b47c 723f 2fad 7d3f 7e83 803f

bn1.bias f4 [136]
-0.2508105 -0.34701258 -0.13768154 -0.20974132 -0.19640356 -0.20411311 -0.11712074 -0.34025717
-0.18612534 -0.25284964 -0.17095926 -0.0949215 -0.13019882 -0.19511886 -0.18111783 -0.27922666
-0.25781736 -0.21963559 -0.26120293 -0.32689908 -0.1964507 -0.2793771 -0.15010437 -0.4280991
-0.17111789 -0.33014488 -0.15550983 -0.22123203 -0.16408183 -0.23770261 -0.33103317 -0.28687218
-0.3636765 -0.21044321 -0.2993603 -0.24878994 -0.122225806 -0.26597965 -0.17563343 -0.21492098
-0.13042499 -0.16718899 -0.2099622 -0.21565314 -0.13017473 -0.21769418 -0.19924495 -0.16658452
-0.25917718 -0.108040705 -0.23614411 -0.052486524 -0.23691525 -0.18962117 -0.2952508 -0.31499103
-0.2327561 -0.23833175 -0.12587246 -0.18737772 -0.2079762 -0.26939827 -0.1664982 -0.27733755
-0.28715652 -0.27676815 -0.24847123 -0.13425101 -0.15053634 -0.27592283 -0.2592197 -0.17787124
-0.122905724 -0.18766941 -0.26026282 -0.28139272 -0.103763625 -0.12141386 -0.27547127 -0.11201864
-0.19428456 -0.26772735 -0.23886995 -0.29234207 -0.25415072 -0.3152488 -0.33447602 -0.24575935
-0.250732 -0.29464063 -0.20132726 -0.3322621 -0.19451445 -0.110068575 -0.14977582 -0.25613454
-0.2798714 -0.10245577 -0.10987497 -0.18927215 -0.17280972 -0.31679806 -0.13232566 -0.21885148
-0.12728043 -0.16699997 -0.3164518 -0.28396812 -0.283161 -0.17850502 -0.24227306 -0.18605842
-0.20286325 -0.28073293 -0.1904734 -0.2157376 -0.1802664 -0.10666977 -0.18184 -0.26936686
-0.27400017 -0.14123717 -0.20030259 -0.17949021 -0.32420072 -0.25193554 -0.32820126 -0.10976488
-0.17486063 -0.25429568 -0.2199826 -0.24290642 -0.06933318 -0.19800667 -0.36330736 -0.18652667
00000000: 3c6a 80be a2ab b1be 64fc 0cbe 6ec6 56be
00000010: 041e 49be 0703 51be 00dd efbd 3036 aebe
00000020: a497 3ebe 8275 81be f20f 2fbe 3466 c2bd
00000030: d752 05be 3dcd 47be f476 39be ccf6 8ebe
00000040: a300 84be 27e8 60be 64bc 85be 515f a7be
00000050: 5f2a 49be 840a 8fbe f6b4 19be ce2f dbbe
00000060: 8739 2fbe c008 a9be f83d 1fbe a68a 62be
00000070: 1105 28be 5068 73be 2e7d a9be e9e0 92be
00000080: ce33 babe 6d7e 57be c145 99be cac2 7ebe
00000090: 8651 fabd 7c2e 88be 40d9 33be 3f14 5cbe
000000a0: 218e 05be 9733 2bbe 5500 57be 2dd4 5cbe
000000b0: 864c 05be 39eb 5ebe de06 4cbe 2295 2abe
000000c0: dfb2 84be 7244 ddbd c3cf 71be 1cfc 56bd
000000d0: e999 72be 0d2c 42be 1d2b 97be 8146 a1be
000000e0: 9d57 6ebe 3d0d 74be b6e4 00be f2df 3fbe
000000f0: b7f7 54be 92ee 89be 817e 2abe 30ff 8dbe
00000100: 2e06 93be 8eb4 8dbe 3e6f 7ebe 1979 09be
00000110: 3326 1abe c245 8dbe 72b8 84be e123 36be
00000120: ffb5 fbbd 692c 40be 2b41 85be b512 90be
00000130: 0682 d4bd d4a7 f8bd 920a 8dbe 076a e5bd
00000140: 88f2 46be 8f13 89be 539a 74be dcad 95be
00000150: 0b20 82be 4a68 a1be 7140 abbe 57a8 7bbe
00000160: f25f 80be 23db 96be bc28 4ebe 421e aabe
00000170: cc2e 47be a26b e1bd d55e 19be 1124 83be
00000180: 4e4b 8fbe 55d4 d1bd 2106 e1bd 8fd0 41be
00000190: 08f5 30be 5b33 a2be 6180 07be 9a1a 60be
000001a0: cd55 02be 0a02 2bbe f805 a2be 4564 91be
000001b0: 7bfa 90be 05ca 36be 6e16 78be 1986 3ebe
000001c0: 62bb 4fbe 3abc 8fbe 750b 43be 51ea 5cbe
000001d0: c197 38be ae75 dabd 4434 3abe 74ea 89be
000001e0: c049 8cbe 7aa0 10be 1f1c 4dbe 48cc 37be
000001f0: a3fd a5be b2fd 80be ff09 a8be 69cc e0bd
00000200: aa0e 33be 0b33 82be 1e43 61be 76bc 78be
00000210: 8efe 8dbd 43c2 4abe 6c03 babe d900 3fbe

bn1.running_mean f4 [136]
-1.1395667 0.662418 -1.4431196 -1.0660024 -0.38297832 -1.4008222 1.402356 -0.37385002
0.09139381 0.027253529 -0.09418257 1.9044423 0.34939492 -1.0392355 1.5543622 0.009843615
-0.5463053 -2.1574733 -0.05848917 -0.11175166 -2.4652917 -0.91855806 0.20882483 0.7078537
-0.4246865 0.2028724 -0.077824704 0.38998836 -0.25848952 1.4344983 0.7142657 1.4701333
-0.72950506 -1.3833938 -0.52736664 0.22694969 -0.5732463 0.4920452 0.9230754 -0.36716518
0.8470623 0.1970504 1.3393906 -0.579237 -0.59685946 -0.7197144 -1.8421705 0.3453429
0.3675453 0.70822763 -0.32948786 -1.6059458 -0.71092165 1.0421723 -0.7118702 0.014116119
-0.02503759 -0.40700048 1.8301525 -1.8631437 -0.07057893 -0.31487164 -0.7848529 1.917274
0.47479466 0.44499823 -0.49157193 0.40766698 -1.0642467 -0.51257926 0.5445248 -1.2058862
-0.92612004 2.0415308 0.15422639 0.21819729 1.338932 -0.5296436 -0.16193026 -0.95634884
-2.1092136 -1.8996226 0.11797239 0.14323401 -0.5803677 -0.20973618 -0.79461396 0.30174452
0.3268432 -0.14340886 -0.93565804 -0.5343303 -0.7621241 0.6542325 2.4486663 -1.4377427
1.1503303 1.1584961 0.039590407 -0.19125848 -0.35817564 0.16901089 -0.7315499 -0.22840549
-0.62951607 0.34604207 0.9497334 -1.0078244 0.90956247 -0.5071427 -0.63653046 -0.83001596
0.6623945 1.2418938 -0.23435166 0.7066999 0.4812688 -0.8612057 -0.4016231 -0.21434222
-0.9087099 -0.69584346 0.8189695 -1.2600439 -0.7096659 -0.54681706 -0.012749841 -0.31864515
-0.62498695 0.41361323 1.167079 0.9203119 0.0061929016 -0.71269727 0.61307913 -0.7647476
00000000: 52dd 91bf 3a94 293f 25b8 b8bf c472 88bf
00000010: bc15 c4be 244e b3bf 6780 b33f 4569 bfbe
00000020: ae2c bb3d cb42 df3c cbe2 c0bd c4c4 f33f
00000030: e4e3 b23e ab05 85bf 57f5 c63f 1d47 213c
00000040: aada 0bbf 0b14 0ac0 5792 6fbd 0ede e4bd
00000050: 57c7 1dc0 9f26 6bbf 2dd6 553e e635 353f
00000060: 8270 d9be c8bd 4f3e 8f62 9fbd 8eac c73e
00000070: bd58 84be a49d b73f 1eda 363f 542d bc3f
00000080: d8c0 3abf 0c13 b1bf 8001 07bf 8065 683e
00000090: 45c0 12bf 59ed fb3e ab4e 6c3f 13fd bbbe
000000a0: 13d9 583f 94c7 493e 2771 ab3f e048 14bf
000000b0: c8cb 18bf 343f 38bf 3ecc ebbf c9d0 b03e
000000c0: e62e bc3e 684e 353f a2b2 a8be a28f cdbf
000000d0: f6fe 35bf e765 853f 203d 36bf 4b47 673c
000000e0: a21b cdbc 5e62 d0be 7042 ea3f 7e7b eebf
000000f0: b08b 90bd db36 a1be 1fec 48bf 3c69 f53f
00000100: 4918 f33e cfd6 e33e 51af fbbe bab9 d03e
00000110: 3c39 88bf 6538 03bf fa65 0b3f 7b5a 9abf
00000120: 3416 6dbf 71a8 0240 86ed 1d3e 1c6f 5f3e
00000130: 2062 ab3f b996 07bf 0cd1 25be 47d3 74bf
00000140: 5bfd 06c0 d526 f3bf 829b f13d f0ab 123e
00000150: fa92 14bf 15c5 56be d26b 4bbf 427e 9a3e
00000160: fe57 a73e c6d9 12be 4987 6fbf dfc9 08bf
00000170: 911a 43bf c87b 273f f3b6 1c40 f407 b8bf
00000180: 063e 933f 9a49 943f 8d29 223d 43d9 43be
00000190: cc62 b7be 3111 2d3e db46 3bbf 21e3 69be
000001a0: f727 21bf 6d2c b13e ba21 733f 6400 81bf
000001b0: 16d9 683f 1bd4 01bf a9f3 22bf ed7b 54bf
000001c0: b092 293f 60f6 9e3f e2f9 6fbe 49ea 343f
000001d0: dd68 f63e fa77 5cbf 8ba1 cdbe 877c 5bbe
000001e0: 36a1 68bf cc22 32bf fca7 513f 1e49 a1bf
000001f0: aaac 35bf 34fc 0bbf b6e4 50bc 7525 a3be
00000200: 25ff 1fbf 1dc5 d33e d862 953f 9099 6b3f
00000210: d3ed ca3b 5473 36bf c1f2 1c3f 80c6 43bf

bn1.running_var f4 [136]
0.33333564 0.24123144 0.5305538 0.36884987 0.40233985 0.36901116 0.38396868 0.29897785
0.3858412 0.2859225 0.3205849 0.29897287 0.32861492 0.32458034 0.39466897 0.3944134
0.24879164 0.27332124 0.35362646 0.3251585 0.42032287 0.3432367 0.43615994 0.31344968
0.34645057 0.26714426 0.46950626 0.39087278 0.3491945 0.32607225 0.27734938 0.32306343
0.2552323 0.3062072 0.25424245 0.33074176 0.41113028 0.40179005 0.4289936 0.33264202
0.2732852 0.3906046 0.37331173 0.31902122 0.6076662 0.34370163 0.3188856 0.3240362
0.33476493 0.35493627 0.33754113 0.35506663 0.4377061 0.40373307 0.30592903 0.3622874
0.43344945 0.4800273 0.56541055 0.36732945 0.6394347 0.352769 0.38592178 0.38081047
0.2904196 0.31120545 0.30563444 0.40236866 0.4927076 0.37699637 0.25694507 0.43987012
0.42839313 0.42276862 0.2992995 0.38564405 0.3913179 0.4392981 0.2789444 0.39833057
0.45745564 0.38515407 0.41434938 0.41224378 0.39311278 0.3012766 0.4020237 0.21080014
0.3325011 0.29606453 0.49449196 0.35131252 0.3177923 0.51627064 0.48252153 0.45421562
0.4213187 0.34161663 0.39695945 0.49062422 0.3043567 0.34505072 0.4433151 0.323216
0.49423802 0.37451798 0.55770797 0.27891365 0.3669286 0.5502434 0.30208686 0.41984534
0.27629265 0.4561513 0.5065127 0.41453034 0.3960563 0.31859758 0.39882907 0.4572956
0.28867334 0.32875428 0.40169436 0.35768345 0.27524206 0.2960802 0.26989964 0.39684376
0.5093269 0.35444728 0.41811275 0.29553577 0.29986253 0.38231683 0.31280833 0.35368478
00000000: f8aa aa3e 6005 773e 60d2 073f e4d9 bc3e
00000010: 7dff cd3e 08ef bc3e 8b97 c43e a013 993e
00000020: fa8c c53e 6f64 923e b423 a43e f912 993e
00000030: 3740 a83e 652f a63e 0d12 ca3e 8ef0 c93e
00000040: 3cc3 7e3e c3f0 8b3e 870e b53e 2d7b a63e
00000050: 8f34 d73e b9bc af3e 5b50 df3e 7a7c a03e
00000060: f861 b13e 22c7 883e 2063 f03e 7a20 c83e
00000070: 9fc9 b23e f1f2 a63e bd00 8e3e 9268 a53e
00000080: cfad 823e 31c7 9c3e 112c 823e fc56 a93e
00000090: ab7f d23e 6db7 cd3e 0da5 db3e 0e50 aa3e
000000a0: 0aec 8b3e 53fd c73e b722 bf3e c056 a33e
000000b0: 0390 1b3f a9f9 af3e f944 a33e 13e8 a53e
000000c0: 4f66 ab3e 35ba b53e 31d2 ac3e 4bcb b53e
000000d0: 041b e03e 1ab6 ce3e bba2 9c3e bc7d b93e
000000e0: 16ed dd3e 23c6 f53e bfbe 103f 9b12 bc3e
000000f0: feb1 233f 239e b43e 8a97 c53e 97f9 c23e
00000100: e1b1 943e 5256 9f3e 1e7c 9c3e 4403 ce3e
00000110: 2c44 fc3e ab05 c13e 4e8e 833e a836 e13e
00000120: 5856 db3e 2175 d83e c93d 993e 2373 c53e
00000130: d25a c83e aeeb e03e cdd1 8e3e fcf1 cb3e
00000140: a037 ea3e ea32 c53e 9a25 d43e 9e11 d33e
00000150: 1446 c93e ed40 9a3e 0dd6 cd3e fedb 573e
00000160: 963d aa3e c595 973e 0d2e fd3e 3cdf b33e
00000170: acb5 a23e 502a 043f 100d f73e f38e e83e
00000180: 16b7 d73e 60e8 ae3e 453e cb3e 1933 fb3e
00000190: a4d4 9b3e 7daa b03e 32fa e23e 917c a53e
000001a0: c40c fd3e d2c0 bf3e f3c5 0e3f c5cd 8e3e
000001b0: 11de bb3e c0dc 0c3f 21ab 9a3e f8f5 d63e
000001c0: 3b76 8d3e aa8c e93e d1aa 013f 523d d43e
000001d0: e4c7 ca3e 391f a33e 5333 cc3e a622 ea3e
000001e0: fecc 933e 7b52 a83e e2aa cd3e 4922 b73e
000001f0: 87ec 8c3e d397 973e 4930 8a3e 1b2f cb3e
00000200: 3f63 023f 1d7a b53e e012 d63e 7750 973e
00000210: 9587 993e 08bf c33e 6a28 a03e 2c16 b53e

fc1.weight f4 [68, 136]
-0.004820003 -0.0890148 -0.010859133 -0.018107776 0.05327946 -0.14876474 -0.05163595 -0.11738267
-0.07116223 0.006910306 -0.02477659 0.101954214 -0.054428358 0.029756758 -0.015475063 0.031169116
-0.044185515 -0.021106036 0.16217074 0.02925983 0.02582866 -0.089465775 -0.04405564 -0.036650795
-0.058660123 -0.10817021 -0.110502034 0.13915424 0.113756694 -0.089461364 0.02039856 0.041161407
-0.121553175 -0.019921307 0.018435488 -0.0805856 -0.033508606 -0.02823265 0.03240105 0.044567913
-0.06443196 -0.00997286 -0.0036181575 0.12864588 0.011465446 0.06989893 0.07740189 0.06475849
0.015352146 -0.08362872 -0.0048654513 -0.03174761 0.070501976 -0.07286929 -0.043365866 0.10788168
0.0036739833 0.063245244 0.034635637 0.08224635 -0.121160306 0.11629802 0.018024512 -0.06448237
-0.02163168 -0.0479453 0.014367033 0.090783484 0.03882001 -0.021480007 0.08124556 0.041915726
0.061830826 0.030762753 -0.04548819 0.050616696 0.07117859 -0.05069259 -0.057405416 0.037260935
0.031220252 0.019600963 0.019065326 0.06486453 -0.01464529 -0.0185579 0.07596468 -0.045229036
0.06959341 -0.020094361 0.102663055 0.045833703 -0.041809466 0.09867834 -0.008671021 0.13375288
0.03836757 0.13611758 0.16274063 0.055108927 -0.08957201 0.0879135 -0.052491847 -0.02139822
0.035269845 -0.017176673 0.089063786 -0.10308159 -0.023524396 -0.12997499 -0.08137632 -0.027767956
-0.053920884 -0.06548911 0.1520615 -0.010436351 -0.04860677 -0.050960768 -0.012868959 -0.033672646
0.06634778 -0.11425433 0.017216532 0.00890156 0.059310734 -0.06200019 -0.07408238 0.09521718
0.033266656 -0.0020519558 -0.09642093 0.1358009 0.017506626 0.0117526185 0.10329008 0.061017074
-0.046768453 -0.06464443 0.08603675 -0.14234836 0.051570125 -0.032668266 -0.05283003 0.10027441
-0.012566111 -0.15104058 0.0031608702 0.13124119 0.017293548 0.038197435 -0.008684134 0.06677058
-0.04537532 -0.098140486 -0.120979846 0.053278502 -0.019121017 -0.07891033 -0.09985015 0.047198012
0.028764708 -0.017378833 0.058574088 -0.020874726 0.0054417425 0.015431299 -0.0920039 -0.080048114
0.030216428 0.016002484 -0.1038005 -0.11784595 0.038190525 0.018283598 0.06619844 0.08182915
0.013251581 -0.0086090425 0.008640524 -0.09081699 0.04341178 0.01295913 -0.14318636 0.12595059
0.120626345 0.078352995 0.051500276 0.056110594 0.07254655 0.046553325 -0.020790013 0.03002318
-0.044238035 0.024396185 0.09233362 0.07425015 7.088756e-05 -0.053945154 -0.06897956 -0.07545861
0.033081688 -0.0033204705 0.04943081 -0.02747558 -0.05158128 0.068863675 -0.011314337 0.014251612
-0.09778289 -0.03083393 0.07361912 -0.018605566 0.12047335 0.08148894 0.032716174 0.099798486
0.042322773 0.02243049 -0.040234014 -0.13491803 0.009962773 0.04351336 0.08020692 -0.019891746
0.014592785 0.09591876 -0.060883928 -0.054748416 0.06396399 0.0772594 -0.15985388 -0.020205978
-0.0026880833 -7.375129e-05 0.06672988 -0.099504866 0.022325518 -0.0209584 0.07141788 0.06614865
0.09636469 0.060405925 -0.11985269 -0.04869449 0.12145944 0.016501937 -0.047472488 0.1007129
0.037805364 -0.053299375 0.04474438 -0.11652485 0.027241813 0.041166358 0.02572592 0.07661603
00000000: 1ef1 9dbb 644d b6bd 81ea 31bc c256 94bc
00000010: 903b 5a3d c955 18be 3880 53bd 5366 f0bd
00000020: 81bd 91bd d96f e23b 46f8 cabc 5fcd d03d
00000030: 45f0 5ebd 72c4 f33c 1e8b 7dbc 6056 ff3c
00000040: dffb 34bd 91e6 acbc 1610 263e 50b2 ef3c
00000050: a096 d33c d539 b7bd b073 34bd 251f 16bd
00000060: 9945 70bd 5888 ddbd e44e e2bd 737e 0e3e
00000070: 45f9 e83d 8537 b7bd e21a a73c dd98 283d
00000080: dff0 f8bd 0232 a3bc 0506 973c 100a a5bd
00000090: 5240 09bd 2948 e7bc f7b6 043d d88c 363d
000000a0: e7f4 83bd 3565 23bc 9c1e 6dbb bfbb 033e
000000b0: 91d9 3b3c 2c27 8f3d e284 9e3d 19a0 843d
000000c0: 9187 7b3c 8945 abbd 5d6e 9fbb c809 02bd
000000d0: 5763 903d 7f3c 95bd 68a0 31bd 12f1 dc3d
000000e0: 36c7 703b b986 813d 19de 0d3d c670 a83d
000000f0: e522 f8bd a82d ee3d 24a8 933c 550f 84bd
00000100: ec34 b1bc 4a62 44bd b463 6b3c b1ec b93d
00000110: bb01 1f3d d7f6 afbc 1264 a63d d3af 2b3d
00000120: 5242 7d3d 2b02 fc3c d351 3abd 7453 4f3d
00000130: 15c6 913d 09a3 4fbd f121 6bbd ec9e 183d
00000140: 9dc1 ff3c 3392 a03c e32e 9c3c b2d7 843d
00000150: ccf2 6fbc bd06 98bc 5f93 9b3d 1542 39bd
00000160: fd86 8e3d ee9c a4bc 0241 d23d 1fbc 3b3d
00000170: 6740 2bbd df17 ca3d e610 0ebc 84f6 083e
00000180: 5027 1d3d 6862 0b3e 7ba5 263e e6b9 613d
00000190: 8871 b7bd fe0b b43d b101 57bd 524b afbc
000001a0: 1d77 103d 18b6 8cbc 1367 b63d 711c d3bd
000001b0: 3cb6 c0bc 2a18 05be a1a8 a6bd a079 e3bc
000001c0: 25dc 5cbd 281f 86bd 03b6 1b3e 3bfd 2abc
000001d0: e417 47bd 3dbc 50bd 54d8 52bc 54ec 09bd
000001e0: 58e1 873d 2dfe e9bd af09 8d3c d9d7 113c
000001f0: d0ef 723d e9f3 7dbd 81b8 97bd 3a01 c33d
00000200: 9e42 083d 1b7a 06bb 5678 c5bd 640f 0b3e
00000210: 0e6a 8f3c 0e8e 403c c089 d33d 0aed 793d
00000220: 4790 3fbd 4d64 84bd 0934 b03d c5c3 11be
00000230: 323b 533d 29cf 05bd 4d64 58bd ab5c cd3d
00000240: 17e2 4dbc 62aa 1abe 9a26 4f3b 1764 063e
00000250: 33ab 8d3c ea74 1c3d e647 0ebc 04bf 883d
00000260: 79db 39bd e1fd c8bd 48c4 f7bd 8f3a 5a3d
00000270: aea3 9cbc bd9b a1bd 3c7e ccbd b452 413d
00000280: f7a3 eb3c 0e5e 8ebc 62eb 6f3d 7901 abbc
00000290: a550 b23b 8fd3 7c3c 8a6c bcbd 44f0 a3bd
000002a0: 7188 f73c a417 833c 5b95 d4bd 3859 f1bd
000002b0: ab6d 1c3d 7cc7 953c 0c93 873d 0b96 a73d
000002c0: 291d 593c f10c 0dbc fc90 0d3c 42fe b9bd
000002d0: 8dd0 313d 8852 543c 729f 12be 31f9 003e
000002e0: f20a f73d 8977 a03d f4f1 523d 39d4 653d
000002f0: 4993 943d b3ae 3e3d d14f aabc 2cf3 f53c
00000300: f132 35bd 82da c73c 6919 bd3d 7610 983d
00000310: 78a9 9438 98f5 5cbd 2845 8dbd 0b8a 9abd
00000320: aa80 073d 409c 59bb f677 4a3d 7814 e1bc
00000330: e446 53bd 6608 8d3d c55f 39bc 987f 693c
00000340: 6542 c8bd 7097 fcbc 9fc5 963d b36a 98bc
00000350: bbba f63d ace3 a63d 6501 063d 2663 cc3d
00000360: a55a 2d3d 26c0 b73c 6ccc 24bd f427 0abe
00000370: e63a 233c 113b 323d 8743 a43d 04f4 a2bc
00000380: 9416 6f3c 0e71 c43d 6d61 79bd e03f 60bd
00000390: 8dff 823d 2d3a 9e3d bcb0 23be 0287 a5bc
000003a0: 8e2a 30bb ecaa 9ab8 ada9 883d 35c9 cbbd
000003b0: 01e4 b63c f3b0 abbc 8a43 923d f278 873d
000003c0: da5a c53d 346c 773d 5475 f5bd e073 47bd
000003d0: babf f83d 122f 873c 8372 42bd 9142 ce3d
000003e0: ccd9 1a3d 7250 5abd e245 373d 95a4 eebd
000003f0: 392a df3c 0e9e 283d 2abf d23c dde8 9c3d

fc1.bias f4 [68]
-0.020532526 0.059688635 0.02734897 0.042631984 0.07141137 -0.018292593 0.0037196781 0.048268117
-0.04398415 0.08141218 0.02556466 0.054888647 0.05211989 -0.050245523 -0.017168038 0.029094387
-0.03885441 0.06265865 0.06937154 -0.030238153 -0.06564361 -0.059440494 0.030238105 0.04094477
-0.07438908 -0.05993371 0.028802402 -0.029651145 0.04649839 0.0832202 0.02796779 -0.061836638
0.036103554 0.07839838 -0.029602004 0.034065135 0.020138143 0.011700614 0.040327195 -0.082756884
0.081952825 0.0024154168 0.052071698 -0.04093878 0.06635828 0.01851329 0.08207311 0.011391692
0.027575618 0.06471922 0.06903688 0.06497728 -0.08344048 -0.00023258696 0.016932592 0.027390826
-0.07484381 0.032399315 -0.028842224 -0.008119296 0.0015947802 -0.030801862 -0.083594374 -0.0014108974
-0.009998909 0.03292008 -0.055228584 -0.019651728
00000000: d433 a8bc 127c 743d f20a e03c e09e 2e3d
00000010: 2040 923d 59da 95bc d8c5 733b cab4 453d
00000020: b928 34bd 6ebb a63d fa6c d13c ebd2 603d
00000030: aa7b 553d 40ce 4dbd fca3 8cbc 5a57 ee3c
00000040: cd25 1fbd 2e53 803d aa12 8e3d 01b6 f7bc
00000050: 2870 86bd e077 73bd e7b5 f73c b4b5 273d
00000060: 4d59 98bd 0d7d 75bd 04f3 eb3c f5e6 f2bc
00000070: 1975 3e3d 5a6f aa3d b51c e53c 6a48 7dbd
00000080: 52e1 133d 548f a03d e77f f2bc e287 0b3d
00000090: bff8 a43c efb3 3f3c 212e 253d 717c a9bd
000000a0: e2d6 a73d f84b 1e3b 2249 553d 6caf 27bd
000000b0: dae6 873d 2fa9 973c f215 a83d 38a4 3a3c
000000c0: 43e6 e13c 838b 843d 3563 8d3d cf12 853d
000000d0: d8e2 aabd 96e2 73b9 38b6 8a3c ba62 e03c
000000e0: b647 99bd 25b5 043d 8746 ecbc cc06 05bc
000000f0: f207 d13a 3054 fcbc 8733 abbd dced b8ba
00000100: 77d2 23bc 35d7 063d 5e37 62bd a9fc a0bc

bn2.weight f4 [68]
0.97044843 0.9740693 1.018504 0.98054427 0.8854042 1.0077688 0.91844094 0.9495749
0.93539596 0.95219874 0.9352591 0.9883549 0.95816284 1.013962 1.0296679 0.9283026
0.99717474 1.0275773 1.0360589 0.9766692 0.9553433 1.0479523 1.0141302 0.92678946
0.9384351 0.9559394 1.0065054 1.0068234 0.9993784 1.0082244 0.9969412 1.0343012
0.9590853 0.99670553 0.8699678 0.94578886 1.0474712 0.92074126 0.83887684 1.0006733
1.0450419 1.0142279 1.0280257 1.0075344 1.0116163 0.9984605 1.0556289 1.0135249
1.0246409 1.0089401 0.88012964 1.0446448 1.0075845 1.0499156 0.9268058 1.027908
0.9946345 0.9801942 1.0120252 1.0014178 0.92181563 0.9087885 1.0276284 1.0604229
1.0247866 0.93697655 0.89015716 1.0378083
00000000: 4f6f 783f 9b5c 793f 575e 823f f304 7b3f
00000010: daa9 623f 91fe 803f f21e 6b3f 5717 733f
00000020: 1c76 6f3f 4cc3 733f 246d 6f3f d404 7d3f
00000030: 294a 753f 82c9 813f 28cc 833f 3da5 6d3f
00000040: d846 7f3f a787 833f 949d 843f fe06 7a3f
00000050: 6191 743f 4d23 863f 05cf 813f 1342 6d3f
00000060: 483d 703f 72b8 743f 2bd5 803f 97df 803f
00000070: 43d7 7f3f 7f0d 813f 8a37 7f3f fb63 843f
00000080: 9d86 753f 1828 7f3f 36b6 5e3f 381f 723f
00000090: 8913 863f b3b5 6b3f a2c0 563f 1016 803f
000000a0: efc3 853f 38d2 813f 5996 833f e3f6 803f
000000b0: a57c 813f 1b9b 7f3f d91e 873f 2fbb 813f
000000c0: 6f27 833f f324 813f 2d50 613f ecb6 853f
000000d0: 87f8 803f a263 863f 2543 6d3f 7d92 833f
000000e0: 5ea0 7e3f 02ee 7a3f 0b8a 813f 752e 803f
000000f0: 1cfc 6b3f 5da6 683f 5489 833f f0bb 873f
00000100: 352c 833f b2dd 6f3f 57e1 633f e7d6 843f

bn2.bias f4 [68]
-0.09308058 -0.19919196 -0.19724092 -0.13249587 -0.13352911 -0.090919234 -0.1207017 -0.16774812
-0.13912468 -0.1772239 -0.13959712 -0.17968695 -0.08840513 -0.16416375 -0.14302552 -0.08261665
-0.17320812 -0.18427922 -0.108273365 -0.1763245 -0.10545592 -0.13426638 -0.16931362 -0.1013704
-0.17199415 -0.11839575 -0.1786757 -0.16038668 -0.07460917 -0.1524219 -0.15484732 -0.11811545
-0.1495599 -0.19614343 -0.17934741 -0.19665392 -0.15890615 -0.08510661 -0.105793014 -0.08421901
-0.078975625 -0.09197316 -0.22014967 -0.1187934 -0.1034847 -0.18103427 -0.16037644 -0.23720793
-0.20175807 -0.09532142 -0.1461017 -0.13492198 -0.10111993 -0.13954194 -0.14993861 -0.16869935
-0.15657966 -0.13307633 -0.20772569 -0.16764519 -0.13115434 -0.023969088 -0.1724317 -0.089348525
-0.086971655 -0.18121439 -0.12390325 -0.076778494
00000000: 08a1 bebd faf8 4bbe 86f9 49be ffac 07be
00000010: dbbb 08be dd33 babd 7432 f7bd 2ac6 2bbe
00000020: b376 0ebe 2f7a 35be 8cf2 0ebe dbff 37be
00000030: c00d b5bd 8b1a 28be 4875 12be eb32 a9bd
00000040: 785d 31be b1b3 3cbe 6dbe ddbd 698e 34be
00000050: 46f9 d7bd 207d 09be 8d60 2dbe 499b cfbd
00000060: 3c1f 30be 7979 f2bd c3f6 36be 683c 24be
00000070: b1cc 98bd 7d14 1cbe 4c90 1ebe 83e6 f1bd
00000080: 3b26 19be d3d9 48be d9a6 37be a55f 49be
00000090: 4bb8 22be 604c aebd 02aa d8bd 047b acbd
000000a0: f9bd a1bd 6d5c bcbd ea6e 61be f449 f3bd
000000b0: c9ef d3bd 0c61 39be b939 24be a3e6 72be
000000c0: ab99 4ebe e037 c3bd af9b 15be fd28 0abe
000000d0: f717 cfbd 15e4 0ebe 8289 19be 86bf 2cbe
000000e0: 6b56 20be 2945 08be 0bb6 54be 2eab 2bbe
000000f0: 534d 06be d25a c4bc f091 30be 5cfc b6bd
00000100: 321e b2bd 4490 39be fdc0 fdbd 0b3e 9dbd

bn2.running_mean f4 [68]
0.21104117 0.33725178 -0.4861747 0.24606362 0.04163121 -0.3353635 0.040448863 0.27974433
0.096701734 -0.032744274 0.23715769 -0.45947108 -0.32351065 -0.38258946 -0.35450515 -0.0041435775
0.4629469 -0.19557674 0.1871813 -0.17005543 -0.24668384 -0.24599014 -0.467416 0.13578457
-0.019663006 -0.55395067 -0.6320095 0.24903442 -0.28742617 -0.24012893 0.32413793 -0.53790605
-0.11182496 -0.5776836 -0.020449642 0.12549534 -0.055161335 -0.46355268 -0.32166302 0.41045266
-0.32837632 0.604794 -0.30564797 -0.022901118 -0.19934697 -0.41141087 -0.23977542 -0.52217096
-0.16207854 -0.15945542 0.36279017 0.5669893 -0.15602815 -0.15497234 -0.54978216 -0.5672436
-0.5659953 -0.45535132 0.08200045 -0.6449248 0.76302373 -0.4242733 -0.13989823 -0.16601977
-0.3288013 0.3388015 0.05197853 -0.23178229
00000000: 2d1b 583e 44ac ac3e e4eb f8be 1af8 7b3e
00000010: 7d85 2a3d c4b4 abbe b5ad 253d a63a 8f3e
00000020: 8f0b c63d dc1e 06bd 77d9 723e cb3f ebbe
00000030: 30a3 a5be c4e2 c3be b381 b5be d9c6 87bb
00000040: 6007 ed3e 4545 48be 74ac 3f3e 0323 2ebe
00000050: b09a 7cbe d7e4 7bbe 2651 efbe 1c0b 0b3e
00000060: 5014 a1bc b6cf 0dbf 60cb 21bf e102 7f3e
00000070: 8629 93be 5ce4 75be 68f5 a53e 36b4 09bf
00000080: 7c04 e5bd 13e3 13bf 0286 a7bc da81 003e
00000090: daf0 61bd c756 edbe 04b1 a4be da26 d23e
000000a0: f120 a8be c8d3 1a3f e47d 9cbe 209b bbbc
000000b0: 9d21 4cbe 72a4 d2be b087 75be ffac 05bf
000000c0: ebf7 25be 4848 23be a2bf b93e 3626 113f
000000d0: d8c5 1fbe 12b1 1ebe 86be 0cbf e036 11bf
000000e0: 11e5 10bf cf23 e9be daef a73d cb19 25bf
000000f0: 8655 433f 5a3a d9be 7b41 0fbe 1601 2abe
00000100: a558 a8be 6477 ad3e 70e7 543d 5658 6dbe

bn2.running_var f4 [68]
0.39975083 0.3291799 0.43630925 0.43705997 0.3896503 0.5082575 0.34594327 0.3708325
0.40018263 0.3408626 0.29147953 0.54567426 0.3095802 0.4696654 0.4383028 0.2691059
0.40852815 0.5336051 0.5222647 0.31565 0.30222496 0.44848174 0.45958582 0.27566674
0.3755754 0.3227648 0.49061683 0.28826812 0.57160836 0.5245118 0.3857589 0.53924453
0.35409045 0.40137514 0.30688566 0.32543352 0.55777204 0.28812096 0.26851043 0.27883658
0.4777732 0.2923453 0.41098398 0.3978975 0.35455945 0.5560108 0.5332491 0.4610313
0.34221485 0.4714512 0.31617498 0.45291883 0.3216426 0.44565928 0.3753582 0.32484886
0.34567428 0.29222602 0.38293064 0.4842381 0.3337898 0.24553953 0.56978536 0.54520947
0.41700155 0.30174285 0.2922049 0.4904877
00000000: 24ac cc3e 458a a83e ed63 df3e 53c6 df3e
00000010: 3e80 c73e 2a1d 023f 7a1f b13e c2dd bd3e
00000020: bde4 cc3e 8b85 ae3e ce3c 953e 4fb1 0b3f
00000030: 4c81 9e3e fc77 f03e 3969 e03e 40c8 893e
00000040: 9a2a d13e 589a 083f 24b3 053f e09c a13e
00000050: 3bbd 9a3e 669f e53e d54e eb3e 3124 8d3e
00000060: 6b4b c03e 6e41 a53e 2132 fb3e e197 933e
00000070: ed54 123f 6846 063f 3182 c53e ee0b 0a3f
00000080: 584b b53e 0b81 cd3e 1e20 9d3e 399f a63e
00000090: 26ca 0e3f 9784 933e 337a 893e abc3 8e3e
000000a0: b09e f43e 48ae 953e 7e6c d23e 39b9 cb3e
000000b0: d188 b53e b956 0e3f 0383 083f 4b0c ec3e
000000c0: c936 af3e 0d62 f13e b0e1 a13e fae4 e73e
000000d0: 57ae a43e 742d e43e f32e c03e 9752 a63e
000000e0: 38fc b03e a69e 953e 7c0f c43e 0eee f73e
000000f0: 7fe6 aa3e b76e 7b3e 74dd 113f d992 0b3f
00000100: 3a81 d53e 0a7e 9a3e e19b 953e 3421 fb3e

fc2.weight f4 [34, 68]
-0.06691339 -0.062340826 -0.00780218 -0.13548152 -0.09080356 0.08889899 -0.040781274 0.019586448
-0.11139414 -0.0634492 0.013511806 -0.09993399 0.04468432 -0.06492118 -0.06366491 0.03910737
-0.041948978 0.008157733 0.13187513 0.09648157 -0.12256621 0.08644911 0.0015235433 -0.13495816
-0.041895974 0.17122833 -0.08389514 -0.074842624 0.01771902 -0.027206609 0.073648214 -0.19619125
0.0277064 -0.071066454 -0.01451172 0.06098673 -0.13786401 -0.013431785 -0.006219695 0.006570517
-0.07543005 -0.10229741 -0.14448334 0.10056533 0.12231206 -0.11735265 -0.025453482 0.0019048911
0.11083998 0.05895539 0.036561284 0.07245009 -0.0087422 -0.08574072 -0.08661606 -0.09751101
0.05763691 -0.07012863 -0.09517655 -0.13565096 -0.11776701 0.05986419 -0.14189966 -0.12273188
0.034060802 0.083297074 -0.14058715 -0.04398891 -0.08377846 0.024740163 -0.10457457 -0.005216627
-0.062730305 0.16409832 -0.057758763 0.13704304 -0.0077701095 -0.06747023 -0.013859535 -0.10061772
-0.012679673 -0.05443326 -0.11515044 -0.11079268 0.1686268 -0.01717167 0.013654861 0.13334984
-0.12585251 0.13713834 -0.15270288 0.015377601 -0.08403226 0.045158908 -0.12600483 -0.14424866
-0.028012186 -0.017537812 0.07264948 -0.035363343 -0.101039425 -0.08099129 -0.0012516774 0.038112525
-0.12551808 -0.034166 -0.019404149 0.018912146 -0.090446286 -0.101405025 -0.05391095 -0.07303099
0.15038948 -0.11643977 -0.0070300857 0.15938626 -0.013000992 -0.10253478 -0.09192146 0.075933605
-0.09137172 -0.25365523 -0.11154746 -0.09946734 0.14735608 0.01623777 -0.15802619 0.0111628985
0.02245386 0.07553248 -0.1214294 -0.09832537 0.11455642 0.05570951 -0.0041109454 -0.14970365
-0.045014713 -0.007868131 -0.0010505101 -0.123792104 -0.088169135 -0.051397067 -0.014706043 -0.031595558
-0.09719205 0.07969381 0.0686673 0.14960313 -0.044046987 -0.08255894 -0.06633713 0.03523752
-0.117925696 0.070015736 -0.07579938 0.001073481 0.11521619 0.014086174 0.18109865 0.08916113
0.08379148 0.018884467 -0.029440796 -0.17058401 0.1375716 -0.11817514 -0.050948504 0.009212193
0.15036553 -0.010164823 -0.019863239 -0.06691138 0.0646153 -0.06018847 0.012544115 -0.07690522
0.06982203 0.042413082 0.16460499 -0.07547234 -0.059755605 -0.0034339891 -0.015177433 -0.11458509
-0.06279921 -0.03325323 -0.09564493 -0.08976469 -0.061395094 0.050619125 0.061989386 0.16206141
-0.06509346 -0.07598405 0.010073098 -0.039613698 -0.0142166875 -0.071499154 -0.07700679 0.016362056
-0.04148417 -0.04180458 0.03926935 0.04289077 0.05238322 -0.12705147 0.066799715 -0.0029281415
0.06012553 0.009436549 0.15691215 -0.08551943 -0.035031337 -0.06343124 -0.048533704 0.09097828
-0.058105104 0.029192185 0.13344474 -0.11042146 0.058341026 0.1381207 -0.15777148 -0.14477363
-0.09521308 -0.08228705 0.051317897 -0.041136015 -0.040837985 -0.13859524 0.14827542 0.023525544
0.13738519 -0.0060858214 -0.021478012 0.10837463 -0.09380689 0.009479514 0.03978133 -0.02687255
0.046176862 0.03747224 -0.0071818386 -0.19385415 0.037488163 -0.025255648 -0.013857324 -0.030132297
-0.039875604 0.09353753 -0.1599148 -0.04873719 -0.11494074 0.007776614 0.03989587 -0.12855479
00000000: e309 89bd 1859 7fbd 6ea9 ffbb abbb 0abe
00000010: 38f7 b9bd ac10 b63d 440a 27bd c273 a03c
00000020: 9c22 e4bd a7f1 81bd 9f60 5d3c 31aa ccbd
00000030: e806 373d 65f5 84bd c062 82bd 0d2f 203d
00000040: b1d2 2bbd 03a8 053c 460a 073e 2198 c53d
00000050: fe03 fbbd 3b0c b13d a1b1 c73a 7932 0abe
00000060: 1d9b 2bbd 7b56 2f3e 37d1 abbd 1747 99bd
00000070: 7a27 913c 65e0 debc e0d4 963d 5ce6 48be
00000080: 88f8 e23c 4a8b 91bd 91c2 6dbc 39cd 793d
00000090: 392c 0dbe fd10 5cbc 95ce cbbb 7e4d d73b
000000a0: 127b 9abd 4e81 d1bd 71f3 13be 32f5 cd3d
000000b0: bf7e fa3d 9656 f0bd d283 d0bc 8aad f93a
000000c0: 1200 e33d 357b 713d 49c1 153d b660 943d
000000d0: 723b 0fbc d598 afbd c363 b1bd dab3 c7bd
000000e0: ae14 6c3d 999f 8fbd eceb c2bd 16e8 0abe
000000f0: d52f f1bd 2734 753d 254e 11be da5a fbbd
00000100: 5783 0b3d a897 aa3d 14f6 0fbe b72d 34bd
00000110: 0b94 abbd e2ab ca3c 312b d6bd 3df0 aabb
00000120: bf78 80bd 6409 283e 7494 6cbd 0355 0c3e
00000130: 679c febb d52d 8abd 1a13 63bc aa10 cebd
00000140: 67be 4fbc 69f5 5ebd fed3 ebbd 46e7 e2bd
00000150: 81ac 2c3e 9aab 8cbc a3b8 5f3c dc8c 083e
00000160: 7bdf 00be fe6d 0c3e 255e 1cbe 55f2 7b3c
00000170: 1b19 acbd 8cf8 383d 6907 01be ecb5 13be
00000180: d079 e5bc 75ab 8fbc 40c9 943d 27d9 10bd
00000190: c2ed cebd c3de a5bd 530f a4ba e11b 1c3d
000001a0: d087 00be a6f1 0bbd 73f5 9ebc a5ed 9a3c
000001b0: e73b b9bd 70ad cfbd bad1 5cbd 4691 95bd
000001c0: b3ff 193e f977 eebd a25c e6bb 2736 233e
000001d0: 1d02 55bc c1fd d1bd 5241 bcbd 1483 9b3d
000001e0: 1921 bbbd 19df 81be ff72 e4bd 88b5 cbbd
000001f0: 83e4 163e 1205 853c 9ed1 21be 97e4 363c
00000200: 28f1 b73c c6b0 9a3d faaf f8bd d05e c9bd
00000210: 8e9c ea3d a82f 643d 1cb5 86bb ea4b 19be
00000220: 5961 38bd 55e9 00bc 45b1 89ba b786 fdbd
00000230: 0592 b4bd bb85 52bd 9df1 70bc 586a 01bd
00000240: a00c c7bd 8236 a33d 71a1 8c3d 9031 193e
00000250: 9d6a 34bd a914 a9bd c3db 87bd 3855 103d
00000260: 0783 f1bd 6964 8f3d b53c 9bbd 0cb4 8c3a
00000270: 77f6 eb3d b2c9 663c ed71 393e 1c9a b63d
00000280: de9a ab3d 99b3 9a3c d32d f1bc 93ad 2ebe
00000290: 92df 0c3e cf05 f2bd 61af 50bd bdee 163c
000002a0: 6cf9 193e 5c8a 26bc 3bb8 a2bc d508 89bd
000002b0: 0755 843d 2f88 76bd d585 4d3c 7c80 9dbd
000002c0: dafe 8e3d 57b9 2d3d 368e 283e 3e91 9abd
000002d0: 4bc2 74bd c70c 61bb c5aa 78bc 96ab eabd
000002e0: df9c 80bd 8a34 08bd 7de1 c3bd 8dd6 b7bd
000002f0: 6c79 7bbd 0056 4f3d 95e8 7d3d 6df3 253e
00000300: b84f 85bd 879d 9bbd a309 253c f941 22bd
00000310: 1ced 68bc 266e 92bd bcb5 9dbd b809 863c
00000320: 4eeb 29bd 473b 2bbd e6d8 203d 3bae 2f3d
00000330: ca8f 563d c819 02be 4ace 883d 10e6 3fbb
00000340: 3046 763d c19b 1a3c 94ad 203e d024 afbd
00000350: 057d 0fbd 3de8 81bd 47cb 46bd d252 ba3d
00000360: 9eff 6dbd 7324 ef3c bda5 083e a524 e2bd
00000370: 00f7 6e3d 836f 0d3e d98e 21be 8a3f 14be
00000380: 13ff c2bd 1d86 a8bd b732 523d 3d7e 28bd
00000390: bb45 27bd e9eb 0dbe 83d5 173e a4b8 c03c
000003a0: b4ae 0c3e 926b c7bb a8f2 afbc 85f3 dd3d
000003b0: d41d c0bd f74f 1b3c bff1 223d d223 dcbc
000003c0: f323 3d3d 7e7c 193d a155 ebbb b481 46be
000003d0: 308d 193d efe4 cebc d409 63bc 02d8 f6bc
000003e0: 9a54 23bd 9b90 bf3d b5c0 23be a6a0 47bd
000003f0: 0d66 ebbd f7d2 fe3b da69 233d dea3 03be

fc2.bias f4 [34]
0.04335779 0.086631626 0.07241624 -0.07411595 0.10403579 -0.100378126 0.06673317 -0.110659495
-0.09379698 0.092958264 -0.114223465 0.03247499 -0.015006349 -0.028616352 -0.061295573 0.0025248872
0.10106409 -0.036318786 0.04587634 0.032862417 -0.009769733 0.0022546854 0.11311098 -0.0035758007
0.044959676 0.01843664 0.11812026 0.031561397 -0.030243924 0.007589089 -0.10467297 -0.04865092
-0.011430782 -0.061743602
00000000: f097 313d ec6b b13d f74e 943d 1aca 97bd
00000010: b710 d53d 0c93 cdbd 66ab 883d 72a1 e2bd
00000020: a218 c0bd e760 be3d feed e9bd 7f04 053d
00000030: 31dd 75bc d76c eabc 1111 7bbd 9478 253b
00000040: b1fa ce3d 02c3 14bd d4e8 3b3d be9a 063d
00000050: 3b11 20bc 58c3 133b bba6 e73d fb57 6abb
00000060: a327 383d 7008 973c 09e9 f13d 8646 013d
00000070: 1bc2 f7bc e5ad f83b c85e d6bd 3046 47bd
00000080: 2d48 3bbc dce6 7cbd

bn3.weight f4 [34]
1.1487387 1.1924697 1.0586059 1.3105261 1.1255808 1.2167988 1.1389354 1.099843
1.241612 1.1307284 1.0905166 1.1561348 1.0779595 1.112089 1.085109 1.1283499
1.075371 1.1327546 1.0627881 1.2393824 1.2148684 1.201776 1.1221541 1.1628851
1.0807788 1.2759962 1.2067653 1.1164445 1.1647427 1.2090504 1.0805466 1.1157027
1.199542 1.0149958
00000000: df09 933f d9a2 983f 6680 873f 52bf a73f
00000010: 0813 903f 10c0 9b3f a3c8 913f a8c7 8c3f
00000020: 24ed 9e3f b5bb 903f 0c96 8b3f 3afc 933f
00000030: 94fa 893f ef58 8e3f dae4 8a3f c56d 903f
00000040: c2a5 893f 1afe 903f 7109 883f 15a4 9e3f
00000050: cf80 9b3f ccd3 993f bfa2 8f3f 6bd9 943f
00000060: f656 8a3f d853 a33f 4977 9a3f a7e7 8e3f
00000070: 4a16 953f 2ac2 9a3f 5a4f 8a3f 59cf 8e3f
00000080: 988a 993f 62eb 813f

bn3.bias f4 [34]
0.07410663 0.053484388 0.021760998 0.18846178 0.09483056 0.114888765 0.060106482 0.051057216
0.14208661 0.10336941 -0.020790417 0.11366719 0.041375488 0.105201446 0.13754669 0.038319852
-0.030573776 0.08710232 0.044183813 0.114324816 0.13179556 0.13329451 0.064248815 0.10980727
0.019245101 0.16244045 0.09526362 0.025764287 0.14540528 0.13217817 0.05929094 0.09567988
0.14930472 0.014269765
00000000: 38c5 973d 7212 5b3d 1f44 b23c 20fc 403e
00000010: 8636 c23d cd4a eb3d 3732 763d 5f21 513d
00000020: 277f 113e 57b3 d33d aa50 aabc 58ca e83d
00000030: 5879 293d db73 d73d 0ad9 0c3e 47f5 1c3d
00000040: db75 fabc b362 b23d 16fa 343d 2123 ea3d
00000050: 6af5 063e 5b7e 083e e294 833d a2e2 e03d
00000060: e7a7 9d3c ca56 263e 9319 c33d a00f d33c
00000070: 1fe5 143e b759 073e 0fdb 723d d0f3 c33d
00000080: 56e3 183e bbcb 693c

bn3.running_mean f4 [34]
-0.5095023 -0.5086157 -0.11251661 -0.27025753 -0.26003134 -0.77421176 -0.42899004 -0.28014994
-0.43361536 -0.48287848 -0.15249169 0.14130282 -0.07745731 -0.28383306 -0.09190733 -0.71898913
-0.2879639 0.036784146 -0.14818572 0.14252172 -0.58064526 0.03271908 0.27129954 -0.14641698
-0.622296 -0.28727272 -0.69815004 -0.3853529 -0.0018339327 0.011072074 -0.55236745 -0.6333367
-0.24609068 0.13091765
00000000: be6e 02bf a334 02bf 1c6f e6bd 325f 8abe
00000010: d422 85be be32 46bf 95a4 dbbe d06f 8fbe
00000020: d502 debe d93b f7be c826 1cbe b0b1 103e
00000030: f0a1 9ebd 9152 91be e939 bcbd ac0f 38bf
00000040: 0170 93be f9aa 163d ffbd 17be 37f1 113e
00000050: 2ba5 14bf 7104 063d c6e7 8a3e 55ee 15be
00000060: ca4e 1fbf 6915 93be f6b9 32bf fa4c c5be
00000070: 9260 f0ba a567 353c f467 0dbf 5b22 22bf
00000080: 32ff 7bbe 470f 063e

bn3.running_var f4 [34]
0.7937047 1.0906743 0.34783944 1.1190795 1.0115933 0.6464697 0.56625515 0.48317653
0.9596131 0.7616801 0.60443157 0.69467926 0.526835 0.6866296 0.65230906 0.8909801
0.49448407 0.77024734 0.55811656 0.7073275 1.0069133 0.5940314 0.6591254 0.8116083
0.53903276 1.0696306 0.9827889 0.6510497 0.61664844 0.93322414 0.76548773 0.9013819
0.7508337 0.40350348
00000000: 3b30 4b3f 379b 8b3f 0318 b23e ff3d 8f3f
00000010: e47b 813f 0a7f 253f 19f6 103f ea62 f73e
00000020: 34a9 753f 78fd 423f 07bc 1a3f 80d6 313f
00000030: a9de 063f f5c6 2f3f bafd 263f 4617 643f
00000040: 042d fd3e ee2e 453f bae0 0e3f 6a13 353f
00000050: 89e2 803f 7112 183f 71bc 283f 90c5 4f3f
00000060: 0dfe 093f a8e9 883f 0e98 7b3f 31ab 263f
00000070: acdc 1d3f c7e7 6e3f 01f7 433f f7c0 663f
00000080: a336 403f 0298 ce3e

out.weight f4 [2, 34]
0.043250967 -0.008293108 -0.021741504 -0.183752 0.13092455 0.13675982 0.22176582 0.14704816
-0.1645422 0.21142125 0.17022528 -0.11641339 -0.18451734 0.10605843 -0.19350822 0.22492258
0.22223732 -0.21051691 -0.12482649 -0.09875805 0.17874508 -0.24071668 0.00841394 -0.10204741
0.21553461 -0.027505029 0.0044021565 0.06942774 -0.26293457 -0.27040073 0.21090169 0.23326826
-0.12626211 0.054816138 -0.269599 -0.25989285 0.1710088 0.22258553 -0.061284047 -0.22356561
-0.09610559 -0.11901227 0.18851785 -0.1080073 -0.0988333 0.24676597 0.19883262 -0.22714819
0.22401747 -0.21545768 -0.11737079 0.21521842 0.0022065328 0.23092185 -0.12542406 0.19076808
-0.19776845 0.28503492 -0.19670245 0.33057025 -0.27685633 -0.17053069 0.0045658494 0.021002369
-0.035930652 -0.08633103 0.22642681 -0.1690968
00000000: ed27 313d d1df 07bc 3d1b b2bc 7c29 3cbe
00000010: 1611 063e c40a 0c3e 9416 633e cb93 163e
00000020: c07d 28be d07e 583e 894f 2e3e 256a eebd
00000030: 1df2 3cbe 2a35 d93d 0527 46be 1b52 663e
00000040: 2e92 633e bf91 57be 08a5 ffbd a941 cabd
00000050: f308 373e 6f7e 76be 9fda 093c 3cfe d0bd
00000060: 1bb5 5c3e 3a52 e1bc f73f 903b 2230 8e3d
00000070: 5c9f 86be f771 8abe 9df6 573e e0dd 6e3e
00000080: db4a 01be e386 603d e108 8abe ad10 85be
00000090: ee1c 2f3e 76ed 633e fb04 7bbd 62ee 64be
000000a0: 02d3 c4bd b4bc f3bd d30a 413e ee32 ddbd
000000b0: 1d69 cabd 38b0 7c3e c79a 4b3e 8999 68be
000000c0: d664 653e f0a0 5cbe 1960 f0bd 3862 5c3e
000000d0: 7a9b 103b c776 6c3e 2a6f 00be b558 433e
000000e0: d083 4abe 19f0 913e 5e6c 49be 8140 a93e
000000f0: 1dc0 8dbe 999f 2ebe 1f9d 953b 290d ac3c
00000100: 052c 13bd 53ce b0bd 6edc 673e b627 2dbe

out.bias f4 [2]
-0.12543096 0.04597885
00000000: f970 00be 5254 3c3d
