model_comparisons/model_weights/human_only_epitope_full_mod.pt (torch_old, 220081 bytes, 22 tensors)

conv.weight f4 [4, 1, 3]
0	0xbe2de7b5	-0.1698292
1	0xbd85061c	-0.06495306
2	0xbd9582e9	-0.0730036
3	0xba823594	-0.000993418
4	0x3b50dd1c	0.0031870073
5	0x3c5a2279	0.013313883
6	0xbda7bd98	-0.08190459
7	0xbd1476c5	-0.03624608
8	0xbb98108f	-0.004640646
9	0x3e776730	0.24160457
10	0x3d43d57f	0.047811028
11	0x3dc01cd3	0.09380498

conv.bias f4 [4]
0	0xbeb6af03	-0.35680398
1	0xbf461c84	-0.7738726
2	0xbea61f23	-0.3244563
3	0x3f1f39c2	0.62197506

input.weight f4 [136, 304]
0	0x3b3fe775	0.0029282246
1	0x3fc32312	1.5245078
2	0x3ed31fca	0.4123519
3	0xbe45ed2f	-0.1932876
4	0x3f473977	0.7782206
5	0x3f9cd2f9	1.2251884
6	0x3e9f60c5	0.31128517
7	0x3e16149d	0.14656301
8	0x3f03bea8	0.51462793
9	0x3fa86f8c	1.3159041
10	0xbf132e8e	-0.5749291
11	0x3fb770bb	1.4331278
12	0xbf2d5b9c	-0.6771791
13	0xbd10d84f	-0.035362538
14	0x3f3f6316	0.7476057
15	0x3e4f5cc1	0.20250227
16	0x3f5c32f1	0.8601523
17	0x3ff91af9	1.9461356
18	0x3faff916	1.374789
19	0x3fe8f831	1.8200742
20	0x3f996cc8	1.1986322
21	0x3f681b55	0.90666705
22	0xbc03e8bf	-0.008051096
23	0xbe04105c	-0.12896866
24	0x3e19eb73	0.15031223
25	0x3f1b6655	0.6070302
26	0x3e21c2fb	0.15797035
27	0x3e9c953d	0.3058261
28	0x3f3bea89	0.7340475
29	0x3ed15309	0.40883663
30	0x3d93e1a0	0.07220769
31	0x3fa4bb85	1.2869726
32	0xbf73bd7e	-0.9521102
33	0x3fb2c5ac	1.3966575
34	0x3f8586e2	1.0431788
35	0x3faf6524	1.3702741
36	0x3fcfb1a3	1.6226085
37	0x3f0ca55c	0.5493982
38	0xbeace766	-0.33770293
39	0x3fb12f6b	1.3842596
40	0x3f6e2a5b	0.9303338
41	0x3f695532	0.9114562
42	0xbe1508b2	-0.14554098
43	0x3f6ad043	0.9172403
44	0x3e8e39b1	0.2777839
45	0x3ef15cef	0.47141215
46	0xbe9b5815	-0.3034064
47	0x3f10b6f0	0.5652914
48	0x3efe50de	0.49671072
49	0x3faac7f7	1.3342274
50	0x3fa07cc2	1.2538073
51	0xbee243bd	-0.44192305
52	0xbe8101f0	-0.2519679
53	0x3dd097d3	0.10185208
54	0x3f8bc30f	1.0918902
55	0x3f82344a	1.0172207
56	0x40137d15	2.3045094
57	0x3eef651b	0.46756825
58	0x3f6a1f60	0.91454124
59	0x3ee4a7e7	0.4465935
60	0x4004af23	2.0731895
61	0x3f799b16	0.9750227
62	0x3fef8b45	1.8714377
63	0xbea8bd69	-0.32957008
64	0xbe729035	-0.23687823
65	0x3f63c029	0.8896509
66	0x3ed50539	0.41605547
67	0xbd394d07	-0.045239475
68	0x3fcec518	1.6153898
69	0x3f880cc6	1.0628898
70	0x3ecf666b	0.40507826
71	0x3fba4058	1.4550886
72	0xbf3f918a	-0.7483145
73	0xbe253195	-0.16132195
74	0xc00e0a21	-2.2193682
75	0x3fedfedf	1.8593405
76	0x3eaf76cd	0.34270325
77	0x3e4fe13f	0.20300768
78	0x3f3bc08b	0.7334067
79	0x401369a8	2.3033237
80	0x3f986a5c	1.1907458
81	0x3f866080	1.04982
82	0x3f42b52b	0.7605769
83	0x3fde59c0	1.737114
84	0x3da88685	0.082287826
85	0xbf8842aa	-1.0645344
86	0x3f6716b5	0.90269023
87	0x3f4da6e8	0.80332804
88	0x3fc210c4	1.5161366
89	0xbf19fd0b	-0.6015174
90	0xbdd13225	-0.102146424
91	0x3f645189	0.8918691
92	0x4007a2f9	2.119322
93	0x3fe825af	1.81365
94	0x3f37c0e5	0.7177871
95	0x3fb5e114	1.4209313
96	0x3ebdb1a0	0.3704958
97	0x3f7f0af5	0.99626094
98	0xbf8def96	-1.1088741
99	0xbeef22aa	-0.46706134
100	0x3f9a616d	1.2060982
101	0x3ea80e6f	0.32823512
102	0x3fbc7796	1.4723995
103	0x3f2987d4	0.6622288
104	0x3fd2f62a	1.6481373
105	0xbf1c7e07	-0.611298
106	0x3e87ead4	0.26546347
107	0x400c2363	2.1896598
108	0x3f6820d9	0.9067512
109	0x3f4591eb	0.7717578
110	0x3fca2687	1.5793008
111	0x3e9297e4	0.28631508
112	0x3fe58a7a	1.7932885
113	0xbf864604	-1.0490117
114	0x3f8198b1	1.0124723
115	0xbef2c078	-0.47412467
116	0x3f34be8c	0.7060325
117	0x3f6929b9	0.9107929
118	0x40036c89	2.0534995
119	0x3ff223ce	1.8917177
120	0x3fcced74	1.6009965
121	0xbeb8e173	-0.36109504
122	0x3fc14fd2	1.5102484
123	0xbf068544	-0.525471
124	0x3f59306b	0.84839505
125	0x3f959546	1.168618
126	0x3ee6e2ac	0.45094812
127	0x3fce599a	1.6121094
128	0x3f5769cd	0.84145814
129	0xbe9e0240	-0.30861092
130	0x3f84fc8c	1.0389571
131	0x3ff22681	1.8918
132	0xbf3ae843	-0.73010653
133	0x3e68fa1b	0.22751658
134	0xbe29d850	-0.16586423
135	0x3f6bf0d5	0.92164356
136	0xbdb71410	-0.089393735
137	0x4005ddbd	2.0916588
138	0xbfa82422	-1.3136027
139	0x3f898b81	1.0745698
140	0xbf10501b	-0.5637223
141	0xbf1c7f8f	-0.6113214
142	0x3e7b7a85	0.24558456
143	0xbf189762	-0.5960599
144	0x3f2ab907	0.6668858
145	0x3e95205f	0.2912626
146	0x3f7a81ab	0.9785411
147	0x3fd07349	1.6285182
148	0xbf1963f3	-0.59918135
149	0x3f890dfc	1.0707393
150	0xbe233629	-0.15938629
151	0x3f20b175	0.6277078
152	0x3f3d4db4	0.7394669
153	0x3ee52f08	0.44762444
154	0xbe7b2b1f	-0.24528168
155	0x3f120ec8	0.57053804
156	0x3f011b35	0.5043214
157	0x3fe28333	1.7696289
158	0xbcf92bda	-0.030416418
159	0xbe26b932	-0.16281584
160	0xbe196dba	-0.14983264
161	0xbf9fe3a3	-1.2491344
162	0xbe2279f0	-0.15866828
163	0xbeeb9081	-0.46008685
164	0x3f60dbb7	0.8783526
165	0x3f7e95b6	0.9944719
166	0x3f94495a	1.1584885
167	0x3fca9966	1.5828063
168	0x3e942535	0.28934637
169	0x3e2e0d39	0.16997232
170	0x3f520ec3	0.82053775
171	0x3f8f86fc	1.1213069
172	0x3f9314c4	1.1490712
173	0x3f5ab49f	0.85431856
174	0x3eb93ea1	0.36180595
175	0x3f9e7bd0	1.2381535
176	0x3f39fa15	0.7264722
177	0x3e2cee04	0.16887671
178	0xbf96291a	-1.1731293
179	0x3e7cc262	0.24683526
180	0x3f068bfc	0.5255735
181	0xbfa7dfe2	-1.3115199
182	0x3e1d41f3	0.15357189
183	0x3f20d25a	0.6282097
184	0xbf15252e	-0.58259857
185	0xbfb284e4	-1.3946805
186	0x3f918e05	1.1371466
187	0x3f960faa	1.172353
188	0x3f3b155e	0.7307948
189	0x3f2e007e	0.679695
190	0xbe75f270	-0.24018264
191	0xbf121735	-0.5706666
192	0x3fb0f643	1.3825153
193	0xbd9990f3	-0.0749835
194	0x3f2ab7e1	0.66686827
195	0x3f49fc8c	0.7890098
196	0x3f9fc7cd	1.2482849
197	0x3faadec7	1.3349236
198	0x3c469040	0.012119353
199	0x3fc3872d	1.5275627
200	0x3e3f7046	0.18695173
201	0x3e939742	0.28826338
202	0x3ea90505	0.33011642
203	0x3fcf9b06	1.6219184
204	0x3f21de28	0.6322961
205	0x3f17a536	0.59236467
206	0xbf9890a9	-1.1919147
207	0x3f86cf5e	1.0532033
208	0x3ef0a939	0.47004107
209	0x3df58d6d	0.119898655
210	0x3f75c481	0.96002966
211	0x3f5516af	0.8323774
212	0x3f192234	0.59817815
213	0x3f6d0a1f	0.9259357
214	0x3f35d8b1	0.7103377
215	0x3e072a88	0.13199818
216	0x3e457138	0.19281471
217	0x3f21d227	0.6321129
218	0x3e2a8b9f	0.16654824
219	0x3f2afb67	0.6678986
220	0xbe392270	-0.18079543
221	0x3eaf6864	0.3425933
222	0x3ea013b7	0.3126504
223	0x3ee5944b	0.448397
224	0x3ef3f00c	0.4764408
225	0xbdb2483c	-0.08705184
226	0x3f471640	0.77768326
227	0xbdefb4fb	-0.11704441
228	0x3ea24a40	0.31697273
229	0x3f6fa548	0.93611574
230	0x3f7ec45d	0.99518377
231	0xbfeb89e1	-1.8401452
232	0xbede81ac	-0.43458307
233	0xbdacca9a	-0.08437081
234	0x3f53e08c	0.82764506
235	0x3f5267f4	0.8218987
236	0x3e19fd13	0.15037946
237	0x3f748187	0.95510143
238	0x3f9d3307	1.2281197
239	0x3f1df576	0.6170267
240	0xbeab724d	-0.33485642
241	0xbdbf6d53	-0.09347024
242	0xbf06dd7b	-0.526817
243	0x3da4b077	0.080414705
244	0x3edd66bd	0.43242446
245	0x3e9779d5	0.29585138
246	0xbca3b6e5	-0.019984672
247	0x3f9831d4	1.1890206
248	0xbdd8bb1a	-0.10582562
249	0xbe6e46c5	-0.23269184
250	0x3f4db5b3	0.80355376
251	0x3f978b68	1.1839418
252	0x3f1235b5	0.571132
253	0xbf7aed8b	-0.9801871
254	0x3ec49d97	0.38401482
255	0x3e95ba3a	0.29243642

input.bias f4 [136]
0	0x3c47cb36	0.012194445
1	0xbc92c756	-0.017917316
2	0xbc8090e9	-0.015694099
3	0x3c4231d8	0.011852704
4	0xbd11670a	-0.035498656
5	0xbd9a44a5	-0.07532624
6	0x3d22c389	0.039737258
7	0xbd154ee1	-0.036452178
8	0x3daf29eb	0.08552917
9	0x3d977630	0.07395589
10	0x3c4f29d9	0.012644255
11	0x3cef9c40	0.02924931
12	0xbcaf6c02	-0.021413807
13	0xbd5d43aa	-0.054019608
14	0x3babc2f1	0.0052417447
15	0x3d7a88ae	0.061165504
16	0x3d86214e	0.06549321
17	0xbd772214	-0.060335234
18	0xbba16a9e	-0.00492604
19	0xbbe8c62e	-0.007103703
20	0xbc98067c	-0.01855778
21	0x3c2cee64	0.010554884
22	0x3d967068	0.073456585
23	0x3d96449d	0.07337306
24	0xbc8621ab	-0.016373476
25	0xbc43c6a8	-0.011949219
26	0xbd3613a2	-0.044452317
27	0x3d2809fe	0.041025154
28	0xbc664ffa	-0.014057154
29	0xbd724a18	-0.059152693
30	0x3d546b35	0.051860053
31	0xbce66b60	-0.028127372
32	0x3d19f8a9	0.037590656
33	0xbb8e7431	-0.004347347
34	0x3ca1af9e	0.019737061
35	0x3c9f638e	0.019456651
36	0xbcbc94ec	-0.02302023
37	0x3da56b15	0.08077065
38	0xbd72f753	-0.059317898
39	0x3cfa0929	0.030521946
40	0x3dcafa6d	0.09911046
41	0xbd3ef671	-0.046621744
42	0x3d352622	0.04422582
43	0x3d05aae7	0.03263369
44	0xbb4a826e	-0.0030900496
45	0x3d574861	0.05255926
46	0x39a14191	0.00030757164
47	0xbc262706	-0.01014114
48	0x3cf24231	0.029572578
49	0x3d888638	0.06666225
50	0x3d38817e	0.04504537
51	0xbd01abb9	-0.031657908
52	0x3d649de9	0.055814657
53	0x3d71c96d	0.059029985
54	0x3d8bb942	0.068224445
55	0x3d65b451	0.056080166
56	0xbd814211	-0.06311429
57	0x3d33664e	0.043798737
58	0xbd9e624b	-0.07733592
59	0x3b7750c9	0.003773736
60	0xbbb287e6	-0.0054483293
61	0xbd4ba55b	-0.049718242
62	0xbd814dca	-0.06313665
63	0x3d44669e	0.047949426
64	0xbd9e6510	-0.0773412
65	0x3cc0d553	0.02353922
66	0x3c8cfa33	0.017209148
67	0xbd7ac185	-0.06121971
68	0xbc832efb	-0.016013613
69	0xbc4776dd	-0.012174335
70	0xbcf302c5	-0.029664407
71	0x3d41951e	0.04726135
72	0xbcf10494	-0.029421128
73	0xbd58e23a	-0.05295012
74	0x3d344e96	0.044020258
75	0x3c0d1c42	0.008612694
76	0x3cd626de	0.02614158
77	0x3d28d929	0.041222725
78	0xbcc1c701	-0.023654463
79	0x3cad2992	0.021137986
80	0xbd7cbd0e	-0.061703734
81	0x3d1bf02a	0.038070835
82	0xbcb5a085	-0.022171268
83	0x3caac2d3	0.020844853
84	0xbd9580bb	-0.07299944
85	0xbbcd1bde	-0.0062594255
86	0x3c0084b3	0.007844138
87	0x3d632f6b	0.055465143
88	0xb968043d	-0.00022126823
89	0x3d7c3ef4	0.061583474
90	0xbc4312c8	-0.011906333
91	0x3cccd9f2	0.025006268
92	0xbd818a96	-0.06325261
93	0x3d658d57	0.056042995
94	0xbd367dcb	-0.04455356
95	0xbd2471a6	-0.040147446
96	0xbd670cd3	-0.056408715
97	0x3a639175	0.00086810376
98	0xbd0ea582	-0.03482581
99	0xbdc71896	-0.09721486
100	0xbcec5ec7	-0.028853787
101	0x3c90e2f9	0.017686354
102	0x3d30f1a0	0.04319918
103	0xbc2d1b78	-0.010565631
104	0xbd0fa697	-0.03507098
105	0xbc8d2cfe	-0.017233368
106	0x3d03b20a	0.032152213
107	0xbcbd134a	-0.023080487
108	0xbd1c0e36	-0.03809949
109	0x3d219a27	0.03945365
110	0x3cd61928	0.026135042
111	0x3d2aa7d3	0.041663956
112	0xbd4c640a	-0.049900092
113	0xbc67f1e4	-0.014156792
114	0x3d35d5e2	0.044393428
115	0x3bc1f44f	0.0059190164
116	0xbc8f688e	-0.01750591
117	0x3c874d9e	0.016516503
118	0xbc4ec6f9	-0.012620681
119	0x3bcf2d1f	0.0063225175
120	0xbdeb9a85	-0.11504082
121	0xbd5ee1a5	-0.05441441
122	0x3d3be4d9	0.045872543
123	0x3c125af1	0.008932815
124	0xbd1694b5	-0.03676291
125	0xbc65cfe2	-0.014026614
126	0xbddeb6cc	-0.108747095
127	0x3ce74ec3	0.028235799
128	0xbb18701c	-0.0023260182
129	0x3bd49378	0.006487306
130	0x3c4f364d	0.012647224
131	0xbd9dd0e5	-0.07705859
132	0xbba3c342	-0.004997642
133	0x3cacedd6	0.021109503
134	0x3d6126d9	0.05496869
135	0xbd1ec9b3	-0.038766574

bn1.weight f4 [136]
0	0x3f7b5d14	0.981889
1	0x3f998e55	1.1996561
2	0x3f962f2c	1.1733146
3	0x3f4ad35a	0.79228747
4	0x3f8f7bd4	1.1209664
5	0x3f509b60	0.81487083
6	0x3f95bf25	1.1698958
7	0x3f67dd83	0.90572375
8	0x3f613371	0.8796912
9	0x3f8e651c	1.1124606
10	0x3fa3a50b	1.2784742
11	0x3f940dc9	1.1566707
12	0x3f46c85a	0.7764946
13	0x3f8a54c0	1.0807114
14	0x3f847648	1.0348597
15	0x3f2e5613	0.6810009
16	0x3f6cc865	0.9249328
17	0x3f8d28ec	1.1028113
18	0x3f8f7b70	1.1209545
19	0x3f82358e	1.0172594
20	0x3f8f79fc	1.1209102
21	0x3f754e7c	0.9582288
22	0x3f42d93c	0.76112723
23	0x3f8b409b	1.0879091
24	0x3f6dfba8	0.9296212
25	0x3f7ef2ea	0.9958941
26	0x3f5a19d2	0.8519565
27	0x3f95790c	1.1677566
28	0x3f67aabc	0.90494895
29	0x3f68c068	0.9091859
30	0x3f8fe145	1.1240622
31	0x3f8a0c41	1.078499
32	0x3f90cd0c	1.1312575
33	0x3f893686	1.0719764
34	0x3f60ec6e	0.87860763
35	0x3f9194f6	1.1373584
36	0x3f99a6ad	1.200399
37	0x3f9aae83	1.2084507
38	0x3f846c44	1.034554
39	0x3f95162b	1.164739
40	0x3f6fec95	0.9372037
41	0x3f890e2d	1.0707451
42	0x3f5c5893	0.86072654
43	0x3f84bf7c	1.0370936
44	0x3f4d8ec4	0.8029597
45	0x3f4d4dc6	0.801968
46	0x3f8413a8	1.0318499
47	0x3f80c9c0	1.0061569
48	0x3f81b548	1.0133448
49	0x3f5959d5	0.849027
50	0x3f7542f3	0.9580528
51	0x3f892e27	1.071721
52	0x3f53c157	0.8271689
53	0x3fa6d6c5	1.3034292
54	0x3f8a82e0	1.082119
55	0x3f907b25	1.1287581
56	0x3f563cc9	0.836865
57	0x3f52064f	0.82040876
58	0x3fab69aa	1.3391621
59	0x3f7a0f74	0.9767983
60	0x3f7a8338	0.97856474
61	0x3f4e3f15	0.80565006
62	0x3fa2ac7c	1.2708888
63	0x3f9b56a4	1.2135816
64	0x3f90b4fa	1.130523
65	0x3f9984b2	1.199362
66	0x3f615a0d	0.8802803
67	0x3f8975e5	1.0739104
68	0x3f81f34b	1.0152372
69	0x3f59c5f7	0.85067695
70	0x3f94899f	1.1604499
71	0x3f90bfaa	1.1308491
72	0x3f6e62cb	0.93119496
73	0x3f48f5e1	0.7850018
74	0x3f835044	1.025887
75	0x3f843b6e	1.0330637
76	0x3f5b9cd8	0.857862
77	0x3f8ee143	1.1162494
78	0x3fa1a753	1.2629188
79	0x3f6b8eae	0.92014587
80	0x3f8a8339	1.0821296
81	0x3f546926	0.82972944
82	0x3f9a1d43	1.204018
83	0x3f60a756	0.87755334
84	0x3f3af230	0.730258
85	0x3f7dffdb	0.9921853
86	0x3f893dc7	1.0721978
87	0x3f560eaa	0.83616126
88	0x3f94bd0e	1.1620195
89	0x3f7836b3	0.96958464
90	0x3fac96b5	1.3483492
91	0x3f93d2d3	1.1548713
92	0x3f92dac5	1.1473013
93	0x3f5f7fd1	0.8730441
94	0x3f9905aa	1.1954854
95	0x3f3b1cb9	0.730907
96	0x3f8efcee	1.1170938
97	0x3f83b68a	1.0290082
98	0x3ff0fb40	1.8826675
99	0x3f52972d	0.82261926
100	0x3fa34985	1.2756811
101	0x3f8fd2b5	1.1236178
102	0x3f823a61	1.0174066
103	0x3f6bc28f	0.9209375
104	0x3f9fd5d7	1.2487134
105	0x3f980f5f	1.1879691
106	0x3f84ac53	1.0365089
107	0x3f9f0b2a	1.2425282
108	0x3f60747e	0.8767775
109	0x3f96e779	1.178939
110	0x3f720f7b	0.9455487
111	0x3f724820	0.94641304
112	0x3f8f7965	1.1208922
113	0x3f654a7c	0.8956678
114	0x3f8e605b	1.1123155
115	0x3f86df36	1.0536869
116	0x3f49f03c	0.78882194
117	0x3f966625	1.1749922
118	0x3f3cf14a	0.7380568
119	0x3f93258c	1.1495833
120	0x3f680858	0.9063773
121	0x3f60f245	0.87869674
122	0x3f7d312a	0.98903143
123	0x3f94516b	1.1587347
124	0x3f7447a7	0.9542183
125	0x3f75a263	0.9595091
126	0x3f8c1282	1.0943148
127	0x3f600c3b	0.8751866
128	0x3f58aaa9	0.84635407
129	0x3f76fefd	0.9648283
130	0x3f8f32fe	1.1187437
131	0x3f808259	1.0039779
132	0x3f787ba0	0.97063637
133	0x3f95cf0c	1.1703811
134	0x3f95c938	1.1702032
135	0x3f7af8ca	0.9803587

bn1.bias f4 [136]
0	0xbf6b1166	-0.9182342
1	0xbf90038c	-1.1251082
2	0xbf8ed94b	-1.1160063
3	0xbf233570	-0.63753414
4	0xbf9cb116	-1.2241542
5	0xbf12b89b	-0.57312936
6	0xbf8ca228	-1.0986986
7	0xbf3dfb1a	-0.74211276
8	0xbf0883d9	-0.53326184
9	0xbfb5bb30	-1.419775
10	0xbf90e1ae	-1.1318872
11	0xbf9255d9	-1.1432449
12	0xbf37964b	-0.71713704
13	0xbf869215	-1.0513331
14	0xbf380a30	-0.71890545
15	0xbf1ce826	-0.6129173
16	0xbf6303c5	-0.88677627
17	0xbf1199c8	-0.56875277
18	0xbf9af6c2	-1.2106555
19	0xbfa5a311	-1.2940389
20	0xbf97c2f9	-1.1856376
21	0xbf923f25	-1.142552
22	0xbf3b747d	-0.7322462
23	0xbf5dacf3	-0.86592025
24	0xbf51a6ce	-0.8189515
25	0xbf74fb39	-0.95695835
26	0xbf56140f	-0.83624357
27	0xbf9a98d1	-1.2077886
28	0xbf484c2a	-0.7824122
29	0xbf376b1c	-0.7164781
30	0xbf96fb45	-1.1795431
31	0xbf8c1282	-1.0943148
32	0xbfa22b63	-1.266949
33	0xbf918beb	-1.1370825
34	0xbf6300db	-0.8867318
35	0xbf9abbbd	-1.2088543
36	0xbf9f7ae8	-1.2459383
37	0xbf9a2e32	-1.2045348
38	0xbf77332b	-0.9656245
39	0xbf964292	-1.1739066
40	0xbf46b650	-0.77621937
41	0xbf01b25a	-0.5066277
42	0xbf63efe0	-0.89037895
43	0xbf66adb3	-0.90108794
44	0xbf34bff6	-0.7060541
45	0xbf66c73c	-0.9014776
46	0xbf88c89f	-1.0686225
47	0xbf8ce188	-1.1006327
48	0xbf3a9b98	-0.7289367
49	0xbf599a94	-0.8500149
50	0xbf82e190	-1.0225086
51	0xbfa1940a	-1.2623303
52	0xbf3c885a	-0.73645556
53	0xbfa28f54	-1.269999
54	0xbf8ab0d7	-1.0835217
55	0xbf9b271b	-1.2121309
56	0xbf44b5ff	-0.76840204
57	0xbf452e55	-0.7702382
58	0xbe894fde	-0.26818746
59	0xbf3dc725	-0.74131995
60	0xbf529d2a	-0.82271063
61	0xbf49fdb2	-0.78902733
62	0xbfa7a7d4	-1.3098092
63	0xbfa6fe8a	-1.3046429
64	0xbf8fe6cb	-1.1242307
65	0xbf9fabab	-1.2474264
66	0xbf30fe37	-0.691379
67	0xbf96aa97	-1.177081
68	0xbf414a28	-0.7550378
69	0xbf30dedf	-0.69090074
70	0xbf940f80	-1.156723
71	0xbf864d44	-1.049233
72	0xbf2b40fd	-0.6689604
73	0xbf3dfa0f	-0.74209684
74	0xbed7f4f5	-0.42179075
75	0xbf8847f7	-1.0646962
76	0xbf70d0e7	-0.9406876
77	0xbfb8b80b	-1.4431165
78	0xbfa0a304	-1.2549748
79	0xbf6c5cb4	-0.92328954
80	0xbf8ee243	-1.11628
81	0xbf452ba7	-0.77019733
82	0xbfaa2c7e	-1.3294828
83	0xbf5997eb	-0.84997433
84	0xbf322816	-0.69592416
85	0xbf3b11d5	-0.73074085
86	0xbf921ab9	-1.1414405
87	0xbf7dfd7b	-0.99214906
88	0xbfadc03e	-1.3574293
89	0xbf7ec62d	-0.9952114
90	0xbfa70f34	-1.3051515
91	0xbf80a27c	-1.0049586
92	0xbf451656	-0.76987207
93	0xbf6be271	-0.921424
94	0xbf9ca6bd	-1.2238384
95	0xbf278244	-0.65433145
96	0xbfa5f467	-1.2965211
97	0xbf93166f	-1.1491221
98	0xc00692d3	-2.1027114
99	0xbf2b1154	-0.66823316
100	0xbfa44397	-1.2833127
101	0xbfa0b7a1	-1.2556039
102	0xbf72d438	-0.9485507
103	0xbf67d29f	-0.9055576
104	0xbfbd383e	-1.4782789
105	0xbf9cf73f	-1.2262954
106	0xbfa356d3	-1.2760872
107	0xbf789c1c	-0.97113204
108	0xbf201a2e	-0.6253995
109	0xbf96c544	-1.1778951
110	0xbf612fdb	-0.87963647
111	0xbf80c169	-1.0059024
112	0xbfc50bd2	-1.5394232
113	0xbf7cc48d	-0.9873741
114	0xbf775e5d	-0.9662836
115	0xbf95a580	-1.1691132
116	0xbf2b35c8	-0.6687894
117	0xbf8fe453	-1.1241554
118	0xbf3f22b2	-0.74662316
119	0xbf8c0c33	-1.0941223
120	0xbf871842	-1.0554278
121	0xbf267067	-0.6501526
122	0xbf5c54bc	-0.86066794
123	0xbf9a8645	-1.2072226
124	0xbf3585cc	-0.7090728
125	0xbea48c71	-0.32138398
126	0xbf826603	-1.0187382
127	0xbf36914e	-0.7131547
128	0xbf47982b	-0.77966565
129	0xbf961a07	-1.1726693
130	0xbf9712c3	-1.1802601
131	0xbf2ddd33	-0.6791565
132	0xbf433fd8	-0.7626929
133	0xbf9e0360	-1.234478
134	0xbfb6aab1	-1.4270841
135	0xbe8e914a	-0.27845222

bn1.running_mean f4 [136]
0	0x40dad72f	6.8387675
1	0xc20c96af	-35.147152
2	0x3f577820	0.8416767
3	0x4142a5fa	12.165522
4	0xc1a7e2ba	-20.985706
5	0xc0e62188	-7.191593
6	0xc2106c26	-36.105614
7	0x419a9404	19.322273
8	0xc0b4b5be	-5.6471853
9	0xc220ca97	-40.19784
10	0xc1dd43d2	-27.658115
11	0xc20f769b	-35.865826
12	0x4153900e	13.22267
13	0xc1a3f8f4	-20.49656
14	0xc006fb6a	-2.109095
15	0xc034d99f	-2.8257825
16	0x416798d2	14.47481
17	0x419377e9	18.43355
18	0xc1c4cdd0	-24.600494
19	0x41632eed	14.1989565
20	0xc01899b0	-2.3843803
21	0xc216b9e0	-37.68152
22	0x41352c22	11.323275
23	0xbfdb156f	-1.7115916
24	0x3f11246d	0.56696206
25	0x41360699	11.376611
26	0x41340ce8	11.253151
27	0xc18b56be	-17.417355
28	0xc0991f5a	-4.785077
29	0xc047aa5f	-3.1197736
30	0xc20b1688	-34.772003
31	0xc21acee3	-38.702038
32	0xc1de5aa4	-27.794258
33	0xc14d36e7	-12.825904
34	0x400ba1dd	2.1817544
35	0xc1b8d933	-23.106054
36	0xc1c4ff2d	-24.624598
37	0xc24c5003	-51.078136
38	0x4087197a	4.22186
39	0xc1d585be	-26.690304
40	0xc1962da4	-18.772285
41	0xc0973839	-4.725613
42	0x41507842	13.02936
43	0xc0f55015	-7.6660256
44	0x4082681b	4.075208
45	0x4147d99c	12.490627
46	0xc1d4b123	-26.586493
47	0xc1bdfc94	-23.74833
48	0x411c2264	9.758396
49	0x41a62324	20.767159
50	0xc1da5d57	-27.295576
51	0xc2237ba3	-40.87074
52	0x41182468	9.508888
53	0xc192952f	-18.322844
54	0xc207da0f	-33.962948
55	0xc2181964	-38.024796
56	0x40c39fa7	6.113239
57	0x40e09be9	7.019032
58	0x407ff3b9	3.9992507
59	0xc0c358bf	-6.1045833
60	0x4158bffe	13.546873
61	0x40c9b981	6.3038945
62	0xc2030ce6	-32.762596
63	0xc191915a	-18.195972
64	0xc1da341e	-27.275448
65	0xc1415ac9	-12.084664
66	0x40ea4bd4	7.3217564
67	0xc0efc708	-7.493046
68	0x40c6cae3	6.2122664
69	0xbf26666a	-0.6500002
70	0xc1244a12	-10.268084
71	0xc0967cb6	-4.7027235
72	0x409a1b5f	4.815841
73	0x40e5ad66	7.177417
74	0xc1122bbf	-9.13568
75	0x415c8906	13.783453
76	0x415abc59	13.670983
77	0xc1b9cf46	-23.226208
78	0xc1403df9	-12.01513
79	0x40a8a71f	5.2704005
80	0xc1609f08	-14.038826
81	0x404ad5aa	3.169291
82	0xc1c1eb72	-24.239964
83	0x408bf710	4.373909
84	0x41517aed	13.092511
85	0xc025738b	-2.5851772
86	0xc24c47fa	-51.07029
87	0x40c4620b	6.136968
88	0xc1c8de8d	-25.108667
89	0x41bb8cc1	23.443727
90	0x41ca6e36	25.303814
91	0xc1f1da03	-30.231451
92	0x409b7c40	4.858917
93	0x41337d78	11.218132
94	0xc1ba75ce	-23.307522
95	0x40b352aa	5.603841
96	0xc220df8d	-40.21831
97	0xc0e0465c	-7.008589
98	0xc15e8633	-13.9077635
99	0x41b7be36	22.967876
100	0xc2011851	-32.273746
101	0xc1b27895	-22.308878
102	0xc0ce4e14	-6.447031
103	0x405c26bc	3.4398642
104	0xc201456c	-32.317795
105	0xc08478fe	-4.1397696
106	0xc153cc4c	-13.237377
107	0xc1f09883	-30.074469
108	0x41385b7d	11.522336
109	0xc1cc10b9	-25.508165
110	0x4184189d	16.512018
111	0x413ce5db	11.806117
112	0xc24ce603	-51.22462
113	0x413c81d4	11.781696
114	0x3e2fbc79	0.1716174
115	0xc19c4628	-19.534256
116	0x4143a41e	12.227568
117	0xc2033f31	-32.81171
118	0x418756e8	16.917435
119	0xc1fcc3af	-31.595549
120	0xbf9e9580	-1.2389374
121	0xc0b4571f	-5.635635
122	0x40fdd8be	7.932708
123	0xc2053819	-33.304783
124	0x41893c2f	17.154387
125	0x3ffe6277	1.9873799
126	0xc1d1db88	-26.232193
127	0x41085b21	8.522248
128	0x4110b23f	9.043517
129	0xc0a82222	-5.2541666
130	0xc1fdab16	-31.708538
131	0x3fb03c90	1.3768482
132	0xbf992ea4	-1.1967359
133	0xc1ea2153	-29.266272
134	0xc17cca1c	-15.799343
135	0x404f1d28	3.2361546

bn1.running_var f4 [136]
0	0x4138dc3e	11.55377
1	0x42256b94	41.355057
2	0x414a7e6e	12.655867
3	0x414f15df	12.94284
4	0x419a6698	19.300095
5	0x41352cc7	11.323432
6	0x4208f420	34.238403
7	0x413bc1c1	11.734803
8	0x413e1f15	11.882588
9	0x4200a47f	32.16064
10	0x41ac41ae	21.53207
11	0x41fff15c	31.992851
12	0x4142aa18	12.166527
13	0x41dca253	27.57926
14	0x4131847d	11.094846
15	0x415323e1	13.1962595
16	0x412c9207	10.785651
17	0x4158b1a6	13.543371
18	0x41d7d141	26.977175
19	0x410519d7	8.318809
20	0x41220652	10.126543
21	0x41d02d82	26.02222
22	0x41287ca2	10.530428
23	0x414b6fa1	12.714753
24	0x4119b969	9.607766
25	0x40f837db	7.7568183
26	0x413f8c74	11.97179
27	0x41c24df8	24.28807
28	0x4152200d	13.132825
29	0x41553df7	13.327628
30	0x41c40486	24.502209
31	0x41f42677	30.518782
32	0x41d75537	26.916609
33	0x419e4a93	19.786413
34	0x41305a90	11.02211
35	0x4201cafb	32.448223
36	0x41abb419	21.462938
37	0x41ed36a1	29.651674
38	0x4129e23b	10.617732
39	0x41ee6b12	29.80228
40	0x419c7dde	19.561459
41	0x414e63ba	12.899347
42	0x41755fc6	15.335882
43	0x415ab135	13.668263
44	0x4122cbbc	10.17474
45	0x4159e7df	13.619109
46	0x41dbfc06	27.498058
47	0x419266d0	18.300201
48	0x4164e863	14.306735
49	0x41390b38	11.565239
50	0x41cf9fe5	25.953074
51	0x41f764a9	30.92415
52	0x413ee18e	11.930067
53	0x4182126c	16.258995
54	0x420436fc	33.053696
55	0x41bd0091	23.625277
56	0x41331db8	11.194756
57	0x41316d64	11.089207
58	0x4182aaa1	16.333315
59	0x414d426a	12.828714
60	0x41460251	12.375566
61	0x415f0261	13.938081
62	0x41bcb482	23.588139
63	0x41c6d834	24.855568
64	0x41bea9a5	23.832834
65	0x41e40d37	28.506453
66	0x411ccb06	9.799566
67	0x4176a53c	15.41534
68	0x410916c3	8.568057
69	0x41334806	11.205084
70	0x41a3483d	20.410273
71	0x41309e65	11.038671
72	0x41457fc0	12.343689
73	0x4162adf3	14.167468
74	0x414c999f	12.787505
75	0x419682a1	18.813784
76	0x416b64a7	14.712073
77	0x41c6e3c3	24.861212
78	0x4157c5f3	13.485827
79	0x413056d7	11.021201
80	0x41edcc44	29.72474
81	0x413a03f6	11.625967
82	0x41d82c8a	27.021748
83	0x4140fe56	12.062094
84	0x414bd03e	12.73834
85	0x416a117c	14.629269
86	0x4217667f	37.850094
87	0x4117c6dc	9.48605
88	0x41ebb79c	29.464653
89	0x411ca3ad	9.78996
90	0x411adea7	9.6793585
91	0x41f5460a	30.659199
92	0x414ebe9c	12.9215355
93	0x411ad428	9.676796
94	0x41e28547	28.315077
95	0x41246d3e	10.27667
96	0x41df2757	27.894209
97	0x41524002	13.140627
98	0x4121810b	10.094005
99	0x418c88a6	17.566723
100	0x41b586b8	22.69078
101	0x41b38250	22.43863
102	0x41814175	16.156961
103	0x415cad68	13.7923355
104	0x41af76f9	21.933092
105	0x41955a33	18.669043
106	0x41ab0576	21.377666
107	0x420380e9	32.87589
108	0x41334ea9	11.206704
109	0x41f1f0a8	30.242508
110	0x4115fe84	9.374638
111	0x41457a7b	12.342402
112	0x421176ed	36.36614
113	0x415a2db2	13.636156
114	0x411b2ca2	9.698397
115	0x41b1cd2f	22.225187
116	0x415bfa99	13.748681
117	0x41d7755c	26.932304
118	0x412bc2c9	10.735055
119	0x41d7c279	26.969957
120	0x412dfa0c	10.873547
121	0x412b4a32	10.705614
122	0x413ce2e5	11.805394
123	0x41beb0e6	23.836376
124	0x4176b61f	15.419463
125	0x41425365	12.14536
126	0x4199008f	19.125273
127	0x412e6d96	10.901754
128	0x41377fc8	11.468697
129	0x416cdb53	14.803546
130	0x41d473db	26.55657
131	0x412d40d7	10.82833
132	0x412f8745	10.970525
133	0x41fa31d5	31.274332
134	0x41d48d43	26.568975
135	0x414b77c4	12.71674

fc1.weight f4 [68, 136]
0	0xbfe5e41b	-1.7960237
1	0x3f0ee298	0.55814505
2	0xbf263814	-0.6492932
3	0xbf4f4659	-0.80966717
4	0xbda58a5f	-0.08083033
5	0xbeffc847	-0.49957487
6	0xbe05ffd5	-0.13085873
7	0xbfbc8d82	-1.4730685
8	0xbf594abd	-0.84879667
9	0xbf3c7fe8	-0.7363267
10	0x3ddc28d6	0.10749976
11	0x3dc1cd9e	0.094630465
12	0xbf57e5e6	-0.8433517
13	0xbe5a94c8	-0.21345818
14	0xbf226749	-0.6343885
15	0xbf8227f7	-1.0168446
16	0xbf52e393	-0.823785
17	0xbfedc01b	-1.8574251
18	0x3fae5793	1.3620476
19	0xbfc52e8d	-1.5404831
20	0xc005abde	-2.088615
21	0x3eedb069	0.46423653
22	0xbfb71207	-1.4302377
23	0xbf9f3061	-1.2436639
24	0xbf33690e	-0.70082176
25	0xbfaafe63	-1.3358883
26	0xbec3ef42	-0.38268477
27	0x3eb8757c	0.36027133
28	0xbff84c97	-1.9398373
29	0xc013dc3d	-2.3103173
30	0xbe0768f6	-0.13223633
31	0x3ec113b6	0.3771035
32	0x3ed04b32	0.4068237
33	0x3f863d9a	1.0487549
34	0xbf0131e9	-0.5046678
35	0x3f3e66c7	0.74375576
36	0x3f3600e0	0.71095085
37	0x3fc2c663	1.5216793
38	0xbe949a42	-0.2902394
39	0xbe2600b6	-0.16211209
40	0xbfa6d10a	-1.3032544
41	0xbfb74c2a	-1.4320118
42	0xbfae1795	-1.3600947
43	0xbe517c74	-0.20457631
44	0xbf89befb	-1.0761408
45	0xbfeb1a3d	-1.8367382
46	0x3d8d1d05	0.06890301
47	0x3f439dc4	0.76412606
48	0xbff64bfa	-1.9241936
49	0xbfbd1f8f	-1.4775256
50	0x3ee541c2	0.44776732
51	0x3f779b4b	0.96721333
52	0xbf6e6617	-0.93124527
53	0x3d0ca69c	0.03433858
54	0x3f7add28	0.9799371
55	0x3f1be90d	0.6090248
56	0xbf93c1a7	-1.1543473
57	0xc0143277	-2.3155801
58	0xc0305495	-2.7551625
59	0xbf748303	-0.9551241
60	0xbf984688	-1.1896524
61	0xbf87b9ed	-1.0603615
62	0x3f2d35b1	0.6766005
63	0xbe31f197	-0.17377315
64	0x3eb319b6	0.34980553
65	0x3ef51330	0.478662
66	0xbee208ae	-0.44147247
67	0x3fc5851a	1.5431244
68	0x3e7e132a	0.24811998
69	0xbfecb144	-1.8491597
70	0x3f527b78	0.8221965
71	0xbff5f01e	-1.9213903
72	0xbffc2298	-1.9698057
73	0xbf147283	-0.5798723
74	0xbfc273ee	-1.5191629
75	0xc0103edf	-2.2538373
76	0xbfeb7fd2	-1.8398383
77	0x3f9ebc1d	1.2401158
78	0x3f00c60f	0.50302213
79	0xbff0c25a	-1.8809311
80	0x3f92a023	1.145512
81	0xbf416a09	-0.7555242
82	0x3f42e511	0.7613078
83	0xbfc177fc	-1.5114741
84	0xbf9f658a	-1.2452862
85	0xc0415424	-3.0207605
86	0xbeb3c481	-0.35110858
87	0xbf243ccb	-0.6415526
88	0x3e898dc4	0.2686597
89	0xbf90f515	-1.1324793
90	0x3efbb073	0.49158058
91	0x3f1fa952	0.6236774
92	0xbfdcd347	-1.7251977
93	0xbf4d44f7	-0.80183357
94	0x3e605e70	0.21911025
95	0xbfb5d55a	-1.4205735
96	0xbe269098	-0.16266096
97	0x3f0c9937	0.5492129
98	0xbec517a0	-0.38494587
99	0x3cbe2c2b	0.02321442
100	0x3e891c1b	0.26779255
101	0xbe46c101	-0.19409563
102	0x3fa2799a	1.269336
103	0xbf6037bb	-0.8758504
104	0xbf9b243b	-1.2120432
105	0xbe3c62fd	-0.18397136
106	0x3f5ff108	0.8747716
107	0x3f148d44	0.58028054
108	0xbefb5776	-0.49090165
109	0x3f2edd5d	0.68306524
110	0xbf6a4181	-0.915062
111	0xbf9afa1a	-1.2107575
112	0xbe884b22	-0.26619822
113	0xbfd2aecb	-1.6459593
114	0xbfd96730	-1.6984615
115	0x3e856363	0.2605239
116	0xbebce0c6	-0.3689024
117	0x3e2fa292	0.1715186
118	0xbf8ab843	-1.0837482
119	0xbd91a638	-0.07111782
120	0xc00186ab	-2.0238445
121	0xbf56aa61	-0.8385373
122	0xbfc93a2f	-1.5720881
123	0x3e892886	0.2678873
124	0xbfc2337a	-1.5171959
125	0xc0010254	-2.015767
126	0x3f4d6ed6	0.8024725
127	0xbf17a6df	-0.59239
128	0xbf13ccad	-0.57734185
129	0x3f11b02b	0.56909436
130	0x3e94fc55	0.29098764
131	0xbf66567d	-0.8997572
132	0xbed80ca8	-0.42197156
133	0x3df9b33e	0.12192391
134	0x3f0dcda6	0.5539192
135	0xbfa68559	-1.3009444
136	0xbf7a3339	-0.9773441
137	0xbe7a4f24	-0.24444252
138	0xbf209bc9	-0.6273771
139	0xbf925709	-1.1432811
140	0x3b9680c5	0.0045929872
141	0xbfdceb76	-1.7259357
142	0xbef2569b	-0.473317
143	0xbfafa3ae	-1.3721826
144	0xbfb7c8c3	-1.4358143
145	0xbf52d91f	-0.8236255
146	0x3ec37265	0.38173214
147	0x3ed322c6	0.41237468
148	0xbf9adfe8	-1.2099581
149	0xbd97a93e	-0.07405327
150	0xbf872248	-1.0557337
151	0xbfd2a1d2	-1.6455634
152	0xbf45ae4d	-0.77219087
153	0xbfe7fee2	-1.8124659
154	0x3ecd64b1	0.40115884
155	0xbf8c692b	-1.0969595
156	0xbf8c576c	-1.0964179
157	0x3f21b8de	0.6317271
158	0xbe0cc75d	-0.13747926
159	0xc01561c9	-2.3340933
160	0xbfcd3c14	-1.6033959
161	0xbf0bbb94	-0.54583097
162	0xbf5c67e5	-0.8609603
163	0xbdb9c68c	-0.09071073
164	0xbfedeedc	-1.8588519
165	0xc009b7a0	-2.1518326
166	0x3e986e18	0.29771495
167	0x3e98e273	0.29860267
168	0xbdf02e32	-0.11727561
169	0x3c3aa621	0.011392147
170	0xbf82b95c	-1.0212817
171	0x3e6cc281	0.23121072
172	0x3dd3b46c	0.10337147
173	0xbdd60743	-0.10450604
174	0xbf96cb6a	-1.1780827
175	0x3e1628e3	0.14664035
176	0xbfcda27e	-1.6065214
177	0xbff146da	-1.8849747
178	0xbfda9549	-1.7076808
179	0xbfa78466	-1.308728
180	0xbfc309ea	-1.52374
181	0xbef6f951	-0.48237088
182	0x3ea53d3d	0.32273284
183	0x3f177760	0.59166527
184	0xbfe0cca5	-1.7562453
185	0xbf98ba4d	-1.1931854
186	0xbe69a274	-0.22815877
187	0x3e1932d7	0.149608
188	0xbf9a322f	-1.2046565
189	0xbdf14e09	-0.11782462
190	0x3e125e49	0.1429378
191	0x3ee00397	0.4375274
192	0xbfa39a2b	-1.2781423
193	0xbf90fe3a	-1.1327584
194	0xc012d95a	-2.294516
195	0xbfb156d0	-1.3854618
196	0xbfaec407	-1.3653573
197	0xbfa4cdd7	-1.2875317
198	0x3f0945d9	0.53622204
199	0xbd5a7264	-0.053331748
200	0x3ea9ce8b	0.33165392
201	0xbe1d738c	-0.15376109
202	0xbf7d2035	-0.9887727
203	0x3f5540f0	0.8330221
204	0xbf71a5f0	-0.94393826
205	0xbfc5e3ca	-1.5460141
206	0x3ea4f3be	0.3221721
207	0xbff16f2a	-1.886205
208	0xbfd8ac23	-1.6927532
209	0xbf2b1cf1	-0.66841036
210	0xbfcc44c1	-1.5958482
211	0xc0232cae	-2.549602
212	0xbfe4c89c	-1.7873721
213	0x3fa27c52	1.269419
214	0x3ec8fc7f	0.3925514
215	0xbf9f0652	-1.2423804
216	0x3ebeb526	0.3724758
217	0xbfe7953e	-1.809242
218	0x3e268a89	0.16263784
219	0xbf01431d	-0.5049303
220	0xbfdf6d52	-1.7455237
221	0xbfd37001	-1.6518556
222	0x3e3bc124	0.18335396
223	0xbf935e85	-1.151322
224	0xbec47380	-0.3836937
225	0xbf672445	-0.9028972
226	0xbcef5367	-0.029214574
227	0x3bd5ef84	0.0065287966
228	0xc0239417	-2.5559137
229	0xbf6e528d	-0.9309471
230	0x3e102c46	0.14079389
231	0xbfa285a5	-1.2697035
232	0xbee4618c	-0.44605672
233	0x3eb466c3	0.3523465
234	0x3e519d0f	0.2047007
235	0xbf21af90	-0.6315851
236	0x3f0898f4	0.5335839
237	0x3ee00793	0.4375578
238	0xbe241b52	-0.16026047
239	0xbf65e692	-0.8980495
240	0xbf6b5fe8	-0.91943216
241	0x3ea8e88c	0.3298992
242	0x3f549352	0.8303729
243	0xbe6fc55e	-0.23415133
244	0xbf791045	-0.9729045
245	0x3ec3ad40	0.38218117
246	0xbe8bc41e	-0.27298063
247	0xbfbfc0af	-1.4980677
248	0xbf774436	-0.96588457
249	0xbf788f0a	-0.9709326
250	0xbf9c4d15	-1.2211024
251	0xbeac3a38	-0.33638167
252	0xbf00d3fd	-0.5032347
253	0x3db5350a	0.08848007
254	0xbf814204	-1.0098271
255	0x3e6dc4ba	0.23219576

fc1.bias f4 [68]
0	0x3cd79aee	0.026318993
1	0x3c985de4	0.018599458
2	0x3d2be6d9	0.0419682
3	0x3dad739a	0.08469315
4	0x3cb176dc	0.021663122
5	0xbd4a3610	-0.049367964
6	0x3d829b77	0.06377309
7	0x3cfeeb53	0.03111807
8	0x3c250f95	0.010074516
9	0x3c2d6940	0.010584176
10	0xbb9101c6	-0.0044252602
11	0x3d276f5d	0.04087769
12	0xbd7189d9	-0.058969352
13	0x3b6d21d5	0.0036183496
14	0x3b9bc07b	0.00475317
15	0x3c8b8f5a	0.017036129
16	0xbd75f3b3	-0.060046863
17	0xbc9fa480	-0.01948762
18	0x3d8f73b9	0.07004494
19	0xbb0605e1	-0.0020450281
20	0x3c8654c6	0.016397845
21	0x3d59a7bc	0.05313848
22	0x3d60422d	0.05475061
23	0x3d3383ea	0.043826975
24	0x3da1257c	0.07868478
25	0x3d9b8e8e	0.075955495
26	0xbd18fd62	-0.03735102
27	0x3d639cc2	0.055569418
28	0x3d14d341	0.03633428
29	0x3d7737c2	0.06035591
30	0xbcef54dc	-0.029215269
31	0xbd8480df	-0.06469893
32	0x3d73c8e5	0.05951776
33	0x3ce0198c	0.027355932
34	0xbbfafdf2	-0.007659667
35	0xbd555873	-0.052086305
36	0x3d845fe0	0.06463599
37	0xbc06e05b	-0.008232201
38	0xbd2c2ada	-0.042033054
39	0xbc85a237	-0.016312702
40	0xbd2cda86	-0.042200588
41	0xbd065f7c	-0.032805905
42	0xbd8f6ec4	-0.07003549
43	0xbcacab66	-0.021077823
44	0xbd24eca6	-0.040264748
45	0x3d84d2e4	0.06485537
46	0x3cd0e529	0.025499897
47	0x3d12bd96	0.035825334
48	0xbd838765	-0.06422309
49	0x3dabcd6a	0.08388789
50	0x3bd1df99	0.0064048287
51	0xbd8b4760	-0.06800723
52	0xbc2ea4b2	-0.010659384
53	0xbd8db213	-0.069187306
54	0x3d2ed33b	0.042681914
55	0x3d07dfcb	0.03317241
56	0x3d95b8bd	0.07310627
57	0xbd5b88f7	-0.053597417
58	0xbd627415	-0.055286486
59	0xbc282b9b	-0.010264303
60	0x3d996d13	0.074915074
61	0x3cf4c4f8	0.029879078
62	0x3d036623	0.032079827
63	0x3ca17ae0	0.019711912
64	0xbc54d00e	-0.012989057
65	0xbdae8eba	-0.08523317
66	0xbd204d11	-0.039135996
67	0x3d477170	0.048692167

bn2.weight f4 [68]
0	0x3f96e850	1.1789646
1	0x3f8fb02e	1.1225641
2	0x3f9e568d	1.2370163
3	0x3fab0bd8	1.336299
4	0x3fa6f40a	1.3043225
5	0x3fab9f1a	1.3407929
6	0x3f235023	0.63794154
7	0x3fb2b067	1.3960084
8	0x3fa83144	1.3140035
9	0x3f8ac5ab	1.0841573
10	0x3f88c5d6	1.0685375
11	0x3fa80759	1.3127242
12	0x3fb2c723	1.3967022
13	0x3fb32362	1.3995173
14	0x3f489b5c	0.7836206
15	0x3fabb782	1.3415377
16	0x3fa697a9	1.3015033
17	0x3f8af8ba	1.0857155
18	0x3f93f5a7	1.1559342
19	0x3f93834c	1.1524444
20	0x3f448139	0.7675968
21	0x3f5462d6	0.8296331
22	0x3fb2057e	1.3907926
23	0x3f986ff8	1.190917
24	0x3f9ba7dd	1.2160603
25	0x3f9952d7	1.1978406
26	0x3fa6122f	1.2974299
27	0x3f98f828	1.1950731
28	0x3f84ca10	1.0374165
29	0x3f88582b	1.0651907
30	0x3f934668	1.1505861
31	0x3f9fd89a	1.2487977
32	0x3f6347e9	0.887816
33	0x3f97de7f	1.1864775
34	0x3f407216	0.7517408
35	0x3f8dd037	1.1079167
36	0x3f9a618c	1.2061019
37	0x3f5f4051	0.87207514
38	0x3f7594a8	0.95929956
39	0x3fa340fb	1.2754205
40	0x3f9157fd	1.1354977
41	0x3fb08a15	1.3792139
42	0x3f8f1149	1.117715
43	0x3f973163	1.1811947
44	0x3f9c4577	1.2208699
45	0x3f3e86c1	0.7442437
46	0x3f87c5d9	1.0607253
47	0x3fad1bf6	1.3524158
48	0x3fa31889	1.2741863
49	0x3fa9bc0c	1.3260512
50	0x3fc36a33	1.5266784
51	0x3fbecfde	1.4907186
52	0x3f76c5ee	0.96395767
53	0x3f8841cf	1.0645083
54	0x3fac17a0	1.344471
55	0x3f979790	1.1843128
56	0x3f736624	0.9507773
57	0x3f76bc9b	0.9638154
58	0x3fad1daa	1.3524678
59	0x3fa6be0f	1.3026751
60	0x3f84a7a8	1.0363665
61	0x3fa00c16	1.2503688
62	0x3f6c753d	0.9236639
63	0x3fc6ef8d	1.5541855
64	0x3fac7d4d	1.3475739
65	0x3f95c666	1.1701171
66	0x3fbb5abb	1.4637064
67	0x3faee8a7	1.366475

bn2.bias f4 [68]
0	0xbe716d72	-0.23576906
1	0xbf8a2890	-1.0793629
2	0xbe85a02b	-0.2609876
3	0xbe4d4c16	-0.20048556
4	0xbf1e90a0	-0.6193943
5	0xbefd0af9	-0.49422434
6	0x3e983d4e	0.29734272
7	0xbf27e174	-0.6557839
8	0xbf147ec0	-0.58005905
9	0xbe06a8c8	-0.13150322
10	0xbdb98926	-0.09059362
11	0xbf014ddf	-0.50509447
12	0xbedf1b8c	-0.43575704
13	0xbe8f61b8	-0.2800424
14	0x3efc5a2d	0.4928755
15	0xbf8029ba	-1.0012734
16	0xbee4d79e	-0.44695753
17	0xbdadc8c0	-0.08485556
18	0xbf831733	-1.0241455
19	0xbe9a0ee0	-0.30089474
20	0x3eba1cb8	0.36350036
21	0x3edcf930	0.43158865
22	0xbf02d8dc	-0.5111215
23	0xbf4d3789	-0.80162865
24	0xbebfc664	-0.37456048
25	0xbf5e48d2	-0.86829865
26	0xbe40b55b	-0.18819182
27	0xbf68274e	-0.90684974
28	0xbeaa3ff3	-0.33251914
29	0x3d467e85	0.048460502
30	0xbf040c2e	-0.51581085
31	0xbeba4f80	-0.3638878
32	0x3e63f98a	0.2226316
33	0xbf1b5ed8	-0.60691595
34	0x3ec9e9d3	0.39436206
35	0xbe8edf36	-0.2790467
36	0xbd99fa66	-0.07518463
37	0x3dec7d1c	0.115473
38	0xbe326ffc	-0.17425531
39	0xbda2e31a	-0.079534724
40	0xbe0a0894	-0.13479835
41	0xbed6d613	-0.419602
42	0xbf77feae	-0.96872985
43	0xbe633513	-0.22188215
44	0xbf76b001	-0.9636231
45	0x3f01c37c	0.5068891
46	0xbe9042ac	-0.28175867
47	0xbe358c8b	-0.17729394
48	0xbe34e216	-0.1766437
49	0xbee98c8d	-0.45615044
50	0xc00056d2	-2.005299
51	0xbfff60d6	-1.9951427
52	0xbbe00c4c	-0.0068374034
53	0xbd88d83c	-0.066818684
54	0xbe80a77f	-0.2512779
55	0xbf2b6bc3	-0.66961306
56	0xbe95175c	-0.29119384
57	0x3db5044b	0.088387094
58	0xbf9c201b	-1.2197298
59	0xbf3c8ecb	-0.73655385
60	0xbed1de72	-0.40990025
61	0xbe43047b	-0.19044678
62	0xbe7252c9	-0.23664393
63	0xbfdb6b01	-1.714203
64	0xbf892545	-1.0714499
65	0xbf482ba9	-0.7819162
66	0xbf0e21f3	-0.5552055
67	0xbfd6a3d1	-1.6768743

bn2.running_mean f4 [68]
0	0xc10ac00f	-8.671889
1	0xc128e66c	-10.556255
2	0xc072b15d	-3.7920754
3	0xc106851c	-8.407497
4	0xc032f7e8	-2.796381
5	0xc08b04ac	-4.3443203
6	0x4036c82d	2.8559678
7	0xc07486a2	-3.8207173
8	0xc1198d37	-9.596976
9	0xbffa7cfc	-1.9569392
10	0xbfaa5522	-1.330723
11	0xc03ad934	-2.919507
12	0xc0f67897	-7.7022204
13	0xc11a72a9	-9.652993
14	0x4087cdfd	4.243895
15	0xc0bcbfd6	-5.8984175
16	0xc01bc136	-2.4336677
17	0xc0262041	-2.5957186
18	0xc0ecce2d	-7.400168
19	0xc0d0cbdc	-6.524885
20	0xbe8d76ce	-0.27629703
21	0x3e20126f	0.15632032
22	0xbfd0e3e7	-1.631955
23	0xc0e9f53b	-7.3111854
24	0xc06d3237	-3.7061899
25	0xc113f765	-9.247899
26	0xc119c5a2	-9.61075
27	0xc01bd464	-2.4348383
28	0xbfa133cd	-1.2593933
29	0xc02b4a50	-2.6764107
30	0xc10d855c	-8.845058
31	0xc05a16f1	-3.4076502
32	0xbfa6b0d5	-1.3022715
33	0xc03c2f2b	-2.940379
34	0xbffcc634	-1.9747987
35	0xbe2d15cb	-0.16902845
36	0xc10c8fd0	-8.78511
37	0xc01bea8f	-2.4361913
38	0xbf9aa1f8	-1.2080679
39	0xc1060a8a	-8.377573
40	0xbf8b112e	-1.0864618
41	0xc009a73b	-2.150832
42	0xc10a992b	-8.662395
43	0xc06f6dad	-3.741069
44	0xc118a7b6	-9.540945
45	0x400a55e8	2.1614933
46	0xbe911c4f	-0.2834191
47	0xc0e41376	-7.1273756
48	0xbf62f0fa	-0.8864895
49	0xc008261b	-2.1273258
50	0xc12139f7	-10.076652
51	0xc128e026	-10.554724
52	0xbee1e878	-0.44122672
53	0xc04e7714	-3.226018
54	0xc127f0d0	-10.496292
55	0xc045dfc2	-3.091782
56	0x3d8ad9f8	0.067798555
57	0xc013cce6	-2.309381
58	0xc0c25e85	-6.074038
59	0xc0361aaf	-2.8453786
60	0xc0b9091a	-5.782361
61	0xc124b3a8	-10.293861
62	0xbf467993	-0.7752926
63	0xc1289e7f	-10.538695
64	0xbebee43f	-0.37283513
65	0xc1081bee	-8.506819
66	0xbfb8dbaf	-1.4442042
67	0xc123b925	-10.232701

bn2.running_var f4 [68]
0	0x42e4311c	114.09592
1	0x42ec2693	118.07534
2	0x4182e03b	16.359488
3	0x42d0787e	104.23534
4	0x4114d6cf	9.3024435
5	0x422ef49f	43.738888
6	0x41ef84ea	29.9399
7	0x41f754c9	30.916399
8	0x42f8298e	124.08116
9	0x41db0c00	27.38086
10	0x41b26539	22.299425
11	0x4144704f	12.277419
12	0x42b941a8	92.628235
13	0x430491da	132.56973
14	0x42029ae5	32.651264
15	0x421f2300	39.78418
16	0x413acc94	11.674946
17	0x4193ac23	18.459051
18	0x426f4791	59.81989
19	0x42a0062e	80.01207
20	0x41fcf754	31.620766
21	0x41dc2a7c	27.520744
22	0x416b6f4e	14.714674
23	0x429435c2	74.104996
24	0x41750e9d	15.316068
25	0x42ba00cf	93.00158
26	0x43024543	130.27055
27	0x4181118b	16.133566
28	0x4191b307	18.212416
29	0x418dc5be	17.721554
30	0x42ac6f72	86.21767
31	0x414d956f	12.848983
32	0x41e3cb44	28.47425
33	0x415c55ff	13.770995
34	0x41b274d7	22.30705
35	0x4189d2e0	17.227966
36	0x42d33d5e	105.61986
37	0x41b16e4f	22.178862
38	0x41849e2e	16.577236
39	0x42bf4db3	95.65176
40	0x41e6654c	28.799461
41	0x41c2b7f5	24.339823
42	0x42c6e882	99.45412
43	0x4163605e	14.211027
44	0x42c630c6	99.09526
45	0x41da8fa8	27.320145
46	0x41d23482	26.275639
47	0x42a27d5d	81.24485
48	0x41e8d26e	29.102749
49	0x417ed87f	15.9278555
50	0x42afeb61	87.959724
51	0x42b81ff2	92.06239
52	0x41d758a8	26.91829
53	0x415abbab	13.670817
54	0x4304cf8e	132.81076
55	0x41a0172c	20.011314
56	0x418a5286	17.290295
57	0x41776944	15.4632
58	0x427e7524	63.614395
59	0x414830e7	12.511939
60	0x424a21e8	50.53311
61	0x4305a9bc	133.66302
62	0x4176ea11	15.432145
63	0x43019da6	129.61581
64	0x419e402d	19.781336
65	0x42aed7d9	87.42158
66	0x4195465c	18.659355
67	0x42c56b3f	98.709465

fc2.weight f4 [34, 68]
0	0x3e8627c3	0.2620221
1	0x3f1ee9b0	0.6207533
2	0xbf3ed515	-0.7454389
3	0x3e003428	0.12519896
4	0xbe8e1496	-0.2775008
5	0x3ea9766f	0.3309817
6	0xbf833527	-1.0250596
7	0x3eb981d7	0.36231872
8	0xbe3ce5f5	-0.18447097
9	0x3ecaa6ad	0.3958029
10	0x3e29c295	0.16578133
11	0xbea9f64e	-0.33195728
12	0x3e9e10d6	0.3087222
13	0x3d509820	0.050926328
14	0xbf83ba68	-1.0291262
15	0x3fdc7b60	1.7225151
16	0x3ebc6bef	0.36801097
17	0xbf67f653	-0.90610236
18	0x3fa2268f	1.2668017
19	0x3e87435c	0.2641858
20	0xbf7e893f	-0.9942817
21	0xbf942b53	-1.1575722
22	0x3ee134fb	0.43985733
23	0x3f9306e7	1.1486481
24	0xbf5ccd47	-0.8625073
25	0x3f817605	1.0114142
26	0x3d36da43	0.044641744
27	0x3f524141	0.8213082
28	0xbeac7428	-0.3368237
29	0xbf1d62c2	-0.6147882
30	0x3ee1bae3	0.44087896
31	0xbefc5260	-0.49281597
32	0xbf344717	-0.70420974
33	0xbf32d45e	-0.69855297
34	0xbf7df688	-0.992043
35	0x3edda33b	0.43288597
36	0x3db90788	0.090346396
37	0xbf08866f	-0.5333013
38	0xbd338f18	-0.043837637
39	0x3e8807c8	0.26568437
40	0x3f40624a	0.7514998
41	0x3ea0c851	0.3140283
42	0x3f763096	0.96167886
43	0xbf3d898e	-0.74038017
44	0x3f7feeda	0.99973834
45	0xbf77037e	-0.96489704
46	0x3b6950e2	0.0035601188
47	0x3db9db0f	0.09074985
48	0x3f4cb633	0.79965514
49	0x3ecf2368	0.404567
50	0x408100c7	4.031345
51	0x408d7ba2	4.421342
52	0x3f2ad49c	0.66730666
53	0xbeba2f45	-0.3636419
54	0x3dac9c84	0.084282905
55	0x3fa96ceb	1.3236364
56	0xbecebcfb	-0.40378556
57	0xbf700c55	-0.9376882
58	0x3f8d7312	1.1050742
59	0x3cb913cf	0.022592453
60	0x3f04ddb1	0.51900774
61	0x3da1fa4d	0.07909069
62	0xbe674527	-0.22584973
63	0x3fd358a7	1.651143
64	0x3fc55239	1.5415717
65	0x3f7d7715	0.9900983
66	0x3f10b86b	0.565314
67	0x400573ba	2.0851884
68	0x3e69b5db	0.22823279
69	0x3fc05ff8	1.5029287
70	0xbf584c36	-0.8449129
71	0x3ec1fc38	0.3788774
72	0xbcfb648e	-0.030687597
73	0x3eb88ffd	0.36047354
74	0xbeee574d	-0.4655098
75	0x3e8ae7ff	0.27130124
76	0x3f39062a	0.7227503
77	0x3e5a7b7e	0.21336171
78	0x3e5286ba	0.20559207
79	0xbe6c5b2f	-0.23081659
80	0x3ea6561d	0.32487574
81	0x3ee96f64	0.45592797
82	0xbef6e6ff	-0.4822311
83	0x3f18f70e	0.59751976
84	0x3ed42b85	0.41439453
85	0xbf1b9c06	-0.6078495
86	0x3fca564d	1.5807587
87	0x3e38bb1d	0.18040128
88	0xbf2edeb2	-0.68308556
89	0xbed6db3d	-0.4196414
90	0x3e82943e	0.25503725
91	0x3d3ea472	0.046543546
92	0xbef6df2a	-0.48217136
93	0x3f94872a	1.1603749
94	0xbc918791	-0.017764838
95	0x3f04e513	0.5191204
96	0xbedeed6e	-0.4354052
97	0xbed435cf	-0.41447303
98	0x3f510aad	0.81656915
99	0xbe31d6b5	-0.1736706
100	0xbf2379bc	-0.63857627
101	0xbeef3359	-0.46718863
102	0xbf0f4ebc	-0.55979514
103	0xbd66e778	-0.05637309
104	0x3e90448b	0.28177294
105	0xbf0e7f2e	-0.5566281
106	0xbd07068e	-0.032965235
107	0xbd336c36	-0.04380437
108	0x3f0c1981	0.54726416
109	0xbd1a6e43	-0.03770281
110	0x3f59d42d	0.8508938
111	0xbee4f109	-0.44715145
112	0x3faa26ac	1.3293052
113	0xbeff64a2	-0.49881464
114	0xbe15195c	-0.14560455
115	0x3e5f3db0	0.21800876
116	0x3f35dd98	0.7104125
117	0x3e92a498	0.286412
118	0x40d2343b	6.568876
119	0x40d6069a	6.688306
120	0x3e9ba493	0.30398998
121	0x3c701bf4	0.014655102
122	0x3ec5cb33	0.3863159
123	0x3ed20392	0.4101835
124	0xbe3d87d6	-0.18508849
125	0xbe89793e	-0.26850313
126	0x3f2eb171	0.68239504
127	0x3c530953	0.012880641
128	0x3e8ccf1b	0.2750176
129	0x3e99adc9	0.300154
130	0xbedb9ce8	-0.42893147
131	0x40390e04	2.8914804
132	0x3f9c24db	1.2198747
133	0x3f733c9f	0.95014375
134	0x3e4ce128	0.20007765
135	0x407610b8	3.8447704
136	0xbf89d259	-1.0767318
137	0xbe3460c1	-0.17615034
138	0x3f1c2d09	0.6100622
139	0xbf83245d	-1.0245472
140	0x3f9579d5	1.1677805
141	0xbfe20055	-1.7656351
142	0xbdae035a	-0.08496733
143	0xc00420bf	-2.0644987
144	0xbf9dca95	-1.2327448
145	0x3ee4b7ce	0.44671482
146	0x3f051394	0.51983
147	0x3fb487bd	1.4103924
148	0xbfd3a460	-1.6534538
149	0xbf923c59	-1.1424667
150	0xbe10d5f8	-0.14144123
151	0x3fb81f92	1.4384634
152	0x3f8b9d12	1.0907309
153	0x3f5eef4d	0.87083894
154	0x3f650a29	0.8946863
155	0xbf09ca6f	-0.53824514
156	0x3d93d95f	0.072191946
157	0x3edf7aaf	0.43648288
158	0x3f89b063	1.0756954
159	0xbe8361fc	-0.25660694
160	0x3f78a219	0.9712234
161	0x3f37b4a7	0.7176003
162	0xbf74a148	-0.95558596
163	0x3fc641c9	1.5488826
164	0x3ee87a6f	0.4540591
165	0x3f8b65c0	1.0890427
166	0xbe7c09bf	-0.24613093
167	0x3f6b7464	0.91974473
168	0x3efc0e13	0.49229488
169	0x3f90f8d6	1.1325939
170	0x3f41f143	0.7575876
171	0x3f4a09c1	0.78921133
172	0x3e0aa55a	0.13539639
173	0x3e6e6895	0.23282082
174	0x3f182a18	0.5943923
175	0xbdcc31e0	-0.099704504
176	0x3f201ae8	0.62541056
177	0x3f1e9ffa	0.61962855
178	0xbebec631	-0.37260583
179	0x3f680523	0.9063284
180	0x3eb6b51a	0.35685045
181	0x3e802500	0.2502823
182	0x3f0ecc30	0.55780315
183	0x3e104d76	0.14092049
184	0x3ed5aa5e	0.41731542
185	0x3f5c0402	0.85943615
186	0xc0898a4c	-4.298132
187	0xc04e1f0e	-3.2206454
188	0x3f05d504	0.5227816
189	0x3f5e3e57	0.86813873
190	0xbf8fe290	-1.1241016
191	0x3fcb2175	1.5869585
192	0x3eb3a3aa	0.35085803
193	0x3ece4a95	0.40291277
194	0xbfa41874	-1.2819963
195	0x3fbbbd8d	1.4667221
196	0xbeb01c07	-0.34396383
197	0xbf3acabf	-0.72965616
198	0x3f6705dd	0.9024332
199	0xc06a2d25	-3.6590054
200	0xbdf5f51c	-0.120096415
201	0x3edd977e	0.43279642
202	0x3eec5f2c	0.4616636
203	0xbfc50454	-1.5391946
204	0xbf3ab548	-0.72932863
205	0xbf7b50c0	-0.9817009
206	0x3e60e346	0.21961698
207	0xbf23827b	-0.6387097
208	0x3f9f40a4	1.2441602
209	0xbf374c76	-0.71601045
210	0x3e6cfd0e	0.23143408
211	0xbf814a4f	-1.0100802
212	0xbfe8a04a	-1.8173916
213	0x3f0b3edb	0.54392785
214	0x3f2a6dec	0.6657398
215	0x3ff1324c	1.8843474
216	0xbec9920f	-0.39369246
217	0xbf1f0077	-0.62110084
218	0xbec7bae3	-0.3900977
219	0x3fa2a6d4	1.2707162
220	0x3faf650c	1.3702712
221	0x3e9f8abd	0.31160536
222	0x3eed87fd	0.46392813
223	0xbf9599a8	-1.1687517
224	0x3e42087f	0.18948554
225	0x3e449759	0.1919836
226	0x3f19c0b6	0.6005968
227	0xbee98809	-0.456116
228	0x3f419c6f	0.75629324
229	0xbe1f8ede	-0.15581843
230	0xbf0fb5c2	-0.56136715
231	0x3faedc46	1.3660972
232	0x3e5865d6	0.21132597
233	0x3ef69661	0.48161605
234	0xbf387039	-0.7204624
235	0x3f8e04df	1.1095237
236	0x3e89bb85	0.2690088
237	0x3fe82406	1.8135993
238	0x3eb5e0b9	0.35523012
239	0x3f087905	0.5330966
240	0xbfa1e3d3	-1.2647651
241	0x3f0c2422	0.54742634
242	0x3eda615f	0.42652413
243	0xbf4edd86	-0.8080677
244	0x3f2ef3c0	0.68340683
245	0x3eefdd2f	0.46848437
246	0xbff524de	-1.9151876
247	0x3d84f1ac	0.06491408
248	0xbf552cef	-0.8327169
249	0x3dda9783	0.1067343
250	0x3efb60c5	0.49097267
251	0xbf1cb847	-0.61218685
252	0x3ef16a98	0.47151637
253	0x3fb27b86	1.3943946
254	0xc0ad9a0c	-5.4250546
255	0xc0922879	-4.5674405

fc2.bias f4 [34]
0	0xbca276f5	-0.019832114
1	0x3d300062	0.042969115
2	0x3c7a5738	0.015279584
3	0xbe00684a	-0.12539783
4	0xbca05679	-0.019572483
5	0x3d95a7b0	0.073073745
6	0xbde08e9b	-0.109647
7	0x3d2578c4	0.040398374
8	0x3d3e676f	0.04648536
9	0xbbee45bc	-0.0072714966
10	0x3c9cf148	0.01915802
11	0x3dbc909e	0.09207271
12	0x3c4418ad	0.011968774
13	0x3d8f5e23	0.07000377
14	0x3d23ccb3	0.03999014
15	0x3a9e53fa	0.001207947
16	0xbd6a4ead	-0.057203937
17	0x3db35571	0.08756531
18	0x3cd1ad97	0.02559547
19	0x3ca390f1	0.019966574
20	0x3dc919a9	0.098193474
21	0x3d155de3	0.03646649
22	0xbd8674b8	-0.06565231
23	0xbdc2831d	-0.09497664
24	0xbd9b38fb	-0.075792275
25	0xbd8d2373	-0.06891527
26	0xbb2a65ec	-0.0026000692
27	0x3cac5cee	0.021040406
28	0x3d3323e5	0.043735404
29	0x3dc58250	0.09643996
30	0xbdd5ef84	-0.104460746
31	0x3c4b53c3	0.012410107
32	0x3e0250dc	0.12726158
33	0xbdd6dad3	-0.10490956

bn3.weight f4 [34]
0	0x3e9d9a43	0.30781755
1	0x3e86f0bc	0.2635554
2	0x3ecaf2d6	0.39638394
3	0x3ea29f39	0.31762102
4	0x3e90ee17	0.28306648
5	0x3e8e1b3b	0.2775515
6	0x3f0de438	0.5542636
7	0x3eb93bd0	0.36178446
8	0x3f0f4719	0.5596786
9	0x3eb3cd5c	0.35117614
10	0x3f1e37fa	0.61804163
11	0x3ecf701d	0.40515223
12	0x3eb63f5f	0.35595223
13	0x3e844b2c	0.25838602
14	0x3ea21b41	0.31661418
15	0x3e800ef2	0.25011402
16	0x3eabc8ef	0.33551738
17	0x3ee6b2d6	0.45058316
18	0x3eb38eef	0.35069987
19	0x3ece2eca	0.40270072
20	0x3ed0bb5d	0.40767947
21	0x3eab0789	0.33404186
22	0x3ed23dd4	0.41062796
23	0x3ea48acc	0.32137144
24	0x3ea12a68	0.31477666
25	0x3ede3183	0.4339715
26	0x3e64f7a6	0.22360095
27	0x3ec8739d	0.39150706
28	0x3e88112c	0.265756
29	0x3ebc8166	0.36817473
30	0x3e89ddb9	0.26926973
31	0x3efc5f15	0.49291292
32	0x3eaa6ed6	0.33287686
33	0x3e925cb8	0.28586364

bn3.bias f4 [34]
0	0xbce81b73	-0.028333401
1	0x3be1f1ba	0.006895271
2	0x3e43fa67	0.1913849
3	0x3e56f544	0.20991999
4	0x3d48cb1d	0.04902183
5	0x3cc1c4ab	0.023653349
6	0xbccc91d5	-0.024971882
7	0x3e3ea318	0.18616903
8	0xbedb855a	-0.42875177
9	0x3e4ce4fc	0.20009226
10	0xbdd5e7d5	-0.10444609
11	0x3e808d67	0.2510788
12	0x3e6cd822	0.23129323
13	0x3d9b1082	0.07571508
14	0x3e7c7210	0.24652886
15	0x3d84d477	0.06485837
16	0x3e4f4974	0.20242864
17	0xbe2c73aa	-0.16840997
18	0x3e5d18dc	0.21591514
19	0xbd6a99e2	-0.05727566
20	0x3e0ec16e	0.13940975
21	0x3e7e466f	0.24831556
22	0x3e5b2256	0.21399817
23	0x3e671945	0.22568233
24	0x3e3e219c	0.18567508
25	0x3e7dbde4	0.24779469
26	0x3d941adc	0.072316855
27	0x3e90587e	0.28192514
28	0x3da5c3b6	0.080939695
29	0x3e8aa971	0.270824
30	0x3cf4807f	0.029846428
31	0x3c40e4a9	0.011773267
32	0x3e8152da	0.25258523
33	0x3b81fdc6	0.0039670197

bn3.running_mean f4 [34]
0	0xbfe9971e	-1.8249242
1	0x3f248a86	0.6427387
2	0x4039cb41	2.9030306
3	0x3f87ebd3	1.0618843
4	0x3fc76602	1.5578005
5	0x3fb01851	1.3757421
6	0xc0c3499d	-6.102736
7	0x3f4ca60f	0.79940885
8	0xc0d705de	-6.719466
9	0x40153023	2.331063
10	0xc0b570ff	-5.6700435
11	0x408e22d3	4.441751
12	0x408b1683	4.346498
13	0x40262e83	2.5965889
14	0x40a55228	5.166279
15	0x3fe96571	1.8234082
16	0xbfc234f6	-1.5172412
17	0xc0f34b9a	-7.6029787
18	0xbedc3091	-0.43005803
19	0xc0d98702	-6.7977304
20	0xc0619c31	-3.5251582
21	0x4092c6d0	4.586769
22	0x40a65388	5.1976967
23	0x3f907fd0	1.1289005
24	0xbfb2961b	-1.3952059
25	0x4084a3e8	4.145008
26	0x4017739e	2.3664317
27	0x4093a2b2	4.6136103
28	0x4004bba9	2.0739539
29	0x409cc7f2	4.8994074
30	0xbdc45f74	-0.09588519
31	0xc0d5f06a	-6.6855974
32	0x4078bb79	3.8864424
33	0x3eade0ed	0.33960667

bn3.running_var f4 [34]
0	0x4268f3f6	58.238243
1	0x42512e3e	52.29516
2	0x432550c0	165.31543
3	0x432026e2	160.15189
4	0x423cad4d	47.16924
5	0x425a69ba	54.60325
6	0x42a7e2fb	83.94332
7	0x433f69e7	191.41368
8	0x42281f8f	42.03082
9	0x42e5ddd1	114.933235
10	0x427be0b6	62.969444
11	0x4288c587	68.385796
12	0x42aec99d	87.393776
13	0x425e61e0	55.59558
14	0x42c7c478	99.88373
15	0x423739b7	45.806362
16	0x43299486	169.58017
17	0x424f35bb	51.80247
18	0x430e3f5b	142.24748
19	0x422fd902	43.96192
20	0x430e1ab7	142.10435
21	0x432508c6	165.03427
22	0x42fbf374	125.975494
23	0x4325e9f1	165.91383
24	0x42f1014f	120.502556
25	0x4260fd51	56.24738
26	0x4284dfe8	66.43732
27	0x429b9914	77.79898
28	0x4237a502	45.91114
29	0x42aa6670	85.20007
30	0x4265f6c8	57.490997
31	0x42d9f2f3	108.97451
32	0x431836d2	152.21414
33	0x4262f65c	56.740585
