model_comparisons/model_weights/human_only_cleavage_map_sequence_mod.pt (torch_old, 196920 bytes, 20 tensors)

input.weight f4 [136, 262]
0.0025429903 -0.028849363 -0.03136357 -0.0019483754 -0.02709222 0.10399088 0.0043791216 -0.08169365
-0.0010702937 -0.023210203 -0.04661765 0.010361405 -0.03829446 -0.04625541 -0.025111066 -0.050628163
0.005993977 0.07316682 -0.023978243 0.0034856277 0.045091618 0.014042422 0.017822798 0.08439264
-0.042774193 0.02455987 -0.048972715 0.008611933 0.023167757 -0.04547846 0.016307747 0.0055918396
0.0074967607 -0.011993124 0.01943868 0.012260027 -0.02871936 -0.0008594121 -0.042074487 0.027031783
-0.061606314 -0.05695874 -0.023774877 0.05447635 -0.008772322 0.03318706 -0.003809859 0.025716595
0.04526757 -0.00935196 0.039398834 0.001952722 -0.0021532984 0.06310653 0.0017531585 -0.07701699
-0.043162867 0.032740023 -0.023121739 -0.023113154 -0.028042465 0.0009875025 -0.09683856 0.0056059323
-0.005431492 0.06922457 0.016606681 -0.01425313 -0.045205027 0.024108935 0.09509023 0.048304282
-0.048111457 -0.029789489 -0.024123196 -0.029385393 -0.021685055 -0.024586547 0.00694163 0.025830444
0.028556004 -0.026399875 0.016806193 0.00651921 0.049881507 -0.024529742 -0.03414805 0.036586396
0.008234493 0.037136752 -0.075902745 0.070139594 0.047056265 -0.032096293 0.03752534 -0.07825662
0.115023546 0.1318865 0.07751984 0.041823443 0.09216209 0.003972625 -0.02259685 -0.004603047
0.005243654 -0.018752396 -0.0181242 0.02653376 0.058838338 -0.033356734 0.049457707 -0.018271245
-0.011285131 -0.030419176 0.068546526 0.012526928 0.023293395 0.04264536 -0.018732399 0.10162151
0.0037996296 0.045501642 0.06590516 -0.0071604387 0.10960249 -0.09232686 -0.0037852486 0.0478793
-0.00035812115 0.07415984 -0.024980137 -0.04826874 -0.03975025 -0.09877571 0.044647925 -0.023036355
-0.0019862219 2.3886416e-05 0.032401644 -0.041837767 0.06188676 0.076170586 0.019426635 0.070317164
-0.055022877 -0.05054103 -0.053473826 -0.02007106 -0.09709754 -0.09164943 -0.06403474 -0.028897919
0.045295354 0.037313294 0.079876274 0.040967606 0.03141272 0.058620114 -0.029154526 -0.032816418
0.00028003097 0.10861372 -0.0025174012 0.015876126 0.04736947 0.095741004 -0.04547284 0.08828488
-0.04738442 0.012419613 -0.035589572 -0.021274982 0.051977497 0.030357039 -0.03280917 -0.03187227
-0.03932349 -0.047869697 0.0347842 0.027951417 0.049276873 -0.07249266 0.01819979 -0.03742189
-0.046198923 0.0137763545 -0.011262728 -0.02027043 0.07697592 0.015242266 -0.10746623 -0.0058669494
-0.031623818 0.036791105 -0.094586015 -0.07715486 0.0008432974 -0.028509695 0.034970444 -0.05390908
-0.05038883 -0.008361083 0.022409344 -0.0065766023 -0.0117261475 3.620016e-05 -0.017487338 -0.006142091
-0.09411228 0.07879355 -0.049503747 0.03472142 0.021924958 -0.09555787 0.020365389 -0.018546281
0.025884056 -0.0587462 -0.021997055 -0.04498064 -0.08555311 0.014011637 -0.0025254826 -0.006221505
0.010637923 -0.0521992 -0.008017568 -0.05748477 0.07477236 0.03281494 -0.06431264 -0.042384703
-0.026367342 0.0077498527 -0.06517606 -0.00042578968 -0.04566337 0.027791075 -0.063210964 0.021462478
0.029474951 0.045113586 -0.0450003 0.0063804765 0.020307194 0.05445529 -0.05854461 -0.02279951
0.09613621 0.029837633 0.0034543462 -0.028821418 0.07018132 -0.022328354 0.004099237 0.0059862505
00000000: 4ca8 263b 8055 ecbc 1677 00bd a160 ffba
00000010: 81f0 ddbc 2cf9 d43d bc7e 8f3b 004f a7bd
00000020: 1949 8cba 5323 bebc 26f2 3ebd e2c2 293c
00000030: a7da 1cbd 5076 3dbd b9b5 cdbc 7a5f 4fbd
00000040: 2069 c43b 7cd8 953d 056e c4bc 216f 643b
00000050: fdb1 383d 3012 663c 1e01 923c 0cd6 ac3d
00000060: fe33 2fbd c831 c93c 9d97 48bd 1119 0d3c
00000070: 4fca bd3c 9f47 3abd d397 853c c03b b73b
00000080: 63a7 f53b cf7e 44bc de3d 9f3c 48de 483c
00000090: dd44 ebbc 2b4a 61ba 4c56 2cbd c271 dd3c
000000a0: e756 7cbd 914d 69bd 88c3 c2bc 9822 5f3d
000000b0: c9b9 0fbc 28ef 073d d4ae 79bb 9cab d23c
000000c0: 7d6a 393d f738 19bc ac60 213d 7af2 ff3a
000000d0: 5a1e 0dbb ff3d 813d 3dca e53a 15bb 9dbd
000000e0: 8ccb 30bd 671a 063d cd69 bdbc cc57 bdbc
000000f0: 50b9 e5bc 166f 813a 4c53 c6bd f8b1 b73b
00000100: a8fa b1bb 9dc5 8d3d bc0a 883c f685 69bc
00000110: e828 39bd 1a80 c53c abbe c23d b6da 453d
00000120: 8510 45bd 1609 f4bc 029e c5bc a3b9 f0bc
00000130: dba4 b1bc ba69 c9bc 9d76 e33b 5e9a d33c
00000140: 48ee e93c 8d44 d8bc 24ad 893c 199f d53b
00000150: 8d50 4c3d 99f2 c8bc d3de 0bbd 9edb 153d
00000160: f8e9 063c b51c 183d e672 9bbd 59a5 8f3d
00000170: 12be 403d 6777 03bd 2cb4 193d 0245 a0bd
00000180: 7791 eb3d 410d 073e b9c2 9e3d 0f4f 2b3d
00000190: 7abf bc3d cb2c 823b 071d b9bc 28d5 96bb
000001a0: f5d2 ab3b a09e 99bc 3479 94bc 545d d93c
000001b0: 7800 713d 12a1 08bd 2a94 4a3d 94ad 95bc
000001c0: 45e5 38bc a331 f9bc 1f62 8c3d bf3d 4d3c
000001d0: cad1 be3c e7ac 2e3d b074 99bc f01e d03d
000001e0: 3503 793b ee5f 3a3d 49f9 863d 1da2 eabb
000001f0: 4577 e03d dd15 bdbd ef11 78bb 161d 443d
00000200: 35c2 bbb9 1de1 973d 25a3 ccbc 71b5 45bd
00000210: 28d1 22bd eb4a cabd bee0 363d bdb6 bcbc
00000220: 462b 02bb b05f c837 96b7 043d 145e 2bbd
00000230: f97c 7d3d 53ff 9b3d 9b24 9f3c 7202 903d
00000240: ab5f 61bd 1c04 4fbd 5f07 5bbd 106c a4bc
00000250: 13db c6bd b2b2 bbbd a524 83bd 54bb ecbc
00000260: 9f87 393d d3d5 183d 2c96 a33d a6cd 273d
00000270: a0aa 003d a51b 703d 79d5 eebc 826a 06bd
00000280: 1fd1 9239 df70 de3d fcfa 24bb a60e 823c
00000290: 7d06 423d dc13 c43d bb41 3abd b4ce b43d
000002a0: 2a16 42bd a27b 4b3c 5fc6 11bd df48 aebc
000002b0: 5be6 543d 53af f83c e962 06bd 7f8c 02bd
000002c0: ab11 21bd 0413 44bd e179 0e3d 5ffa e43c
000002d0: 8cd6 493d 0877 94bd ba17 953c b247 19bd
000002e0: 153b 3dbd 38b6 613c 4e87 38bc 2c0e a6bc
000002f0: 8da5 9d3d b2ba 793c 4117 dcbd 8a3f c0bb
00000300: fa87 01bd 45b2 163d 50b6 c1bd 5e03 9ebd
00000310: bb10 5d3a 2a8d e9bc 2b3d 0f3d c4cf 5cbd
00000320: 8564 4ebd edfc 08bc cd93 b73c 8a80 d7bb
00000330: 071f 40bc a0d5 1738 9b41 8fbc 9843 c9bb
00000340: f0bd c0bd 835e a13d 71c4 4abd 0c38 0e3d
00000350: f89b b33c d8b3 c3bd 51d5 a63c 5fee 97bc
00000360: cd0a d43c db9f 70bd 2b33 b4bc 9f3d 38bd
00000370: 7836 afbd 1191 653c 9182 25bb c4dd cbbb
00000380: af4a 2e3c d4ce 55bd 1e5c 03bc 2675 6bbd
00000390: 4022 993d f568 063d 58b6 83bd 959b 2dbd
000003a0: 5300 d8bc 7af2 fd3b 077b 85bd 863c dfb9
000003b0: 8409 3bbd 1caa e33c c074 81bd 14d2 af3c
000003c0: 7475 f13c 06c9 383d 3c52 38bd 5113 d13b
000003d0: 465b a63c 830c 5f3d 79cc 6fbd 0ac6 babc
000003e0: 10e3 c43d 0d6e f43c 5062 623b e51a ecbc
000003f0: 39bb 8f3d f4e9 b6bc e452 863b 4f28 c43b

input.bias f4 [136]
0.05250375 0.0123938015 -0.02723688 -0.010487556 0.019144028 -0.06261972 -0.012127021 -0.018324684
0.008149547 -0.004139611 -0.036227223 -0.048559275 -0.006101828 0.057195086 0.05422218 -0.042953823
-0.022354778 0.05491476 0.01798241 0.03356798 -0.045937464 0.06398625 -0.02660332 0.01645502
0.062768005 -0.030432066 0.067115724 -0.044426374 -0.015833305 0.034597933 -0.008753867 -0.055465642
5.960769e-05 0.03910174 0.052736808 0.050000895 -0.05689753 0.0336595 0.0012364836 -0.041317545
0.059364684 -0.012003734 0.038214326 -0.015936034 -0.0047226497 -0.046108622 0.042558294 0.045642335
-0.01268297 0.050220795 0.034637306 0.015218141 0.039099105 0.0050369673 -0.0027546082 0.019969711
-0.035987765 -0.024910374 -0.046018537 -0.05851022 -0.006200813 0.005133346 0.015915027 0.059019424
-0.043691404 0.014487805 -0.0046156547 -0.043972895 -0.04880227 0.035693966 0.0057049883 0.058451727
-0.008270773 -0.03067478 -0.03505054 -0.03849862 -0.052842084 -0.011554911 0.03200975 -0.017609434
0.050167277 -0.03312322 0.010501789 0.03824089 -0.022128066 0.04899875 0.0024129704 -0.0003012188
0.043251723 0.0025081951 -0.031586748 0.06299183 -0.06835444 -0.039115336 -0.051054984 0.049176056
-0.055471063 0.029818298 -0.02616386 0.05658834 -0.046507794 0.021845352 0.03197301 0.02163803
0.039631277 0.058748957 0.012262047 -0.04098504 0.04240912 -0.03134517 -0.020668527 0.020274343
-0.0016764781 0.060410306 -0.037287842 0.015123925 -0.045404233 -0.05085684 -0.024430746 0.04097051
0.057111178 -0.011338746 -0.042250194 0.052519124 -0.05644887 -0.041236248 -0.007634181 0.025626142
-0.043286838 -0.01707716 -0.06328061 -0.00844969 0.055878714 0.059365258 0.0030307954 0.036776774
00000000: 2c0e 573d 5f0f 4b3c e11f dfbc 00d4 2bbc
00000010: f0d3 9c3c c53e 80bd 6ab0 46bc a61d 96bc
00000020: ad85 053c 93a5 87bb ff62 14bd 17e6 46bd
00000030: d8f1 c7bb 6545 6a3d 1418 5e3d 59f0 2fbd
00000040: 5e21 b7bc 4dee 603d d94f 933c 947e 093d
00000050: ec28 3cbd 390b 833d 35ef d9bc aecc 863c
00000060: 838c 803d ab4c f9bc f873 893d 6ef8 35bd
00000070: d9b4 81bc 90b6 0d3d 616c 0fbc f12f 63bd
00000080: 4503 7a38 2529 203d 8d02 583d bdcd 4c3d
00000090: 620d 69bd 8bde 093d 8111 a23a 963c 29bd
000000a0: 6228 733d 4fab 44bc a086 1c3d 498c 82bc
000000b0: 75c0 9abb 65dc 3cbd 9b51 2e3d 75f3 3a3d
000000c0: 3bcc 4fbc 52b4 4d3d d9df 0d3d 8255 793c
000000d0: 6226 203d 250d a53b a886 34bb 8597 a33c
000000e0: e867 13bd d710 ccbc ef7d 3cbd 6aa8 6fbd
000000f0: 3130 cbbb a135 a83b 3b60 823c 5abe 713d
00000100: c2f5 32bd 425e 6d3c eb3e 97bb ec1c 34bd
00000110: e4e4 47bd d633 123d e9f0 ba3b 146b 6f3d
00000120: 2382 07bc ad49 fbbc 2891 0fbd bbb0 1dbd
00000130: f170 58bd cf50 3dbc a81c 033d a941 90bc
00000140: 347c 4d3d 37ac 07bd b20f 2c3c 7ba2 1c3d
00000150: eb45 b5bc eab2 483d ed22 1e3b e7ec 9db9
00000160: b828 313d 8860 243b 1b61 01bd dc01 813d
00000170: 6afd 8bbd 6737 20bd 081f 51bd d56c 493d
00000180: a035 63bd 8145 f43c 9755 d6bc 2dc9 673d
00000190: f57e 3ebd 06f5 b23c 22f6 023d 3d42 b13c
000001a0: 6854 223d bfa2 703d c1e6 483c eedf 27bd
000001b0: 2fb5 2d3d cb63 00bd 0b51 a9bc 6116 a63c
000001c0: 45bd dbba cc70 773d 23bb 18bd 57ca 773c
000001d0: caf9 39bd 434f 50bd fd22 c8bc b2d0 273d
000001e0: 69ed 693d 26c6 39bc 8a0e 2dbd 4b1e 573d
000001f0: ee36 67bd 57e7 28bd 2728 fabb eaed d13c
00000200: 8a4d 31bd 66e5 8bbc 4499 81bd 9270 0abc
00000210: 14e1 643d fc28 733d 4fa0 463b 3ea3 163d

bn1.weight f4 [136]
0.99392754 1.0296981 1.018153 0.9637772 0.9637863 0.9655206 0.994942 0.958907
1.0269035 1.018433 0.99960876 0.92503303 1.0125096 0.941071 0.96274924 1.0091552
1.008283 0.9894392 1.0222023 0.9500054 1.0063076 0.98787093 0.97393316 1.0281247
0.94635195 1.0140493 1.0319419 0.96547 0.9429483 0.9691625 1.0107553 1.0197152
0.96122676 1.0096239 0.95632505 1.0434427 1.0383615 1.0077021 0.99148536 1.0328231
1.0014638 0.98902214 0.9996038 0.957385 0.97139007 0.99348676 1.0143013 1.0314983
1.0359486 1.0006937 1.0051608 0.98332006 0.95518297 0.9692529 0.94087124 1.0159118
0.9830236 1.0274755 0.99318886 1.001554 0.96487457 0.9516845 1.0122094 1.0105287
0.9357869 1.0144019 0.9732628 1.0203863 0.93822384 1.0214337 1.004865 0.9783018
0.96019995 0.9764896 0.9757063 0.97408336 0.97651494 0.97546434 0.9810848 0.950594
1.0183648 0.96780944 0.9701916 0.9736138 0.9174656 0.98520267 1.0180641 1.0243604
0.98603565 1.0084064 1.002911 0.9916504 1.0135295 0.96409863 0.9419068 0.9640512
1.001779 0.997864 1.006993 0.9695635 1.007278 1.0073035 0.98432994 0.9703136
1.0280089 0.9861808 1.0014757 0.96879584 0.9831604 0.9793166 0.97036946 1.0087075
0.91921115 0.9749678 1.0260634 0.9835873 0.99863446 1.0059887 1.0354578 1.0011389
1.0236459 1.03643 1.0187267 1.0167414 1.0291953 1.0366025 0.9599743 1.0007863
0.97492117 1.0146159 0.96972245 0.9879586 1.00394 1.0150865 1.020725 0.9805805
00000000: 0972 7e3f 26cd 833f d652 823f 1aba 763f
00000010: b3ba 763f 5c2c 773f 85b4 7e3f ee7a 753f
00000020: 9371 833f 035c 823f 5ce6 7f3f f7ce 6c3f
00000030: ea99 813f 07ea 703f bc76 763f ff2b 813f
00000040: 6b0f 813f e34b 7d3f 86d7 823f 8e33 733f
00000050: b0ce 803f 1ce5 7c3f af53 793f 9799 833f
00000060: 1f44 723f 5ecc 813f ac16 843f 0b29 773f
00000070: 0f65 713f 091b 783f 6e60 813f 0786 823f
00000080: f512 763f 5b3b 813f b8d1 743f 888f 853f
00000090: 08e9 843f 62fc 803f fcd1 7d3f 8c33 843f
000000a0: f72f 803f 8e30 7d3f 09e6 7f3f 2f17 753f
000000b0: 05ad 783f 2655 7e3f a0d4 813f 2308 843f
000000c0: f799 843f bb16 803f 1ca9 803f ddba 7b3f
000000d0: df86 743f f520 783f f0dc 703f 6609 823f
000000e0: 6fa7 7b3f 5184 833f a041 7e3f ec32 803f
000000f0: 0502 773f 98a1 733f 1490 813f 0159 813f
00000100: bb8f 6f3f ecd7 813f c027 793f 059c 823f
00000110: 702f 703f 57be 823f 6b9f 803f fd71 7a3f
00000120: aacf 753f 39fb 793f e3c7 793f 875d 793f
00000130: e2fc 793f 08b8 793f 6028 7b3f 215a 733f
00000140: c759 823f 5cc2 773f 7a5e 783f c13e 793f
00000150: 07df 6a3f 3e36 7c3f ed4f 823f 3e1e 833f
00000160: d56c 7c3f 7613 813f 635f 803f cddc 7d3f
00000170: 56bb 813f 2bcf 763f ce20 713f 0fcc 763f
00000180: 4b3a 803f 0474 7f3f 26e5 803f 5035 783f
00000190: 7cee 803f 52ef 803f 0cfd 7b3f 7966 783f
000001a0: cc95 833f 5876 7c3f 5b30 803f 0103 783f
000001b0: 66b0 7b3f 7eb4 7a3f 226a 783f 541d 813f
000001c0: 6c51 6b3f 7d97 793f 0c56 833f 61cc 7b3f
000001d0: 82a6 7f3f 3dc4 803f e289 843f 5225 803f
000001e0: d406 833f bda9 843f a365 823f 9524 823f
000001f0: acbc 833f 64af 843f e0c0 753f c419 803f
00000200: 6f94 793f efde 813f bb3f 783f dbea 7c3f
00000210: 1b81 803f 5bee 813f 1ea7 823f 5307 7b3f

bn1.bias f4 [136]
-0.11154892 -0.16317147 -0.17361046 -0.108920425 -0.039812226 -0.16888754 -0.13874158 -0.12281996
-0.099775136 -0.16557725 -0.19672239 -0.10924413 -0.13439253 -0.03811933 -0.061574787 -0.13951507
-0.059786588 -0.095512256 -0.13718577 -0.0736981 -0.114715084 -0.15640976 -0.14039166 -0.18998857
-0.12650932 -0.16399813 -0.12198961 -0.045826007 -0.07923756 -0.15382974 -0.14908591 -0.12476719
-0.14561003 -0.10227157 -0.09169187 -0.116686076 -0.15567534 -0.12853348 -0.15005337 -0.14307512
-0.18986309 -0.12322231 -0.1436106 -0.089735486 -0.103472956 -0.12589835 -0.14590283 -0.14487702
-0.16218343 -0.113376975 -0.10538828 -0.024608223 -0.053977992 -0.07897988 -0.08389976 -0.16224277
-0.11484541 -0.103958085 -0.1086436 -0.15698744 -0.12132047 -0.13934967 -0.14374015 -0.14462961
-0.15580639 -0.046290405 -0.10189743 -0.07742712 -0.07146964 -0.14397076 -0.11872588 -0.14491628
-0.15667284 -0.18783596 -0.15353005 -0.09626059 -0.09226905 -0.18278562 -0.097266205 -0.06553929
-0.17659287 -0.07218182 -0.1532017 -0.18664008 -0.09041216 -0.15178739 -0.10519126 -0.14282028
-0.068537906 -0.13923712 -0.16674435 -0.19010001 -0.16469574 -0.11632086 -0.08596059 -0.11072255
-0.121867515 -0.11923717 -0.15257289 -0.11877279 -0.18838625 -0.17391568 -0.13236311 -0.07633089
-0.15106924 -0.1225227 -0.09840598 -0.09889371 -0.11039971 -0.16359909 -0.12042571 -0.109322146
-0.097465016 -0.06913696 -0.14444095 -0.06008325 -0.12901427 -0.07882285 -0.20548518 -0.21499103
-0.13610895 -0.07409548 -0.12188805 -0.13903923 -0.14722972 -0.13957283 -0.14953476 -0.14839394
-0.06568775 -0.089057624 -0.13933879 -0.1131136 -0.12955435 -0.14610825 -0.16065724 -0.10068524
00000000: c373 e4bd 6c16 27be f1c6 31be ac11 dfbd
00000010: 2512 23bd dbf0 2cbe 4612 0ebe 0889 fbbd
00000020: e856 ccbd 158d 29be 9871 49be 63bb dfbd
00000030: 329e 09be 0423 1cbd d835 7cbd 0add 0ebe
00000040: c8e2 74bd ee9b c3bd 6d7a 0cbe 08ef 96bd
00000050: beef eabd e129 20be d5c2 0fbe 5d8c 42be
00000060: a98b 01be 20ef 27be b0d5 f9bd 0db4 3bbd
00000070: 4d47 a2bd 8b85 1dbe faa9 18be f185 ffbd
00000080: cc1a 15be c273 d1bd f2c8 bbbd 1cf9 eebd
00000090: 5b69 1fbe 489e 03be 97a7 19be 4982 12be
000000a0: 786b 42be fa5b fcbd a80e 13be 3dc7 b7bd
000000b0: a1e9 d3bd 7feb 00be 8d67 15be a45a 14be
000000c0: 6a13 26be 3032 e8bd cfd5 d7bd 2f97 c9bc
000000d0: 0718 5dbd 34c0 a1bd a3d3 abbd f822 26be
000000e0: 1234 ebbd fae7 d4bd 8980 debd 51c1 20be
000000f0: de76 f8bd aeb1 0ebe 9e30 13be c919 14be
00000100: b68b 1fbe 029b 3dbd 9aaf d0bd 1c92 9ebd
00000110: ad5e 92bd 126d 13be 8e26 f3bd ef64 14be
00000120: d86e 20be 1258 40be fb36 1dbe 4624 c5bd
00000130: 8ef7 bcbd 272c 3bbe 8133 c7bd 7739 86bd
00000140: c3d4 34be 10d4 93bd e8e0 1cbe 941e 3fbe
00000150: 032a b9bd 276e 1bbe 846e d7bd 7b3f 12be
00000160: 9a5d 8cbd 2d94 0ebe 08bf 2abe 94a9 42be
00000170: 00a6 28be a239 eebd 1b0c b0bd 81c2 e2bd
00000180: ad95 f9bd 9e32 f4bd 113c 1cbe 263f f3bd
00000190: 53e8 40be f416 32be 328a 07be 5f53 9cbd
000001a0: e5b1 1abe 2eed fabd 1389 c9bd c988 cabd
000001b0: 3e19 e2bd 8586 27be c1a1 f6bd 4ae4 dfbd
000001c0: bd9b c7bd ae97 8dbd 54e8 13be db19 76bd
000001d0: 511c 04be e06d a1bd b56a 52be 9c26 5cbe
000001e0: 2560 0bbe 5fbf 97bd 71a0 f9bd 4d60 0ebe
000001f0: 63c3 16be 2eec 0ebe a41f 19be 95f4 17be
00000200: 4d87 86bd d863 b6bd d4ae 0ebe 1aa8 e7bd
00000210: e5a9 04be 679d 15be 5583 24be 1034 cebd

bn1.running_mean f4 [136]
0.08133124 -0.015622748 -0.059641883 -0.0053320667 0.019107927 -0.029603144 -0.019428324 -0.03801353
0.041728698 0.019984556 -0.06480217 -0.016905602 -0.029111857 0.08586936 0.06895968 -0.09000986
0.008973392 0.044005666 -0.032746375 0.06385802 -0.05542859 0.07000802 0.004939136 0.06800025
0.084842116 -0.025331827 0.04570839 -0.07213745 -0.025688125 0.052702025 0.016833376 -0.018666368
0.04937355 0.055991147 0.037986934 0.009931692 -0.03139134 0.057442304 -0.0550612 -0.06568832
0.11445472 -0.0039917366 0.06343639 -0.070817724 0.005711009 -0.020716595 0.026668873 0.04145725
0.01608026 -0.024191136 -0.007508793 0.029385343 0.0148063 -0.0161983 0.0029961257 -0.026450502
-0.06027142 0.024020657 -0.0325124 -0.061002772 -0.00086357753 -0.04809696 -0.021979593 0.044536885
-0.008724175 0.02272159 -0.037647143 -0.023788186 -0.013090305 0.06950596 -0.06881395 0.025222728
-0.023479607 -0.048527796 0.00028894778 -0.08873882 -0.019368457 0.040506765 0.046295136 0.009713231
0.103277065 -0.00057560246 0.055582818 0.07536166 -0.009723473 0.071750574 -0.038194552 -0.015163508
0.044749133 0.025150228 -0.058579993 0.090678334 -0.07020598 -0.047991544 -0.015939271 0.040115815
-0.0785721 0.0088169975 -0.033173747 0.066839226 -0.042755235 -0.0021962402 0.099142596 0.023120044
0.008123312 0.07234435 0.090196796 -0.033968948 0.06043273 -0.04713723 -0.089200966 0.010851873
0.032760818 0.052471638 -0.04292404 0.041816503 -0.040594548 -0.09237053 -0.018273 0.07790524
0.029254977 -0.06907469 -0.014812058 0.058378015 -0.052705344 -0.02703217 0.026383622 0.057729714
-0.08224172 -0.0051911087 -0.06362645 -0.02055795 0.08504808 0.11549277 0.0022113475 -0.0389021
00000000: fe90 a63d 8ef6 7fbc 0c4b 74bd 9eb8 aebb
00000010: 3a88 9c3c 4b82 f2bc 2628 9fbc 13b4 1bbd
00000020: b6eb 2a3d a7b6 a33c 00b7 84bd 9e7d 8abc
00000030: fd7b eebc 46dc af3d bc3a 8d3d 1757 b8bd
00000040: 2205 133c 493f 343d 1021 06bd fec7 823d
00000050: 1709 63bd 5d60 8f3d 7ad8 a13b b743 8b3d
00000060: b4c1 ad3d b184 cfbc b938 3b3d cdbc 93bd
00000070: e76f d2bc 14de 573d 26e6 893c 36ea 98bc
00000080: eb3b 4a3d f956 653d 3098 1b3d 89b8 223c
00000090: 3594 00bd 9f48 6b3d da87 61bd 9987 86bd
000000a0: 3c67 ea3d 1dcd 82bb f0ea 813d e208 91bd
000000b0: 6a23 bb3b d9b5 a9bc ae78 da3c 14cf 293d
000000c0: c0ba 833c 7d2c c6bc 520c f6bb 88b9 f03c
000000d0: 2096 723c 4cb2 84bc a65a 443b b9ae d8bc
000000e0: 2adf 76bd f8c6 c43c b92b 05bd 0bde 79bd
000000f0: b561 62ba 5101 45bd 8c0e b4bc 4f6c 363d
00000100: d8ef 0ebc a122 ba3c e433 1abd 71df c2bc
00000110: b878 56bc 2459 8e3d 54ee 8cbd e59f ce3c
00000120: 4e58 c0bc 15c5 46bd ea7d 9739 b3bc b5bd
00000130: 99aa 9ebc 6cea 253d f89f 3d3d 3e24 1f3c
00000140: ed82 d33d 07e4 16ba cfaa 633d 3757 9a3d
00000150: 344f 1fbc f7f1 923d e471 1cbd 5d70 78bc
00000160: de4a 373d da07 ce3c 93f1 6fbd 90b5 b93d
00000170: 27c8 8fbd c892 44bd 1393 82bc 7b50 243d
00000180: 69ea a0bd 2b75 103c 32e1 07bd 01e3 883d
00000190: 1d20 2fbd ccee 0fbb 460b cb3d 3f66 bd3c
000001a0: a417 053c 4629 943d 19b9 b83d 0623 0bbd
000001b0: 4f88 773d f812 41bd ffae b6bd 0ecc 313c
000001c0: 3530 063d 80ec 563d 1ed1 2fbd c847 2b3d
000001d0: 7846 26bd c32c bdbd 42b1 95bc c88c 9f3d
000001e0: 22a8 ef3c 0877 8dbd 46ae 72bc c91d 6f3d
000001f0: 8fe1 57bd 9272 ddbc 7722 d83c fe75 6c3d
00000200: 596e a8bd 2d1a aabb 964e 82bd 2569 a8bc
00000210: b02d ae3d 7987 ec3d 41ec 103b cf57 1fbd

bn1.running_var f4 [136]
0.023504147 0.023674836 0.021385523 0.025512464 0.021806369 0.02608636 0.021259505 0.025499152
0.026100215 0.025957393 0.023055114 0.021127446 0.02394265 0.019664211 0.022835532 0.02507407
0.022879833 0.02612061 0.025398841 0.020081773 0.022947537 0.026498366 0.022952627 0.025558341
0.023334632 0.023199512 0.026190836 0.023897016 0.020962032 0.023715757 0.023001997 0.023167703
0.025535878 0.023102263 0.02440588 0.025207572 0.022900902 0.023684192 0.022451544 0.025100362
0.022083595 0.023553358 0.022718845 0.023700682 0.023276135 0.02590113 0.026824117 0.023129415
0.025237303 0.024282057 0.024276963 0.021413678 0.021131668 0.020402336 0.022337314 0.023168247
0.024203325 0.023849545 0.023063095 0.025626795 0.024383612 0.023972483 0.0231696 0.026425915
0.023237435 0.023848 0.02290417 0.02216373 0.022424337 0.02540566 0.022962878 0.022615608
0.02590323 0.022344278 0.022040619 0.023910929 0.021935957 0.024972858 0.021166516 0.023789177
0.023220254 0.022257213 0.022984307 0.022623412 0.02075354 0.023524953 0.02212396 0.024099557
0.021107808 0.024450583 0.023528622 0.024340998 0.023553705 0.022146445 0.021171434 0.026243238
0.02387477 0.02288576 0.023262806 0.021692228 0.026949255 0.024597622 0.024270834 0.023680354
0.023909472 0.02239267 0.022250105 0.026697317 0.02213291 0.021492712 0.02388745 0.020838108
0.020976314 0.025749814 0.023218961 0.021483881 0.024351038 0.024060192 0.021352163 0.026978053
0.025172997 0.021493595 0.02380001 0.026527043 0.026355466 0.02465224 0.024356887 0.023847777
0.022015924 0.0249713 0.022697225 0.024628475 0.023937602 0.026883565 0.02552765 0.025283564
00000000: c58b c03c bbf1 c13c b130 af3c 84ff d03c
00000010: 45a3 b23c 10b3 d53c 6a28 ae3c 99e3 d03c
00000020: 1ed0 d53c 99a4 d43c 14de bc3c 7713 ad3c
00000030: 6023 c43c d716 a13c 9511 bb3c 2368 cd3c
00000040: 7d6e bb3c e4fa d53c 3b11 d03c 8882 a43c
00000050: 79fc bb3c 1a13 d93c 2607 bc3c ba5f d13c
00000060: 4528 bf3c e70c be3c 2a8e d63c adc3 c33c
00000070: 91b8 ab3c 8c47 c23c af6e bc3c 32ca bd3c
00000080: 9e30 d13c f540 bd3c d7ee c73c 1c80 ce3c
00000090: ac9a bb3c 5a05 c23c 4dec b73c 469f cd3c
000000a0: a8e8 b43c f9f2 c03c df1c ba3c ef27 c23c
000000b0: 98ad be3c 9b2e d43c 40be db3c e679 bd3c
000000c0: 76be ce3c 2aeb c63c 7be0 c63c bd6b af3c
000000d0: 521c ad3c cd22 a73c befc b63c 56cb bd3c
000000e0: 0d46 c63c 1f60 c33c d1ee bc3c 49ef d13c
000000f0: 24c0 c73c f161 c43c 2cce bd3c 297b d83c
00000100: 6f5c be3c e25c c33c 87a1 bb3c b690 b53c
00000110: 3eb3 b73c 881f d03c a51c bc3c 5e44 b93c
00000120: 0333 d43c 590b b73c 878e b43c dae0 c33c
00000130: 09b3 b33c e193 cc3c 6765 ad3c 85e1 c23c
00000140: 6738 be3c c254 b63c 9649 bc3c bc54 b93c
00000150: 5403 aa3c 67b7 c03c 4f3d b53c 6f6c c53c
00000160: 48ea ac3c 974c c83c 19bf c03c c666 c73c
00000170: b3f3 c03c 766c b53c b76f ad3c 0ffc d63c
00000180: 0695 c33c eb7a bb3c a491 be3c e6b3 b13c
00000190: afc4 dc3c f480 c93c a1d3 c63c 4dfd c13c
000001a0: ccdd c33c d570 b73c da45 b63c 55b4 da3c
000001b0: 1450 b53c 7c11 b03c 9daf c33c aeb4 aa3c
000001c0: 85d6 ab3c 46f1 d23c b135 be3c f7fe af3c
000001d0: d47b c73c e119 c53c bbea ae3c 1401 dd3c
000001e0: 9a37 ce3c 5613 b03c 3df8 c23c 3e4f d93c
000001f0: 6be7 d73c 7ff3 c93c 1888 c73c 6a5c c33c
00000200: bd5a b43c 9d90 cc3c 88ef b93c a8c1 c93c
00000210: ca18 c43c ec3a dc3c 5d1f d13c 7a1f cf3c

fc1.weight f4 [68, 136]
0.0858001 0.10058364 0.09514972 0.009134469 0.08120911 0.01886199 0.006652305 0.03799656
0.15426354 -0.059585385 -0.06879204 0.08385601 0.08174615 -0.07440148 0.0023969568 0.10593124
-0.019405881 -0.004573441 0.03458368 0.021251373 -0.020545537 0.018190695 0.034377724 0.047572743
0.070992775 -0.056509264 0.07609314 0.045501936 0.0140119605 0.01691027 0.0073919627 0.024056703
0.08995037 -0.03260562 -0.052258022 0.0069959015 0.09094384 -0.019470956 -0.060832724 -0.06276461
-0.045355342 0.04567808 -0.011916968 -0.03902836 -0.10729482 0.024147177 0.0022046282 -0.003925625
-0.010317062 0.023972781 0.07470381 0.023820594 0.07689798 -0.06529566 -0.04569929 -0.046784416
-0.019177616 0.032424487 -0.07489152 -0.030266289 -0.034126114 0.042644877 0.04708992 -0.009423688
-0.017923035 0.07225469 0.011638378 -0.11668278 -0.03748721 -0.041094817 -0.036622394 -0.06565391
0.052567188 -0.0014292091 0.003199753 -0.042538967 0.028569492 0.069373064 0.056557693 0.0884078
-0.0032014342 0.05519407 0.09533012 0.09053315 -0.053915422 -0.039076477 -0.015217695 -0.043654248
-0.03551732 0.050202027 0.009784278 0.06254785 -0.031233381 0.015951231 -0.078012176 -0.05303464
0.03803158 0.0311407 0.055308856 -0.021926783 0.06850593 0.08414807 0.07598376 0.027754556
-0.011407037 0.09972153 -0.061632346 -0.03066958 0.0020295978 -0.0053017917 -0.042939946 -0.0425505
0.044639565 -0.024806635 -0.022617215 -0.06540917 0.024652485 0.033828985 0.0637531 0.05339251
-0.016190423 0.02845111 -0.02729834 -0.0036004265 0.013339448 -0.077311195 0.07248126 -0.059647046
0.0906266 0.07908884 0.10773722 -0.07154464 -0.057496864 -0.048851464 -0.030250685 -0.060788237
-0.10086248 -0.04945956 -0.065777756 0.04738262 0.047043458 0.02661818 -0.07653076 0.03659045
-0.019613182 0.08240145 0.08251737 -0.07926919 -0.024120968 0.023014124 0.06815673 -0.04524746
-0.0028637492 0.03648319 0.072643094 -0.013651574 -0.05088153 -0.06262451 0.012291058 -0.06215497
-0.042407744 -0.09871469 -0.08664398 0.047382414 0.040388875 0.07236585 -0.02722064 -0.02865144
-0.022538712 0.055908363 0.042347025 -0.061722767 -0.082762964 -0.022062786 0.000195918 -0.03677865
0.014449378 0.06315667 -0.08124505 0.06178429 -0.014708004 -0.028684743 -0.041146237 -0.03563299
-0.13004415 0.052981913 -0.047358494 -0.08895985 -0.081623234 0.05838738 0.00035151414 0.06601662
0.045028586 -0.0708656 0.05034574 -0.012150919 -0.07237265 -0.017820062 0.063556746 0.07910304
-0.018939989 -0.100093916 -0.066519946 0.0878081 0.017922966 -0.053571142 -0.03934282 -0.010234085
0.0052661966 0.03039072 0.0018796908 0.035633214 -0.041335143 0.03300993 -0.1259236 0.023924854
-0.0070828837 -0.06369677 -0.08226117 -0.12130065 0.04412782 0.007485261 -0.016520228 0.060571767
-0.03897842 0.013230114 -0.08237072 -0.010525204 -0.0061189956 0.073919065 -0.061488364 -0.011277013
0.0028285685 -0.057327993 -0.08500924 -0.05282803 0.019269047 -0.08159054 -0.08256617 -0.07431396
0.11337277 -0.013873793 -0.060370825 -0.021005487 -0.08629698 0.09084209 0.041954175 0.02398472
-0.087291285 0.031629622 -0.038490772 -0.028195223 -0.033593506 0.0170654 -0.09252865 -0.023797387
00000000: f6b7 af3d ccfe cd3d dbdd c23d bda8 153c
00000010: f650 a63d 7684 9a3c 94fb d93b 48a2 1b3d
00000020: 43f7 1d3e ce0f 74bd d7e2 8cbd b3bc ab3d
00000030: 876a a73d ce5f 98bd 4316 1d3b 7af2 d83d
00000040: 15f9 9ebc cedc 95bb 9ea7 0d3d 5c17 ae3c
00000050: 1d4f a8bc a704 953c a8cf 0c3d a3db 423d
00000060: a964 913d 4276 67bd b8d6 9b3d 3d60 3a3d
00000070: 6c92 653c 6887 8a3c 4738 f23b 9012 c53c
00000080: e637 b83d 788d 05bd 820c 56bd e03d e53b
00000090: c440 ba3d 8e81 9fbc bc2b 79bd bb8a 80bd
000000a0: 86c6 39bd f018 3b3d 633f 43bc 34dc 1fbd
000000b0: 63bd dbbd 4dd0 c53c 867b 103b 87a2 80bb
000000c0: e508 29bc 9162 c43c 50fe 983d 6823 c33c
000000d0: b07c 9d3d bbb9 85bd 2e2f 3bbd 04a1 3fbd
000000e0: 601a 9dbc 8acf 043d ba60 99bd 02f1 f7bc
000000f0: d3c7 0bbd 65ac 2e3d 5ce1 403d d065 1abc
00000100: 54d3 92bc 44fa 933d e5ae 3e3c 62f7 eebd
00000110: 308c 19bd 0a53 28bd 5d01 16bd 8f75 86bd
00000120: b150 573d 4d54 bbba f2b2 513b 573d 2ebd
00000130: 910a ea3c 7713 8e3d 0aa9 673d 260f b53d
00000140: 27cf 51bb 2d13 623d 703c c33d 7269 b93d
00000150: 6bd6 5cbd a80e 20bd a453 79bc ccce 32bd
00000160: 9c7a 11bd a4a0 4d3d 3d4e 203c 1619 803d
00000170: 26dd ffbc 28ac 823c d9c4 9fbd da3a 59bd
00000180: 01c7 1b3d c81a ff3c 8a8b 623d cc9f b3bc
00000190: d64c 8c3d d355 ac3d 609d 9b3d 865d e33c
000001a0: 95e4 3abc cd3a cc3d 3372 7cbd c53e fbbc
000001b0: 0003 053b a7ba adbb cce1 2fbd 6f49 2ebd
000001c0: fad7 363d 4937 cbbc bd47 b9bc 3ef5 85bd
000001d0: 02f4 c93c 4390 0a3d fc90 823d 1bb2 5a3d
000001e0: c7a1 84bc 4d12 e93c c5a0 dfbc 22f5 6bbb
000001f0: b38d 5a3c 5555 9ebd 0e71 943d 7650 74bd
00000200: 709a b93d 54f9 a13d 55a5 dc3d ff85 92bd
00000210: d581 6bbd 7918 48bd 49d0 f7bc 16fd 78bd
00000220: fd90 cebd 1c96 4abd 7db6 86bd 4714 423d
00000230: a4b0 403d 5f0e da3c 29bc 9cbd dedf 153d
00000240: d3ab a0bc 17c2 a83d defe a83d e357 a2bd
00000250: 5699 c5bc 1e88 bc3c c195 8b3d 6755 39bd
00000260: bdad 3bbb 666f 153d e7c5 943d daaa 5fbc
00000270: 2769 50bd 4741 80bd 6f60 493c 3696 7ebd
00000280: beb3 2dbd ed2a cabd 6672 b1bd 1014 423d
00000290: ce6e 253d 8c34 943d d2fd debc 6db6 eabc
000002a0: 1ba3 b8bc 2b00 653d 1374 2d3d 03d1 7cbd
000002b0: a17f a9bd 04bd b4bc 566f 4d39 36a5 16bd
000002c0: 15bd 6c3c 4958 813d ce63 a6bd 8611 7d3d
000002d0: d7f9 70bc 44fc eabc f588 28bd e6f3 11bd
000002e0: 4b2a 05be 9003 593d fbfa 41bd 9530 b6bd
000002f0: 152a a7bd 9b27 6f3d 6e4b b839 b933 873d
00000300: e56f 383d fc21 91bd 5637 4e3d a614 47bc
00000310: 1d38 94bd 61fb 91bc 0a2a 823d c600 a23d
00000320: 0928 9bbc 0afe ccbd 9c3b 88bd bcd4 b33d
00000330: 2fd3 923c 6a6d 5bbd f025 21bd ddac 27bc
00000340: 0f90 ac3b f6f5 f83c f55f f63a 22f4 113d
00000350: 0a4f 29bd 6c35 073d 1ef2 00be 0efe c33c
00000360: 8917 e8bb 7473 82bd 8b78 a8bd 7a6c f8bd
00000370: 5fbf 343d ec46 f53b 6e55 87bc 1a1a 783d
00000380: d6a7 1fbd 1fc3 583c fbb1 a8bd e871 2cbc
00000390: db81 c8bb e162 973d 39db 7bbd 39c3 38bc
000003a0: 815f 393b c2d0 6abd 5319 aebd 3462 58bd
000003b0: 1fda 9d3c f118 a7bd 7418 a9bd eb31 98bd
000003c0: fc2f e83d e84e 63bc 6647 77bd b313 acbc
000003d0: 79bc b0bd 6b0b ba3d 24d8 2b3d 9b7b c43c
000003e0: c6c5 b2bd 108e 013d 80a8 1dbd abf9 e6bc
000003f0: 5899 09bd bdcc 8b3c a97f bdbd bdf2 c2bc

fc1.bias f4 [68]
-0.0151047325 0.06394747 -0.028264796 0.044003505 0.008869536 0.07372897 -0.020990783 0.06751006
-0.021056876 0.013169339 -0.08415332 0.043717556 -0.040273733 0.020085115 0.046104554 -0.07799823
-0.03300024 -0.022169081 0.014513528 -0.014046548 0.045727722 -0.04826325 -0.050446387 -0.064649396
-0.028760491 0.01148829 -0.031084608 -0.004853596 -0.07997396 0.006466101 -0.024597427 -0.022871986
-0.010963066 0.029893748 0.005560042 0.034952834 -0.049888637 0.0029612838 0.06806324 -0.08473218
-0.03725755 -0.016118335 -0.015857788 -0.07697787 -0.043338522 -0.08287622 -0.08163582 0.06054282
0.06379812 0.048200186 -0.06327701 0.04297957 0.02361438 -0.07372253 -0.04603351 -0.01800795
-0.0015014264 -0.078432344 0.07390334 0.044033777 -0.021719724 -0.036802374 0.07747037 0.088492215
0.0068454547 0.04728286 -0.05975682 0.005507035
00000000: d779 77bc e4f6 823d 938b e7bc 053d 343d
00000010: 8851 113c 37ff 963d ddf4 abbc b742 8a3d
00000020: 787f acbc 36c4 573c 9358 acbd 2e11 333d
00000030: 12f6 24bd 8a89 a43c 21d8 3c3d 89bd 9fbd
00000040: 422b 07bd ef9b b5bc 26ca 6d3c 7e23 66bc
00000050: fe4c 3b3d b0af 45bd dfa0 4ebd e766 84bd
00000060: 1f9b ebbc 6139 3c3c 26a5 febc ea0a 9fbb
00000070: 63c9 a3bd 96e1 d33b 8b80 c9bc 085e bbbc
00000080: 6e9e 33bc bce3 f43c 0331 b63b b42a 0f3d
00000090: 0758 4cbd 1912 423b bd64 8b3d 1188 adbd
000000a0: 5f9b 18bd 990a 84bc 31e8 81bc 93a6 9dbd
000000b0: bc83 31bd 02bb a9bd ae30 a7bd bffb 773d
000000c0: 97a8 823d 8f6d 453d 6197 81bd 580b 303d
000000d0: f272 c13c d6fb 96bd a28d 3cbd 6985 93bc
000000e0: 83cb c4ba 23a1 a0bd a25a 973d c35c 343d
000000f0: 90ed b1bc 16be 16bd c9a8 9e3d 683b b53d
00000100: d64f e03b acab 413d 91c3 74bd 5c74 b43b

bn2.weight f4 [68]
1.0487164 1.0552046 0.9000742 0.98625374 0.9520388 0.92161316 1.0511129 1.0445142
1.0116994 1.062266 1.0075876 0.96130776 1.0023631 0.94830394 0.9878887 1.0707521
0.96657586 0.9929518 1.0200008 1.019332 0.9820196 1.0189923 0.96927834 1.0174286
0.891363 0.9338707 0.94009364 0.93144405 0.90476614 1.0832874 1.0368129 0.9526451
0.9829315 1.0395778 0.97698534 1.0049094 0.9311603 1.0622712 0.9283376 0.980318
1.076956 1.0142496 0.9710042 0.9253336 1.0244393 0.9609863 1.0362134 0.92307264
0.9539393 1.130454 1.0382133 0.95845693 1.0267183 0.9637299 0.9981321 1.0592116
1.0025113 0.9050497 0.9576556 1.0258939 0.9637412 1.0395448 0.97037226 1.0067322
0.99589187 1.0260234 1.0147771 0.9739098
00000000: 573c 863f f210 873f 436b 663f 207b 7c3f
00000010: d1b8 733f d7ee 6b3f de8a 863f a4b2 853f
00000020: 5e7f 813f 55f8 873f a1f8 803f 4418 763f
00000030: 6f4d 803f 0cc4 723f 46e6 7c3f 680e 893f
00000040: 8471 773f 1732 7e3f 638f 823f 7979 823f
00000050: a365 7b3f 576e 823f a022 783f 1a3b 823f
00000060: 5e30 643f 2612 6f3f faa9 703f 1e73 6e3f
00000070: c19e 673f 29a9 8a3f 49b6 843f 8de0 733f
00000080: 66a1 7b3f e310 853f b61b 7a3f dfa0 803f
00000090: 8560 6e3f 81f8 873f 88a7 6d3f 1ff6 7a3f
000000a0: b2d9 893f eed2 813f bb93 783f aae2 6c3f
000000b0: d420 833f 3303 763f a4a2 843f 7d4e 6c3f
000000c0: 5e35 743f b7b2 903f 2ce4 843f 6f5d 753f
000000d0: 816b 833f 01b7 763f 9685 7f3f 3f94 873f
000000e0: 4a52 803f 56b1 673f eb28 753f 7e50 833f
000000f0: beb7 763f ce0f 853f 516a 783f 9adc 803f
00000100: c5f2 7e3f bc54 833f 37e4 813f 2752 793f

bn2.bias f4 [68]
0.014196236 0.08751172 -0.06848283 -0.047688168 -0.050730884 -0.07348196 -0.033784706 -0.031949088
0.0139001375 0.035356328 -0.0345107 -0.050815176 0.026521731 -0.05731068 -0.021980904 0.0151259145
-0.033793706 -0.035169158 0.0021729164 0.010048947 -0.04701949 -0.021206751 -0.009128084 0.0013594963
-0.076863214 -0.08290624 -0.05045582 -0.052994065 -0.060636897 0.05290852 -0.016936244 -0.048745297
-0.022517838 0.006444753 -0.030176796 -0.0033015846 -0.059783746 0.045347057 -0.029163472 -0.0103672715
0.052715868 -0.029807644 -0.03676524 -0.038590845 -0.01878187 -0.057603374 0.020661892 -0.08152174
-0.045687675 0.09866766 0.032744583 -0.04395422 -0.019605655 -0.029950192 0.019136995 -0.0065911147
-0.015594948 -0.077408314 -0.03226726 -0.022928013 -0.016786171 0.016077949 -0.023060108 -0.031041376
-0.023765627 -0.0005308156 -0.011587318 -0.055002723
00000000: 5497 683c 5839 b33d ba40 8cbd ab54 43bd
00000010: 30cb 4fbd b67d 96bd d561 0abd 0cdd 02bd
00000020: 67bd 633c ccd1 103d 175b 0dbd 9323 50bd
00000030: 1a44 d93c 9bbe 6abd 4c11 b4bc afd2 773c
00000040: 456b 0abd 890d 10bd 7d67 0e3b 57a4 243c
00000050: 8297 40bd c8b9 adbc f68d 15bc 2031 b23a
00000060: 766a 9dbd bfca a9bd c3aa 4ebd 4e10 59bd
00000070: 655e 78bd 9bb6 583d e1bd 8abc 26a9 47bd
00000080: 5477 b8bc 822e d33b 5435 f7bc 665f 58bb
00000090: cddf 74bd d6bd 393d 3ce8 eebc 7ddb 29bc
000000a0: 98ec 573d 292f f4bc 2697 16bd 6f11 1ebd
000000b0: 70dc 99bc 84f1 6bbd 2143 a93c dff4 a6bd
000000c0: 0023 3bbd 4512 ca3d 2f1f 063d 5709 34bd
000000d0: 0a9c a0bc 1b5a f5bc 30c5 9c3c 47fa d7bb
000000e0: f481 7fbc 4088 9ebd ad2a 04bd 87d3 bbbc
000000f0: 2783 89bc e7b5 833c 8de8 bcbc 7c4a febc
00000100: 22b0 c2bc 6f26 0bba bcd8 3dbc 894a 61bd

bn2.running_mean f4 [68]
0.37576205 -0.5140893 -0.11744364 0.7003587 -0.2424955 0.17701808 -0.051918942 0.30258828
0.41578734 0.28401768 0.016519299 -0.050114516 0.28459674 0.07653764 0.11211281 -0.45087442
-0.66537505 -0.16187096 -0.591625 0.28041762 -0.015448574 0.32088882 -0.34807044 -0.68473166
0.3898916 0.46704423 -0.088995315 0.09764353 -0.09658181 -0.8292426 0.19745247 -0.25881234
0.3381399 0.20120272 0.24190935 0.482638 -0.09550471 -0.6648225 -0.16591793 0.114007466
0.36598545 0.13679527 -0.04816832 -0.04089577 -0.6073278 -0.50567496 0.0069206487 0.112234436
0.2272953 0.08620264 -0.76000696 -0.1124599 -0.51104873 -0.38363189 -0.2841846 -0.69116354
0.018316833 -0.5780023 0.32497707 -0.4021244 0.051762696 -0.2841791 0.4762586 0.34941542
0.16014785 -0.032577123 0.116327606 -0.1481154
00000000: e263 c03e 5b9b 03bf 4b86 f0bd b54a 333f
00000010: be50 78be 3a44 353e f5a8 54bd daec 9a3e
00000020: 14e2 d43e c46a 913e 7b53 873c e144 4dbd
00000030: aab6 913e c4bf 9c3d 679b e53d 03d9 e6be
00000040: 0556 2abf 80c1 25be bc74 17bf e692 8f3e
00000050: 041c 7dbc 8a4b a43e 4a36 b2be 934a 2fbf
00000060: df9f c73e 6c20 ef3e 2d43 b6bd 55f9 c73d
00000070: afcc c5bd 3e49 54bf fb30 4a3e 0d83 84be
00000080: ac20 ad3e 1608 4e3e 16b7 773e 541c f73e
00000090: f997 c3bd cf31 2abf 64e6 29be bf7c e93d
000000a0: 7262 bb3e 0f14 0c3e 254c 45bd 5382 27bd
000000b0: d679 1bbf ea73 01bf 9cc6 e23b 2bdb e53d
000000c0: 19c0 683e 028b b03d d18f 42bf 6051 e6bd
000000d0: 17d4 02bf 666b c4be a580 91be 18f0 30bf
000000e0: 2f0d 963c f5f7 13bf 6563 a63e 40e3 cdbe
000000f0: 1f05 543d ec7f 91be 2bd8 f33e 94e6 b23e
00000100: ccfd 233e 976f 05bd 2b3d ee3d 90ab 17be

bn2.running_var f4 [68]
0.331198 0.5082335 0.23681165 0.3141308 0.2920401 0.22200525 0.44554827 0.35367832
0.33677033 0.42410606 0.3827884 0.28824666 0.44173527 0.37408122 0.35784554 0.47602344
0.38149723 0.36678386 0.44859156 0.4256916 0.3692334 0.37984914 0.26297313 0.40534738
0.27465433 0.25092283 0.26739693 0.20008084 0.20143789 0.52956635 0.44782025 0.33478856
0.34882763 0.34229043 0.26267916 0.32847387 0.24386944 0.5408109 0.27547136 0.35734046
0.47598708 0.43604898 0.31019914 0.23799668 0.55308205 0.31759945 0.43819395 0.22649477
0.34059536 0.5838891 0.46271572 0.27554566 0.44441724 0.34966448 0.41462484 0.49620074
0.35474363 0.24650186 0.27890137 0.39875835 0.26395878 0.44532084 0.28963 0.29463273
0.29372212 0.41857523 0.43342176 0.28767583
00000000: c992 a93e 971b 023f c17e 723e c1d5 a03e
00000010: 4886 953e 5855 633e e71e e43e 5315 b53e
00000020: 296d ac3e 6e24 d93e d7fc c33e 1195 933e
00000030: 202b e23e 9387 bf3e 8837 b73e 58b9 f33e
00000040: 9b53 c33e 18cb bb3e cbad e53e 40f4 d93e
00000050: 290c bd3e 967b c23e 6aa4 863e b189 cf3e
00000060: 7e9f 8c3e f578 803e 40e8 883e fee1 4c3e
00000070: bc45 4e3e a991 073f b248 e53e 6869 ab3e
00000080: 8999 b23e b140 af3e e27d 863e ba2d a83e
00000090: e9b8 793e 9572 0a3f 950a 8d3e 54f5 b63e
000000a0: 94b4 f33e d041 df3e 6cd2 9e3e 67b5 733e
000000b0: c996 0d3f 659c a23e f55a e03e 3fee 673e
000000c0: 8462 ae3e c279 153f 13e9 ec3e 5214 8d3e
000000d0: a88a e33e 3907 b33e b549 d43e 060e fe3e
000000e0: f5a0 b53e fc6a 7c3e 29cc 8e3e 0e2a cc3e
000000f0: 9b25 873e 1801 e43e 624a 943e 1ada 963e
00000100: bf62 963e 7e4f d63e 75e9 dd3e 3f4a 933e

fc2.weight f4 [34, 68]
-0.07515305 -0.057956368 0.031195771 0.06535553 0.06076451 0.0795541 -0.10906809 -0.047409296
-0.11658361 -0.1628893 0.01598008 -0.0341133 0.008333936 0.09485062 -0.018799264 -0.054415695
0.027088664 -0.036336645 0.1296518 0.03960342 -0.016843205 -0.14932328 -0.06722501 0.0017140278
-0.02829577 0.016724484 0.06919095 -0.09635617 -0.06908481 0.122417666 0.012097031 0.076602325
0.040673558 -0.04659867 -0.06578347 -0.08233389 -0.08769942 -0.032952297 0.056907218 -0.023301234
-0.11724675 -0.019270845 0.103936315 -0.021585824 0.13059078 0.020745648 -0.05864385 -0.05763969
0.04340353 -0.15117906 0.13091111 0.017566502 0.044332568 -0.031104667 -0.07878597 0.10167446
-0.05266466 0.011025893 -0.03456838 0.08441293 -0.07921927 0.036242235 -0.00887343 -0.13161846
-0.12697366 0.018812135 -0.051763535 -0.035452336 -0.15719675 0.16430081 -0.054100685 0.067102395
-0.029871313 -0.11937372 -0.006414665 -0.06733719 -0.11621916 -0.05583028 0.059891194 0.016757479
-0.07056291 -0.078574084 -0.12497367 0.06976636 0.104425795 -0.005369437 0.03165042 -0.054161176
-0.0033030943 0.03357072 0.055026423 0.077547684 0.083748676 -0.14482576 -0.10779382 0.10222838
-0.033915635 0.1157725 -0.093626596 -0.04031182 -0.18392245 -0.040705193 0.032497324 -0.121802256
-0.02276789 0.0691631 0.07072427 0.045316607 -0.09872558 -0.12628178 -0.071940355 0.06726257
-0.048280474 0.056487925 -0.052791826 -0.10143522 0.009545878 0.029375354 0.030146992 -0.08692648
-0.026566366 -0.030900149 0.0311384 -0.013875409 0.016305896 0.06422541 -0.085313655 0.11207266
-0.042896785 0.06532247 -0.12755075 -0.011972773 0.0018113416 -0.118943594 0.03507897 -0.056089792
0.06201132 -0.08619578 0.05072438 -0.081561625 0.019863823 -0.06787094 0.1295036 -0.06166549
-0.07640139 0.15099077 -0.042787585 0.06288516 0.010689156 -0.018260157 0.0069058947 -0.12927893
0.082819976 0.03289908 0.019739736 0.082681336 -0.01692999 0.029557046 -0.09803066 0.07132319
-0.11045062 -0.09338453 0.06111469 -0.006632084 -0.029040098 -0.07338218 0.12192868 -0.08841324
0.0053455876 -0.03470105 0.111783616 -0.004386292 0.07795572 -0.073835544 0.025756793 0.06180265
0.018802531 0.059867147 0.01071699 -0.06222315 0.012101236 -0.02617062 0.13526355 0.00523905
0.046355836 0.08109209 -0.03327854 -0.12185727 -0.08484159 -0.008604042 -0.111689314 -0.024253666
0.030034222 -0.0065652225 0.15324043 0.056450713 -0.05357921 -0.08784085 0.041756816 0.10573067
0.061729506 0.055599783 0.036959697 0.051741768 -0.053165164 -0.08093349 0.06636783 0.13743794
0.058781955 0.009572437 0.16267122 -0.049713217 0.10412936 -0.023642056 -0.030517733 -0.042278063
-0.0057895575 0.028584681 -0.08591416 -0.02147358 -0.07321532 -0.016160984 -0.12312574 0.016802285
0.11169531 0.08861462 -0.050106924 -0.050200608 -0.002970388 0.06925293 -0.15855198 0.0033422725
-0.03312299 -0.12578619 0.06358246 0.059190016 0.065140955 -0.03713335 0.11542245 -0.018306527
-0.045138568 -0.13917218 -0.009714047 0.04730193 0.11442371 -0.018543487 -0.107268006 0.0940867
-0.13615923 0.03018972 0.10771373 0.033893548 0.07598887 0.17605594 -0.16176261 0.07839442
00000000: d8e9 99bd a863 6dbd 468e ff3c 1fd9 853d
00000010: 35e4 783d 43ed a23d 175f dfbd 4030 42bd
00000020: 63c3 eebd 74cc 26be a8e8 823c 63ba 0bbd
00000030: 108b 083c 0b41 c23d ea00 9abc fee2 5ebd
00000040: 0ce9 dd3c bcd5 14bd 71c3 043e 3237 223d
00000050: c3fa 89bc 34e8 18be 44ad 89bd 3ba9 e03a
00000060: 88cc e7bc c901 893c fcb3 8d3d 6256 c5bd
00000070: 567c 8dbd 1db6 fa3d a032 463c aee1 9c3d
00000080: 5199 263d 3fde 3ebd 7cb9 86bd ac9e a8bd
00000090: c19b b3bd fdf8 06bd 8b17 693d 3be2 bebc
000000a0: 101f f0bd e4dd 9dbc 90dc d43d c1d4 b0bc
000000b0: 97b9 053e c7f2 a93c 8934 70bd 9817 6cbd
000000c0: e6c7 313d afce 1abe 900d 063e a0e7 8f3c
000000d0: 1196 353d 37cf febc 8a5a a1bd b33a d03d
000000e0: e6b6 57bd f2a5 343c 9397 0dbd b0e0 ac3d
000000f0: b63d a2bd bd72 143d dd61 11bc fdc6 06be
00000100: 6205 02be e81b 9a3c 0006 54bd 7836 11bd
00000110: 2ff8 20be 793e 283e ae98 5dbd fb6c 893d
00000120: afb4 f4bc 357a f4bd 1c32 d2bb 15e8 89bd
00000130: 5004 eebd 4bae 64bd 7850 753d fb46 893c
00000140: 4983 90bd 73eb a0bd 32f2 ffbd aae1 8e3d
00000150: 31dd d53d 1af2 afbb dfa3 013d 1cd8 5dbd
00000160: ba78 58bb 7481 093d 6363 613d 52d1 9e3d
00000170: 6d84 ab3d 344d 14be 02c3 dcbd 1d5d d13d
00000180: 1feb 0abd 221a ed3d 4dbf bfbd 021e 25bd
00000190: 2b56 3cbe 7dba 26bd ea1b 053d 7673 f9bd
000001a0: ba83 babc 62a5 8d3d e3d7 903d e89d 393d
000001b0: a330 cabd 0350 01be 7755 93bd f5c0 893d
000001c0: bfc1 45bd e25f 673d 3e3c 58bd 45bd cfbd
000001d0: 5066 1c3c 95a4 f03c d3f6 f63c 8306 b2bd
000001e0: b5a1 d9bc 4f22 fdbc f515 ff3c af55 63bc
000001f0: f193 853c 9d88 833d edb8 aebd 5a86 e53d
00000200: 8ab4 2fbd cac7 853d aa9c 02be 7329 44bc
00000210: 8a6a ed3a b398 f3bd f7ae 0f3d 69be 65bd
00000220: 95ff 7d3d 6a87 b0bd 5ec4 4f3d c809 a7bd
00000230: 75b9 a23c ebff 8abd 979c 043e f494 7cbd
00000240: 5578 9cbd 539d 1a3e 0942 2fbd efc9 803d
00000250: 9221 2f3c 5396 95bc d84a e23b b261 04be
00000260: 859d a93d 30c1 063d 3ab5 a13c d554 a93d
00000270: c3b0 8abc 9e21 f23c 4cc4 c8bd e511 923d
00000280: ef33 e2bd 6340 bfbd 6653 7a3d f451 d9bb
00000290: 80e5 edbc 6549 96bd beb5 f93d 0012 b5bd
000002a0: 0a2a af3b b022 0ebd cfee e43d e2ba 8fbb
000002b0: 40a7 9f3d 1737 97bd e9ff d23c c724 7d3d
000002c0: c407 9a3c 4137 753d 5096 2f3c b4dd 7ebd
000002d0: 4344 463c c563 d6bc 8782 0a3e 56ac ab3b
000002e0: 9edf 3d3d 9c13 a63d 144f 08bd 4e90 f9bd
000002f0: 6dc1 adbd f8f7 0cbc 5ebd e4bd a0af c6bc
00000300: 540a f63c 1421 d7bb 0feb 1c3e dd38 673d
00000310: e075 5bbd e7e5 b3bd 3209 2b3d 5289 d83d
00000320: 14d8 7c3d 99bc 633d 0d63 173d 2def 533d
00000330: b7c3 59bd 75c0 a5bd dbeb 873d 88bc 0c3e
00000340: 59c5 703d b6d5 1c3c 4993 263e 16a0 4bbd
00000350: c641 d53d fcac c1bc 5300 fabc c32b 2dbd
00000360: 54b6 bdbb 6c2a ea3c c3f3 afbd 5ce9 afbc
00000370: eaf1 95bd 0a64 84bc 5929 fcbd f2a4 893c
00000380: 83c0 e43d 957b b53d eb3c 4dbd 279f 4dbd
00000390: d7aa 42bb 7bd4 8d3d 735b 22be 070a 5b3b
000003a0: f9ab 07bd 18ce 00be 8537 823d 3b71 723d
000003b0: 9f68 853d 2419 18bd 9b62 ec3d 92f7 95bc
000003c0: 38e3 38bd 2783 0ebe ab27 1fbc abbf 413d
000003d0: fa56 ea3d 83e8 97bc 54af dbbd 87b0 c03d
000003e0: 536d 0bbe 6f50 f73c 0499 dc3d f6d3 0a3d
000003f0: 0da0 9b3d 0248 343e 19a5 25be 418d a03d

fc2.bias f4 [34]
0.096187085 0.081592724 -0.07954742 -0.054619208 -0.09872655 -0.10914926 -0.046865698 0.00862976
0.06493621 0.10136434 0.07979769 -0.046940215 -0.029632388 0.04936032 0.0036757302 -0.04114809
-0.026019096 -0.06550439 -0.10467695 0.0052544917 0.07154618 0.055082362 -0.026446216 -0.058827795
-0.07680341 0.03519781 -0.08017451 -0.06954448 -0.05834366 -0.09266248 0.06543869 0.0020561602
-0.017283717 0.06761546
00000000: bcfd c43d 161a a73d c2e9 a2bd 64b8 5fbd
00000010: 2531 cabd a689 dfbd 3ff6 3fbd d663 0d3c
00000020: 47fd 843d 1b98 cf3d f96c a33d 6244 40bd
00000030: 9fbf f2bc 0c2e 4a3d 85e4 703b e68a 28bd
00000040: 0026 d5bc 2a27 86bd de60 d6bd df2d ac3b
00000050: ce86 923d 0b9e 613d bca5 d8bc 6af5 70bd
00000060: 1b4b 9dbd 942b 103d 8932 a4bd 566d 8ebd
00000070: c3f9 6ebd d4c5 bdbd b804 863d a5c0 063b
00000080: 9596 8dbc f979 8a3d

bn3.weight f4 [34]
0.99906737 0.9856942 1.0818676 1.0937312 1.1594328 1.0300347 1.0717974 1.0728738
1.077447 1.0571083 1.0980006 1.1266899 1.0283995 1.1740105 1.112456 1.1494559
1.0372355 0.98520803 1.0879846 1.0127051 1.0712895 1.1311176 1.1232278 1.0819916
1.0972625 1.2023484 1.0971727 1.1346556 1.0527384 1.1248665 1.1365763 1.107765
1.1659409 1.0386801
00000000: e1c2 7f3f 7556 7c3f a37a 8a3f 62ff 8b3f
00000010: 4b68 943f 2dd8 833f a830 893f ee53 893f
00000020: c9e9 893f 534f 873f 498b 8c3f 6037 903f
00000030: 98a2 833f fa45 963f f564 8e3f 5f21 933f
00000040: 22c4 843f 9836 7c3f 1443 8b3f 52a0 813f
00000050: 0420 893f 76c8 903f eec5 8f3f b37e 8a3f
00000060: 1973 8c3f 8de6 993f 2870 8c3f 653c 913f
00000070: 22c0 863f a0fb 8f3f 557b 913f 3ecb 8d3f
00000080: 8d3d 953f 78f3 843f

bn3.bias f4 [34]
0.002611557 0.0034468048 0.085334994 0.082758136 0.13227805 0.022527875 0.06708336 0.05889205
0.08678535 0.027095828 0.10619046 0.09855213 0.027371071 0.1611322 0.09348477 0.15741645
0.04241882 -0.012326259 0.08430403 0.019147446 0.056249294 0.06975153 0.110429734 0.11244275
0.072076164 0.10736938 0.084264785 0.09910536 0.04701475 0.08794867 0.14721657 0.089033045
0.097839974 0.042574085
00000000: a826 2b3b cae3 613b 1dc4 ae3d 197d a93d
00000010: e673 073e 618c b83c 0063 893d ca38 713d
00000020: 85bc b13d 12f8 dd3c 627a d93d b3d5 c93d
00000030: 4c39 e03c d7ff 243e f174 bf3d c731 213e
00000040: 5bbf 2d3d 14f4 49bc 97a7 ac3d 1bdb 9c3c
00000050: a965 663d e4d9 8e3d fc28 e23d 6248 e63d
00000060: ab9c 933d 7ae4 db3d 0493 ac3d c0f7 ca3d
00000070: 8a92 403d 6f1e b43d f1bf 163e f556 b63d
00000080: 5360 c83d 2a62 2e3d

bn3.running_mean f4 [34]
-0.2667489 -0.33170903 0.104630366 -0.09246992 -0.08752065 -0.31414744 -0.21129385 -0.15389667
-0.08371553 0.23096871 0.028914517 -0.40512204 -0.29309952 0.24897861 0.01123877 -0.0072359433
0.15502656 -0.05625035 -0.37382883 -0.074256405 -0.32377946 -0.36862326 -0.2859396 -0.07000735
-0.41903841 -0.13577378 -0.18749613 -0.42686802 0.16903815 -0.50497353 0.13561799 -0.3905801
-0.32605264 -0.1474443
00000000: 5093 88be c4d5 a9be 7248 d63d df60 bdbd
00000010: 073e b3bd efd7 a0be 6a5d 58be 1797 1dbe
00000020: 0c73 abbd 1083 6c3e 23de ec3c 286c cfbe
00000030: 2411 96be 40f4 7e3e d122 383c 7e1b edbb
00000040: 48bf 1e3e c466 66bd 7e66 bfbe be13 98bd
00000050: 6cc6 a5be 30bc bcbe ad66 92be 0360 8fbd
00000060: 348c d6be 4808 0bbe fcfe 3fbe 728e dabe
00000070: 5618 2d3e f245 01bf 71df 0a3e 1dfa c7be
00000080: 5ff0 a6be a3fb 16be

bn3.running_var f4 [34]
1.0046042 0.807338 0.8430591 1.1068145 1.6836921 1.2247076 1.0455369 1.2440699
1.141422 1.0754695 1.1734446 1.6548373 1.0130975 1.6485069 0.9224856 1.0883757
0.686518 0.2992961 0.9238695 1.1025859 1.1960893 1.5978059 1.1615465 1.1279571
1.5429804 1.785962 0.9642521 1.4489363 0.8281514 2.134172 1.0086696 1.6512305
1.6082138 1.1495129
00000000: df96 803f b4ad 4e3f b9d2 573f 19ac 8d3f
00000010: 3983 d73f 38c3 9c3f 27d4 853f af3d 9f3f
00000020: 1e1a 923f fca8 893f 6f33 963f b5d1 d33f
00000030: 2ead 813f 4602 d33f 0428 6c3f e54f 8b3f
00000040: a5bf 2f3f 573d 993e b682 6c3f 8921 8d3f
00000050: 7419 993f e784 cc3f 8ead 943f e660 903f
00000060: 6280 c53f 679a e43f 3ad9 763f bf76 b93f
00000070: bb01 543f 4696 0840 161c 813f 855b d33f
00000080: f3d9 cd3f 3d23 933f

out.weight f4 [2, 34]
0.1653914 0.10062801 -0.15157233 -0.14427651 0.02914741 0.15167667 0.21658638 -0.11827321
-0.15062363 0.20082156 -0.06981632 0.21807954 0.029612428 -0.2726938 -0.14194481 -0.2057
0.02297966 -0.17628655 -0.09658037 0.17082962 0.062453028 -0.022164473 8.5778796e-05 -0.13287844
0.027095078 0.19281192 -0.10803974 0.21502757 -0.0888505 0.07922477 -0.21380237 0.0028954397
0.11318656 0.13674717 -0.10675323 -0.043345798 0.10298391 0.056187738 0.23204342 -0.16080523
-0.0058403085 0.16215609 0.1484184 0.06920721 0.15784846 -0.025255973 -0.18407883 -0.034374997
0.0559266 0.014207194 0.17351899 -0.15279756 0.12855889 -0.16182368 -0.12887561 -0.25352067
-0.19156955 0.1247042 -0.10997341 -0.036956135 0.17380802 0.0019977184 0.12115547 -0.08139092
-0.028970188 -0.21024394 -0.08276884 -0.08706582
00000000: 5d5c 293e 0f16 ce3d c735 1bbe 39bd 13be
00000010: 8dc6 ee3c 2151 1b3e d2c8 5d3e 3a39 f2bd
00000020: 153d 1abe 2ba4 4d3e dcfb 8ebd 3e50 5f3e
00000030: c395 f23c 869e 8bbe fb59 11be 05a3 52be
00000040: d73f bc3c 7684 34be eecb c5bd f6ed 2e3e
00000050: bfce 7f3d 4592 b5bc 24e4 b338 4911 08be
00000060: 7ff6 dd3c 7d70 453e f043 ddbd 3030 5c3e
00000070: 40f7 b5bd 9940 a23d 02ef 5abe 6bc1 3d3b
00000080: 5bce e73d 7307 0c3e 70a1 dabd 5d8b 31bd
00000090: 3ae9 d23d 1d25 663d ca9c 6d3e 20aa 24be
000000a0: 0f60 bfbb 3f0c 263e fefa 173e 82bc 8d3d
000000b0: 07a3 213e 9de5 cebc 297f 3cbe cccc 0cbd
000000c0: 4a13 653d 4ac5 683c f6ae 313e f776 1cbe
000000d0: f1a4 033e 1bb5 25be f8f7 03be 76cd 81be
000000e0: cf2a 44be ea64 ff3d bd39 e1bd 515f 17bd
000000f0: bbfa 313e 27ec 023b 5c20 f83d 48b0 a6bd
00000100: e352 edbc 304a 57be b682 a9bd 914f b2bd

out.bias f4 [2]
0.04397166 0.1261503
00000000: a11b 343d 8b2d 013e
