model_comparisons/model_weights/human_only_cleavage_map_motif_mod.pt (torch_old, 13939 bytes, 16 tensors)

conv.weight f4 [4, 1, 3]
000000 a4 af 40 bf b0 b3 ee bd 61 f4 18 3e ef 40 18 be
       -0.75268006 -0.116553664 0.14936973 -0.1486852
000010 1d 5a 4f 3e 99 85 88 3e 4e 66 39 bf a8 2f 79 be
       0.20249219 0.26664427 -0.7242173 -0.24334586
000020 71 ea c0 bd 17 75 48 bf e6 38 26 3f aa bf 00 3e
       -0.09419716 -0.78303665 0.6493057 0.12573114

conv.bias f4 [4]
000000 cb 7a c4 3e c6 2c 50 be 40 fd 30 3d ef 34 74 be
       0.38374934 -0.2032958 0.043210268 -0.23848318

fc1.weight f4 [38, 46]
000000 7b 7e 03 3d f2 7d e6 39 cb 7d df bd 18 d5 1b 3e
       0.032103043 0.00043962855 -0.10912665 0.15218008
000010 44 c8 84 bd a3 0a 0d 3e 7f e5 3a be ff b9 b2 bc
       -0.0648351 0.13773589 -0.18251608 -0.021817205
000020 b8 af 67 3d ae df 8a 3d 56 b3 c9 3d a8 a5 14 3e
       0.056564063 0.06780945 0.09848659 0.14516318
000030 bb a9 99 bd ab b6 be bd 35 74 69 bc c8 7e 09 3d
       -0.07503077 -0.09312185 -0.014248897 0.033568174
000040 02 78 1a be 18 ec e3 3d 3b 5f 0c 3d 18 43 c3 3d
       -0.15084842 0.11129016 0.034270506 0.095342815
000050 fb d3 95 bd b2 28 bf 3d 5d bc 2b 3c 1b 53 d4 bd
       -0.07315823 0.09333934 0.010481921 -0.103674136
000060 2c 9a 03 bc a2 64 17 bb 12 03 a4 bc a8 29 04 3e
       -0.008032363 -0.0023100753 -0.020020995 0.12906516
000070 8f ec 44 3d 48 9a 9a 3d 7e 05 6d bd 46 b0 00 3e
       0.048077162 0.07548958 -0.057866566 0.12567243
000080 87 7d 1b be 22 d4 a8 3c 2e d9 48 be b2 4c 7a 3d
       -0.15184604 0.020608965 -0.19614097 0.0611083
000090 e3 96 ac bd 4e df 97 bd 6e ae 94 bd 92 b9 1a bd
       -0.08427217 -0.07415639 -0.07259832 -0.03777463
0000a0 fd dd db bd 81 0c 37 be ba 7b 2e be c8 13 0c bd
       -0.107357 -0.17875864 -0.17039385 -0.034198552
0000b0 ad 1d df bd b6 84 0d 3e 15 49 ec 3b 1b d3 3c 3d
       -0.10894332 0.13820156 0.0072108605 0.046099763
0000c0 12 06 23 be b4 99 a5 3c a0 ce 97 3d 04 d1 f9 bd
       -0.15920284 0.020214893 0.074124575 -0.1219807
0000d0 6e 08 86 be 6b 96 12 3d 3b 27 82 bc cb 2b bf bb
       -0.26178306 0.03578798 -0.015887847 -0.005834078
0000e0 ec d7 0b bd 82 d4 c9 3d ff d3 cb bd 03 bf 74 3d
       -0.034141466 0.09854986 -0.099525444 0.059752475
0000f0 1a 67 24 be 22 f4 d7 bd 53 95 40 bc 72 8c 03 3d
       -0.16054955 -0.105446115 -0.011754352 0.03211636
000100 e3 0b 65 3d c9 3a 6b 3d cf 72 57 bd fc f5 10 be
       0.05591954 0.05742911 -0.052599724 -0.14156336
000110 bc 16 3b be 0b ab 0f be d2 db 08 3d 1f 3b b5 bd
       -0.18270391 -0.14030091 0.033412762 -0.08849167
000120 3a 1c 61 be 39 52 00 be f5 c1 ab bd 4d 1c dc 3d
       -0.21983424 -0.12531365 -0.08386604 0.107475854
000130 b6 c6 17 be 53 28 e3 3c df 5e a4 3d bd eb 14 be
       -0.14821896 0.027729189 0.08025908 -0.14543052
000140 a7 1b 03 3e 74 1d 01 3d ca ac 2f 3b aa 77 bf bd
       0.12803517 0.03152223 0.0026805871 -0.09348996
000150 5c 5e 22 be 6f ca 96 bd ce b2 23 bd 46 27 61 3d
       -0.15856308 -0.0736283 -0.039965443 0.054969095
000160 f9 c8 2e be 9f 65 04 bd 7c 74 09 3e a4 fe ba 3d
       -0.17068852 -0.032323476 0.13423342 0.091306
000170 1b 78 ba bd 38 9d 55 be 32 2e ff 3c 44 3a 49 be
       -0.091049396 -0.20860755 0.031149957 -0.19651133
000180 be 24 ea bd fb 08 7a 3c ed 35 fb bd 66 19 8e bd
       -0.11432789 0.01526093 -0.12266145 -0.06938438
000190 63 d9 89 be b1 92 48 bd 11 72 a7 3d 06 a7 30 3d
       -0.26923665 -0.04896802 0.08176053 0.043128036
0001a0 0b b8 1f be 86 18 2b be e5 88 1f bd c4 82 40 bd
       -0.1559755 -0.16708574 -0.038948912 -0.046999708
0001b0 fd c5 b5 3c 17 5b 39 bd 88 94 72 bd 21 4e 14 3d
       0.022189135 -0.045252886 -0.05922368 0.036207322
0001c0 96 44 f6 3d 8b 41 c3 bd e8 4c 12 3d ff 92 c0 bd
       0.120248005 -0.09533986 0.035717875 -0.09403037
0001d0 65 18 43 be 08 c7 58 be 9d fb a8 3c 81 b7 81 be
       -0.19052275 -0.21169674 0.020627791 -0.25335315
0001e0 62 7b f7 bd 78 0f 3f 3e 66 6b a9 3d bb ad 26 bd
       -0.1208408 0.18658245 0.08272438 -0.040693026
0001f0 e4 e4 0b 3d fd c4 b7 3d f1 c2 f9 3c f2 7d 25 be
       0.034153834 0.089731194 0.030488463 -0.16161326
000200 8c 72 68 3e f2 e1 95 bd 69 25 0b be 3e 54 86 bd
       0.22699946 -0.07318486 -0.1358849 -0.06559037
000210 8d eb 67 3d 52 fa ab bc 0b a6 5a 3d c4 c7 05 be
       0.056621123 -0.020993385 0.053381007 -0.13064486
000220 2a f2 c6 bd 7c 4a ac bd 25 69 1a 3e e1 92 10 bc
       -0.09714158 -0.08412644 0.15079172 -0.008824081
000230 31 1e 02 bd fd 72 6f 3b 27 18 05 3e 62 d9 36 3d
       -0.031767074 0.0036537044 0.12997495 0.044640906
000240 55 2a 14 3c 1b c1 e1 3d 90 b1 d1 bd 62 9e 58 3c
       0.009043296 0.1102316 -0.102389455 0.013221355
000250 59 4d 34 3d e8 6d c7 3d c0 9c d1 bd 59 b5 f6 3d
       0.044019077 0.0973776 -0.10234976 0.12046308
000260 ea 75 87 bd 53 84 03 be 93 5a 79 bd 5a 06 f9 bc
       -0.06614287 -0.12843446 -0.060877394 -0.030398536
000270 2b 81 85 3c 62 aa c6 3d 8d 38 a5 bd 1f d3 40 bd
       0.016296944 0.09700467 -0.08067427 -0.04707634
000280 8f 47 2b bd 96 dc 1c bd 05 80 5f 3d ee 44 f9 bd
       -0.04181629 -0.038296305 0.05456545 -0.121713504
000290 cd 1b b0 3b a5 b6 22 3c f5 e4 a0 3d f5 64 5c bc
       0.005374408 0.009931241 0.0785617 -0.013451804
0002a0 58 c5 0e be 7c d2 a4 3c 3b af b1 bd b0 61 3d be
       -0.13942468 0.020119898 -0.08676001 -0.18494296
0002b0 f8 4b 05 be e0 f4 c8 3d f1 b4 1a 3e e3 de 8a 3d
       -0.13017261 0.09812331 0.15108086 0.067807935
0002c0 e9 ee 08 3e 59 7b 4a 3c 63 9c 80 3d f1 83 7c 3d
       0.13372387 0.01235851 0.062798284 0.061649267
0002d0 18 46 50 3c 74 e7 dd bd 4d 9a 96 bd 56 f4 05 3e
       0.012712024 -0.10835162 -0.07353649 0.13081488
0002e0 82 5f 11 3e 16 67 33 bd 9a 0b 90 3d 7b 47 d1 3d
       0.1419659 -0.043799482 0.07033463 0.10218712
0002f0 d7 b7 67 3e 67 fb fe 3d 48 88 1d be 2a 41 e1 bc
       0.22628723 0.12450295 -0.15384018 -0.027496893
000300 26 a7 27 be 92 28 3e be b5 2d 97 bd 88 7a cd 3d
       -0.16372356 -0.18570164 -0.07381765 0.100331366
000310 71 10 8e bd e7 15 bf 3d c2 3a 0d 3c ae b1 d3 bd
       -0.0693673 0.093303494 0.008619966 -0.10336624
000320 51 b8 fa bd 59 83 1a be c1 04 97 3d 2d 27 af bd
       -0.12242187 -0.15089168 0.073739536 -0.08552394
000330 10 3b e1 3d 59 c3 37 bd a0 f5 2a be 6f bd a4 bc
       0.109975934 -0.044864032 -0.16695261 -0.02010986
000340 4a ea 0f be e3 da 53 be 97 3e 06 3e 71 f5 11 be
       -0.14054218 -0.20688967 0.13109814 -0.14253785
000350 9c 47 bc bd b8 3b 70 bd 34 6f 53 3d 6d a4 24 be
       -0.09193346 -0.058650702 0.051619723 -0.16078348
000360 44 a9 9a bc f7 37 a9 3d 7d 02 d2 3c 98 e7 d3 3c
       -0.01887954 0.082626276 0.025635952 0.025867268
000370 b1 3b f5 3d 21 3d 23 3e bd 39 2b bd e6 52 64 3d
       0.11974276 0.15941288 -0.04180311 0.05574312
000380 32 45 9a 3d c8 6c 1f 3d 1f 66 fe bd 8d 13 a7 3b
       0.07532729 0.0389221 -0.12421822 0.005098766
000390 d0 6b eb 3c 00 73 f3 ba 3d 3a 9d bd 72 fb 9a 3d
       0.028737932 -0.0018573701 -0.07677124 0.07567491
0003a0 d0 60 23 3e 08 ee 8f bd f7 89 ae bc 42 48 a2 ba
       0.159549 -0.07027823 -0.021306021 -0.0012381154
0003b0 a6 20 23 be 1f 35 5c 3e ba 30 8c be ee 45 14 be
       -0.15930423 0.21504639 -0.27380925 -0.14479801
0003c0 1f 48 30 bd 0d d6 09 bd 87 64 63 bd 74 11 01 be
       -0.04303753 -0.0336514 -0.055515792 -0.12604314
0003d0 20 a4 64 bd 75 35 ac bd 08 65 04 3e ab 0a bc 3d
       -0.055820584 -0.084086336 0.12929165 0.09181722
0003e0 07 82 a2 3c 76 b8 b0 3c 90 2d 65 bd e9 ad fa 3d
       0.019837392 0.021572333 -0.055951655 0.12240202
0003f0 e7 6c 14 3d d8 ad 1f be 40 6d 90 3b 17 4f 85 be
       0.03623667 -0.1559366 0.004407555 -0.26036903

fc1.bias f4 [38]
000000 0f d7 cb bd 2f fd 0c 3e 1e 51 99 bd 79 6c b8 bb
       -0.099531285 0.13768457 -0.07486175 -0.0056281653
000010 0a 6b c4 bc 8d 2e 8e 3d 5d de 83 bc c5 e7 63 bd
       -0.023976821 0.069424726 -0.016097242 -0.055640955
000020 f2 57 2b 3d 4b 40 0e be 8e 52 d9 3d 63 88 98 3d
       0.041831918 -0.13891713 0.10611449 0.07447889
000030 e4 34 d2 3c fb 7f ec 3d 0e 4d 68 3d 1d ae 0a be
       0.025659986 0.11547848 0.05671411 -0.13542981
000040 65 b2 fd bd e7 5b 0f bd 8c 56 dc bd 1b 1f bf bd
       -0.12387542 -0.034999754 -0.10758695 -0.09332105
000050 f5 98 98 3d 33 8f 01 be 3b 97 06 be 37 d6 96 3d
       0.07451049 -0.12652282 -0.13143627 0.07365077
000060 ac 44 d1 3c 50 46 b8 3d 97 83 02 3e 55 87 34 3d
       0.02554544 0.08997786 0.1274551 0.044074375
000070 f3 96 be 3d d0 92 2d 3b ae 9b e4 bd 36 29 9b 3d
       0.09306135 0.0026485212 -0.11162506 0.0757622
000080 74 1f 3a bd f7 81 2e 3d a6 26 97 3d f1 26 23 bc
       -0.045440152 0.042604413 0.073804185 -0.009958015
000090 9a 3b 33 3d 9d 38 cd 3d
       0.043758012 0.10020564

bn1.weight f4 [38]
000000 24 df 75 3f f9 0f 7b 3f d5 cc 77 3f c9 cc 81 3f
       0.9604361 0.9807125 0.96796924 1.014062
000010 84 06 81 3f a4 1a 83 3f 02 4e 82 3f f1 a1 83 3f
       1.0080113 1.0242505 1.0180056 1.0283796
000020 b2 c5 6f 3f 8e 85 76 3f 23 54 79 3f 60 b0 81 3f
       0.93661034 0.9629754 0.9739401 1.013195
000030 94 d6 75 3f c0 d1 82 3f 48 76 74 3f f9 dd 84 3f
       0.96030545 1.0220261 0.9549298 1.0380241
000040 a0 7d 7b 3f 44 b2 7b 3f 1c 2e 91 3f 59 36 8d 3f
       0.98238564 0.98318887 1.1342196 1.103221
000050 c1 bb 6f 3f 82 e0 7d 3f c9 da 77 3f c1 2c 80 3f
       0.93645865 0.99170697 0.96818215 1.0013658
000060 65 02 7d 3f 71 39 81 3f cc e3 85 3f 25 32 83 3f
       0.9883178 1.0095655 1.0460143 1.0249678
000070 d8 d1 81 3f 01 47 84 3f 1b 7f 6f 3f 63 d4 8c 3f
       1.0142164 1.0334169 0.9355332 1.1002315
000080 22 79 73 3f d9 44 7e 3f 6f 85 81 3f 9c 59 70 3f
       0.9510671 0.99323803 1.0118846 0.93886733
000090 b3 c0 79 3f 19 cd 7f 3f
       0.9755966 0.9992233

bn1.bias f4 [38]
000000 44 34 71 bc ad ca 40 bd ee 5f d2 bd 35 4b 11 bd
       -0.014721934 -0.047068287 -0.102722034 -0.035472114
000010 46 55 8b bd 28 d0 2e bd c0 84 dd bc 36 8c 24 3d
       -0.06803374 -0.042678982 -0.02704084 0.040172778
000020 95 03 bd bd 05 13 4e bd d0 1d 08 bd e3 c4 3a bc
       -0.09229199 -0.050311107 -0.033231556 -0.0113994805
000030 9c c2 bc bd ab 7f 47 ba a5 5f 0e bd 05 5c a0 3c
       -0.09216806 -0.00076102716 -0.034759182 0.019575128
000040 1a ae 83 bb 4e 94 34 bd bb d4 9e 3c a1 ab c9 bb
       -0.0040185573 -0.044086747 0.019388547 -0.006154493
000050 d0 73 ef bd c4 d9 a0 bd ba ed c0 bc cc a2 18 3c
       -0.11692011 -0.078540355 -0.023550857 0.009316158
000060 c2 3a 2d bd 8c a8 db bb 2c ca 32 bd 80 c7 c1 3b
       -0.042292364 -0.006703442 -0.043649837 0.005913675
000070 a1 b8 48 bd 5f 90 e5 bc af f7 09 bd ff e2 45 bd
       -0.0490042 -0.028022943 -0.033683475 -0.048312183
000080 e4 dd b0 bd ae 3c e9 bd e7 40 68 bd 3f 03 7c bd
       -0.08636072 -0.11388527 -0.05670252 -0.061526533
000090 93 e5 67 bd b8 d2 88 3c
       -0.056615423 0.016702041

bn1.running_mean f4 [38]
000000 48 32 ab 3f e1 30 7d c0 f1 5a ab c0 70 fb c7 c0
       1.337472 -3.9561083 -5.3548512 -6.249443
000010 b5 37 9c c0 92 af 27 3f 1d cd 11 c1 e8 df 22 41
       -4.8818 0.65502274 -9.1125765 10.179665
000020 85 13 a6 c0 b9 63 5e bf 00 3c e5 c0 98 4d a1 bf
       -5.1898828 -0.86870915 -7.163574 -1.2601805
000030 fd fd 52 c0 88 66 10 c1 b7 86 f3 c0 b7 15 c5 3d
       -3.2967522 -9.025032 -7.6101947 0.096232824
000040 3a d8 b3 c0 ea e4 0e 41 9f 22 13 40 a4 0a 46 3f
       -5.620145 8.930887 2.298988 0.77359986
000050 d5 9a 75 c0 1e 8c e5 c0 61 f1 3f 40 ce 3d 8b 40
       -3.8375752 -7.173354 2.9991076 4.3512945
000060 41 07 11 c0 8c b3 4f 40 b1 e7 13 40 ce f5 85 c0
       -2.2660677 3.2453337 2.3110163 -4.1862555
000070 ed e2 48 c0 fb f7 6b 3f 44 1d 12 c1 3c 92 29 c1
       -3.1388505 0.92175263 -9.132145 -10.598202
000080 83 3b ee 3f fd 4b 3c c0 b2 2b 06 41 a4 5b 83 40
       1.8611912 -2.942138 8.385668 4.1049366
000090 e9 4e 2c c0 e3 36 fe 40
       -2.6923163 7.9442

bn1.running_var f4 [38]
000000 ee 56 2b 41 04 fe 39 41 6d 44 79 41 b0 fa 07 41
       10.708723 11.624516 15.5792055 8.498703
000010 fd 9f 1d 41 ac 94 61 41 de 6c 5f 41 74 dc e2 40
       9.85156 14.098797 13.964079 7.089411
000020 c2 69 a2 41 7f 3d 3e 41 79 44 cf 40 dc d8 52 41
       20.30164 11.890014 6.4771085 13.177944
000030 7a c7 b5 41 a5 28 32 41 dc 7a 4c 41 a3 1b 42 40
       22.7224 11.134923 12.779995 3.0329368
000040 1e 7b a3 40 52 56 65 41 09 28 fa 40 a8 c2 d7 40
       5.108779 14.333574 7.817387 6.7425117
000050 f4 82 5b 41 d8 4a 21 41 36 2e 96 41 b3 75 2f 41
       13.719471 10.080772 18.772564 10.966235
000060 00 83 4f 41 28 3a 4e 41 2a e9 60 40 f6 99 be 41
       12.969482 12.889198 3.5142312 23.825176
000070 50 6a ea 40 f6 73 2a 41 be 52 7a 41 8b fa 0e 41
       7.3254776 10.653311 15.645201 8.936168
000080 88 72 e3 41 51 6c 30 41 6b fd 63 41 a2 2b d4 40
       28.430923 11.026444 14.24937 6.6303263
000090 a7 0d e5 40 ba d2 2b 41
       7.1579165 10.738947

fc2.weight f4 [20, 38]
000000 ec c8 bf 39 52 01 8d 3d 4b fa 81 bc b3 c2 9f bd
       0.00036580057 0.068850175 -0.01586642 -0.07800808
000010 23 a5 1d be 56 f6 14 3e 2e ef 83 bd 61 f9 12 be
       -0.15395026 0.14547095 -0.06442104 -0.14352943
000020 72 5b 92 3d 03 4d b5 3d aa d2 18 bc 30 19 00 3e
       0.07146348 0.088525794 -0.00932757 0.12509608
000030 03 a6 fc 3d b3 3d 0f be 63 b8 6f bd 14 59 13 be
       0.12336352 -0.1398838 -0.058525454 -0.1438945
000040 40 22 0d 3d 83 d8 03 3e 72 06 c4 3d 21 86 f9 bc
       0.03445649 0.12875561 0.09571542 -0.030459465
000050 30 6f c4 3d 65 fe b4 3d 8f ed c2 bc 50 59 0b 3e
       0.0959152 0.088375844 -0.023794917 0.13608289
000060 df 7e 3c 3e 27 c1 97 3d c0 22 d4 bd 28 a7 e8 bd
       0.18407772 0.07409888 -0.103581905 -0.113600075
000070 d4 59 a7 bd 3a ec d9 3d e5 d7 11 be 7a 7b cb 3d
       -0.0817143 0.1064076 -0.14242513 0.09935661
000080 5a 5a fb bd 57 7c 6b bd 1f b9 2f 3e 96 60 8f 3c
       -0.122730926 -0.057491627 0.17160462 0.01750211
000090 51 a9 ad bd 03 40 70 3d 0e 76 cf bd 20 a4 56 3d
       -0.0847956 0.058654796 -0.10129939 0.052402616
0000a0 d8 d5 9f 3c c7 79 f6 3d e0 01 03 3d 5e 99 8a bc
       0.019511148 0.12034946 0.03198421 -0.016918834
0000b0 6e ec 51 bd ea 92 06 bc 37 3d 50 ba 49 20 48 bd
       -0.051250868 -0.008213738 -0.0007943692 -0.048858915
0000c0 ed a7 7c bd 39 ed f7 3d 26 6d 45 bd 98 81 04 bd
       -0.061683584 0.121057935 -0.048199795 -0.032350153
0000d0 2f 75 8f 3d 6f c6 71 ba b7 e7 11 be 4f 6b 1c 3c
       0.07004773 -0.00092229893 -0.14248548 0.009547069
0000e0 4b 49 69 bb 85 9b 24 3e 96 b0 4b bd 85 18 d4 3d
       -0.0035596665 0.16074951 -0.049728952 0.10356239
0000f0 71 64 4e 3d 69 b9 0e be 6b 57 3c 3e 98 13 f7 3d
       0.050388757 -0.13937916 0.18392722 0.12064284
000100 11 87 88 bd cc 1b ac 3c 52 78 c5 3b 1b 1a 00 3e
       -0.06666387 0.021009348 0.006026306 0.12509958
000110 64 d2 c0 bd 87 b4 d0 3c ed 95 9c 3d a7 be 0b 3e
       -0.09415129 0.025476707 0.076457836 0.13646947
000120 1d be 2a 3d cf 3e 55 bd 79 ff 07 3d ed 2f 61 bb
       0.041685212 -0.052061852 0.033202622 -0.0034360841
000130 4e b8 b0 3c 75 73 64 bb 7e 36 1b 3e ab 43 07 be
       0.021572258 -0.0034858857 0.15157506 -0.13209407
000140 e9 8b 59 bd 45 01 c9 3d 9d 67 44 be e8 48 2b 3d
       -0.053111944 0.09814695 -0.1918015 0.041817576
000150 55 27 a2 bd 5c b1 95 3d 1f 21 7b bd 6e 5f fe 3d
       -0.07917658 0.07309219 -0.061310884 0.124205455
000160 c0 93 b6 3d bc 3b 4e 3d be cb 19 3d 6d 53 3e be
       0.089149 0.050349936 0.03754782 -0.18586512
000170 a6 ba 2b be c0 9b eb 3d 2d 5c 8f bc 4a a9 dc 3c
       -0.1677042 0.11504316 -0.017500008 0.026936192
000180 4a 62 cd 3d 8e d8 a0 3b c4 55 b8 bc 3f 89 cd 3d
       0.10028513 0.004908628 -0.022501834 0.10035943
000190 5e 2a c4 bd 7c 85 eb bd 7c 4c 8b 3d 75 91 10 bd
       -0.095783934 -0.115000695 0.068016976 -0.03529497
0001a0 53 3b d5 3d 74 00 a2 3d 74 87 15 3d b1 de f3 3d
       0.10411706 0.07910243 0.03650613 0.119077094
0001b0 0e 5d f1 bd 11 0d 28 bc 51 2b 57 3d f7 43 1f bd
       -0.11785327 -0.0102570215 0.052531544 -0.038883176
0001c0 ea a6 17 3e 06 d2 c3 3d 6c df 68 3d cc f1 ce 3d
       0.14809766 0.09561543 0.056853697 0.10104713
0001d0 b1 55 55 3d 8e 46 21 3c 92 c7 09 3e 0a 87 76 bd
       0.052083675 0.009843482 0.13455036 -0.060187377
0001e0 86 f9 e8 bd 06 9b fd bc 83 76 f9 3c 31 44 f1 3d
       -0.11375718 -0.03095771 0.030452019 0.117805846
0001f0 4f 4c ab 3d c3 47 a4 3c e0 6b ad b9 95 36 93 bd
       0.08364164 0.02005375 -0.00033077504 -0.07188145
000200 07 d5 bd 3c b1 ed 1f be 5a f6 6b bc 46 26 41 3d
       0.023172868 -0.15618016 -0.0144019965 0.04715564
000210 08 33 00 3e 06 8a ff 3d dd ff b8 bc 31 e4 ce 3d
       0.12519467 0.12477498 -0.022582943 0.10102118
000220 ed f0 d1 bd f6 9a 05 be 7b 1d c0 bd c9 9c b0 bd
       -0.10251031 -0.13047394 -0.09380623 -0.086236544
000230 3b 28 8d bd 5a 90 ab bc b8 05 1e 3e 86 cc e8 bd
       -0.06892439 -0.020942856 0.15431869 -0.11367135
000240 df 4a 8a bc 4a d8 d7 3d 18 ad c5 3c ae 2b 24 3e
       -0.016881404 0.10539301 0.02413039 0.16032287
000250 29 30 0d 3e cb d8 8e 3d 70 48 25 bd 06 48 6b 3d
       0.13787903 0.06974944 -0.040352285 0.057441734
000260 4c 65 83 bd 7a 25 3a bd 54 9c e0 3d 75 9f 38 3e
       -0.06415805 -0.045445897 0.10967317 0.18029578
000270 c0 43 5e bc 7c 2c 97 bd 90 29 4c bc df c8 1a 3d
       -0.013565958 -0.073815316 -0.012461081 0.03778922
000280 a8 bb 72 bb 5e a1 12 bc 17 5f 3b 3e 39 3d e1 3d
       -0.0037038121 -0.008949606 0.18297993 0.109980054
000290 7b e0 83 3d 7a bd 31 bd f8 de 80 3d f7 eb a0 bd
       0.064393006 -0.04339359 0.06292528 -0.07857507
0002a0 b8 26 b3 3c 8a 87 9c 3d c5 20 51 3e fd 82 e4 3d
       0.021869048 0.076430395 0.20422657 0.111577965
0002b0 e2 ff ad 3d c4 6f ef bd de d9 0b 3c 62 21 10 be
       0.084960714 -0.116912395 0.00853583 -0.14075235
0002c0 e1 b4 4c 3d 95 f4 e1 bd 18 91 ef 3c 72 32 05 3b
       0.049977187 -0.110329784 0.02924399 0.0020324257
0002d0 4d cb 8e 3d 21 26 dc bc 8a 9f 19 3d b1 32 b0 3d
       0.0697237 -0.02687365 0.037505664 0.086034186
0002e0 7e a8 2f 3e da be c0 bc 58 8d 6e 3b ac 0e b4 3c
       0.17154118 -0.023528505 0.0036400165 0.021979652
0002f0 a2 67 02 3e 2d 21 09 3e a0 02 20 3d 9e 6e 21 3e
       0.12734845 0.13391562 0.039065003 0.15764853
000300 b4 6d 26 3d fc e7 ef bd 99 11 e8 3d b8 a8 3c 3d
       0.040631965 -0.117141694 0.113314815 0.04605934
000310 7d d9 8a 3d 22 35 ab 3b 43 63 3d 3d b7 07 18 3e
       0.06779764 0.00522484 0.04623724 0.14846693
000320 26 39 c3 bd 82 d7 0b 3e 3d 24 88 3d 99 fd a3 bd
       -0.095323846 0.13656428 0.06647537 -0.08007354
000330 49 cd 70 bd db 91 56 3c d3 1f 7f bd 07 8d 30 3e
       -0.058789525 0.013096298 -0.06228621 0.17241298
000340 28 26 56 3e d8 f4 f7 3c aa bf 47 3d 89 61 17 3e
       0.20912993 0.030268118 0.04876677 0.147833
000350 7d b8 c7 3b 9c 93 28 be 67 81 85 3d ba 4b 0a 3d
       0.0060949908 -0.16462559 0.06518822 0.033763625
000360 98 ba fd bd a7 4a 30 bd 4b f9 b4 bd 97 38 47 3e
       -0.123891056 -0.043039944 -0.08836611 0.19455181
000370 01 da 5a 3d 90 1a 40 3e fa b3 f8 bc c5 b3 20 bd
       0.05343056 0.18760133 -0.030359257 -0.03923394
000380 9e b7 15 3d 3b 23 cd 3d 61 76 b3 3d 42 e2 f3 3b
       0.036552064 0.10016485 0.08762813 0.0074427435
000390 83 2c b7 3c 9a 3e f3 bd e6 e0 dd bb 56 16 87 bd
       0.022360092 -0.11877175 -0.0067711947 -0.06596057
0003a0 87 d4 6d bd c4 46 da bd c3 05 a9 3d 9c bf 16 be
       -0.05806401 -0.10658029 0.08253052 -0.1472153
0003b0 88 8f 22 be 5e d5 d5 3b 57 7f 0e be c2 0a 01 be
       -0.15875065 0.0065256795 -0.13915764 -0.1260176
0003c0 f5 c8 4e bc 3b a4 e5 3d 03 ae a3 3c d4 51 3d 3e
       -0.012621154 0.11212965 0.019980436 0.18488246
0003d0 c7 5c d5 3d 47 df 84 bd 5d a6 69 be f2 7e 63 be
       0.104180865 -0.06487899 -0.22817369 -0.22216395
0003e0 3e 66 00 3e 59 6c 50 3d 3a 18 13 be 06 6f 82 bd
       0.12539002 0.05088458 -0.1436471 -0.06368832
0003f0 4f cb a1 bd 25 ef 08 be d2 54 f2 bd 73 89 62 3d
       -0.07900106 -0.13372476 -0.118325844 0.055306863

fc2.bias f4 [20]
000000 65 9c da 3c ba 3f b3 3d b6 d6 89 3d 2a da ec 3d
       0.026685903 0.08752389 0.06730406 0.11565049
000010 1e 9f 14 be b9 70 8a 3d d6 ef 24 be 0d 14 77 3d
       -0.14513823 0.067597814 -0.16107115 0.060321856
000020 0f 8b ef 3d d4 50 f3 3d 62 b1 10 be 39 c2 0b be
       0.11696445 0.11880651 -0.14130166 -0.13648309
000030 8a 4b 24 be 01 cd 10 be 7c ce 02 be 62 24 42 bd
       -0.16044441 -0.14140703 -0.1277408 -0.04739798
000040 e9 08 13 bc e7 13 fb bd cf 73 6d 3d cc fe 2c 3d
       -0.008974292 -0.122596554 0.05797177 0.04223518

bn2.weight f4 [20]
000000 d6 ae 77 3f 3b e6 80 3f 46 89 75 3f e8 cb 79 3f
       0.96751153 1.0070261 0.9591259 0.9757676
000010 b2 f8 74 3f a5 30 85 3f 49 3e 83 3f 5a a2 82 3f
       0.9569198 1.040547 1.0253383 1.0205796
000020 bc dd 7f 3f a7 ef 80 3f 57 7e 7a 3f 37 a7 79 3f
       0.99947715 1.0073136 0.9784903 0.97520775
000030 e4 04 7a 3f 20 3b 7a 3f 44 4e 80 3f dc e0 80 3f
       0.9766371 0.9774647 1.0023885 1.0068622
000040 99 02 85 3f 75 a2 81 3f e4 64 74 3f 47 34 77 3f
       1.0391418 1.0127703 0.95466447 0.96564144

bn2.bias f4 [20]
000000 7d bb 2b bd 67 a2 1b bd 30 48 41 bd 26 da 29 bd
       -0.04192685 -0.037996676 -0.047187984 -0.04146781
000010 9d bc 89 bd 89 cd bb bc e5 3f 0d 3d 00 ce 2f 3c
       -0.06725428 -0.022925155 0.034484763 0.010730267
000020 19 4c 8d 3b db 9d 04 3c ab 91 10 bc 11 93 4b bd
       0.00431205 0.008094276 -0.008823792 -0.0497008
000030 7a 28 26 bd 26 2f 82 bd 59 c6 c9 3a 5a 01 29 bc
       -0.040565945 -0.06356649 0.0015394195 -0.010315264
000040 f7 83 02 bd 1b 43 f3 bc ee 80 54 3c 74 52 12 bd
       -0.031864133 -0.029695084 0.012970192 -0.035723165

bn2.running_mean f4 [20]
000000 b5 b3 0d 3e 37 d9 9b 3e 5b 64 38 3e 63 a8 a0 3e
       0.13838084 0.3043916 0.18007033 0.3137847
000010 7a 79 9a 3e 9e 4f 0e 3f 0d bc 2b bf 1b e2 a3 3e
       0.30170804 0.55590236 -0.6708382 0.32008442
000020 14 bc 47 3e 29 43 df be db cb a0 be b8 0f 03 be
       0.1950534 -0.43605927 -0.3140553 -0.12798965
000030 67 85 0f 3d f8 be bd be ac a3 15 be c9 b4 e3 3e
       0.03503933 -0.3705976 -0.14613217 0.44473866
000040 d2 4f bd 3e 40 25 1b bc e5 77 75 be 9e 47 00 3f
       0.3697496 -0.00946933 -0.23971517 0.5010928

bn2.running_var f4 [20]
000000 b2 b3 f2 3e 39 be 82 3e 21 1d d9 3e 90 3b d2 3e
       0.47402722 0.25535753 0.42405036 0.41061068
000010 15 94 96 3e 09 9a f8 3e 47 27 dc 3e d9 29 9e 3e
       0.29409853 0.4855502 0.42998716 0.30891302
000020 2c d6 0a 3f 0f 9e ad 3e 22 80 32 3f 9c 86 de 3e
       0.5423305 0.33909652 0.69726765 0.43462074
000030 cf 52 91 3e 11 f7 b5 3e ca c1 a9 3e 93 d6 7c 3e
       0.2838349 0.3554006 0.33155662 0.24691229
000040 06 8f 8c 3e f7 0c aa 3e 54 9d 61 3e 0d 71 d1 3e
       0.27452868 0.33213016 0.22032672 0.40906563

out.weight f4 [2, 20]
000000 81 3f eb 3c 3c c0 ee 3d be 9f a6 bb 07 6e 1f 3e
       0.028716804 0.116577595 -0.0050849607 0.15569316
000010 71 74 35 3d bf ff c1 bc ba 55 fd bd ca da 39 3e
       0.0443005 -0.02368152 -0.12369867 0.18149868
000020 6d 44 e5 3d f3 24 b8 3d 87 45 bd 3d d7 47 34 3e
       0.11194692 0.089914225 0.09241777 0.1760553
000030 a8 38 0b be 24 ab 8d 3d a1 3b 10 3e 52 73 2e 3d
       -0.13595831 0.06917408 0.14085247 0.042590447
000040 aa 4f 22 3e 1e 6a c7 3d 10 07 85 bd 6d 4c 21 bd
       0.15850702 0.09737037 -0.06495488 -0.039379526
000050 a5 a4 06 be 69 0f 02 bc 5f 92 23 be 58 2c fa 3c
       -0.13148744 -0.007938244 -0.15973805 0.030538723
000060 4d 5c d1 bd 1a 42 ff bd 2a 24 0f bc b5 57 92 3d
       -0.10222683 -0.1246378 -0.0087366495 0.07145635
000070 ea b6 4b 3e 1c 8a 46 3e eb 59 38 3e ab 5d 90 3d
       0.19893995 0.19388622 0.18003051 0.07049116
000080 43 0e 51 be 42 42 81 bd 2b 6a 66 3e d4 0f 84 bd
       -0.20415597 -0.06311466 0.22501437 -0.064483315
000090 b0 dd 0f 3d 0b 90 26 3e de 93 26 3d 02 96 0f be
       0.035123527 0.16265886 0.04066836 -0.14022067

out.bias f4 [2]
000000 d5 8b 1a bd 86 49 4d 3e
       -0.03773101 0.20047578
