model_comparisons/model_weights/human_only_epitope_sequence_mod.pt (torch_old, 195832 bytes, 20 tensors)

input.weight f4 [136, 260]
00000000: 9037 11c0 81d8 4ac0 2588 60c0 29f3 eebf
00000010: fad0 37c0 42bd 26c0 7c7b 69c0 9302 6ec0
00000020: 71a5 afc0 22d1 97bf 508d 2bc0 4dbf 0dc0
00000030: 1b9f 65bf 29d3 5bc0 9d53 dcbf 125c acbf
00000040: 1cc7 42c0 6b6d 46bf 5454 27c0 98a2 edbf
00000050: 9889 14c0 82f5 41c0 b7d4 89c0 6bc9 e1bf
00000060: 2fe7 01c0 35a1 8cbf 13bc fabf 1479 7cc0
00000070: 9963 acbf 0939 13c0 5973 22c0 75d8 2fc0
00000080: 4a95 07c0 85bf 9dc0 3ba9 85bf eb3b 0ec0
00000090: 2f6b 1bc0 99fd b3bf be12 bac0 8927 6ec0
000000a0: 1e3e efbf 1a33 f2bf 033e afbf fdd7 34c0
000000b0: 579d 89c0 57d8 7bbf 2299 cbc0 83f8 01c0
000000c0: 9cc4 adc0 9220 b1bf cff1 74c0 40b6 babf
000000d0: 8a7a adbf 5c63 66c0 258e 55c0 a11d 07c0
000000e0: faed 27c0 61c5 aabf 4749 76c0 1f1b 85c0
000000f0: a177 11c0 8579 dbc0 7fe8 48c0 8d64 6cc0
00000100: 7153 1ec0 f348 9ebf 8995 2ac0 46bf a5bf
00000110: 0d3f f6bf d914 bdbf 75af 43c0 30f4 23c0
00000120: 432b 64c0 b6f9 c6bf a9f5 35c0 215d 58c0
00000130: 1d30 81bf ce63 e9bf d673 10c0 dad7 8ec0
00000140: 92aa adbf 3a67 b7c0 6bb6 bac0 c31c 5cc0
00000150: 07cd 45c0 e14a ecbf 34ae bfc0 1aea a6be
00000160: ca30 17c0 e7c7 debf d62b b5bf b306 0bc0
00000170: 9d84 1bc0 6959 08c0 e141 adc0 96b1 39c0
00000180: 7d26 2dbf faff 9ebf 4b3d 8fc0 a9fa 93c0
00000190: 1c31 15c0 324a 13c0 169b 56c0 a401 66c0
000001a0: bc96 59c0 0a9f d6c0 bf43 85c0 a5d3 15be
000001b0: 9033 aac0 2b17 ebbd a3c2 8dbf 3515 51c0
000001c0: 0192 0ec0 4dc1 83bf 076f 22c0 e178 41c0
000001d0: 2990 3cc0 d264 e0bf 38cc a4c0 2df1 7ac0
000001e0: 77a8 eebf 586e 58c0 af5c b8c0 8497 2cc0
000001f0: 569c d4bf 9753 8bc0 23b6 bebf c14c 40be
00000200: d0ec 06c0 5c14 dabf 1628 08c0 51d9 f8be
00000210: 5172 77c0 f238 2cc0 3f48 89c0 13a8 fabf
00000220: 57a0 4fbf dea3 07c0 daa3 4dc0 04b5 46c0
00000230: 995c 27c0 0403 38c0 ee94 94c0 5dd2 23c0
00000240: ac16 8ebf c207 48c0 b854 8fc0 44bb 16bf
00000250: c132 97c0 ba9b 23c0 43cf 6b3e 1fd5 78c0
00000260: ee6d 26c0 e1b7 14c0 e78c 89c0 751e 3ec0
00000270: a16b 44c0 2171 6ebf be82 20c0 c256 023f
00000280: 542d 34c0 bafa 94bf d860 9fbf f8e7 10c0
00000290: 3f51 0dc0 d57a 02c0 3d5c 4cc0 60e6 1fbf
000002a0: afac cfbf 560a 2fc0 77e6 aebf 71f9 4dc0
000002b0: 39ee 13c0 8f22 21c0 9537 51c0 993f aebf
000002c0: 0fdb 6cc0 b0ea 44c0 fbd0 16c0 8fbc 69c0
000002d0: 617d 1bc0 a10a 96c0 7ce1 45c0 aa4d b4bf
000002e0: e83c 04c0 e609 f7bf 0894 98c0 b06c dcbd
000002f0: aee2 19c0 a685 16c0 6708 6ec0 e779 4cc0
00000300: dc39 4dbf d395 a8c0 a1f6 24c0 8299 1bc0
00000310: 3016 b9bf 6c50 13c0 71a3 58c0 b0cc 8cc0
00000320: 7959 3fc0 4c79 25c0 1d89 67c0 7a0e 50c0
00000330: 98f1 7cbf da9f cabf 3eec 8ac0 88c8 4bc0
00000340: 5215 b0bf 6aaf 58bf e6da c0c0 851a 09c0
00000350: 62b6 06c0 284b a3c0 25d3 7fc0 d5e2 c6bf
00000360: 8181 99c0 80d2 95bf 1b12 7ec0 d44d cbbf
00000370: 4ed2 32c0 a6d2 05c0 82d4 e9bf 3efb 10c0
00000380: d9fd 20c0 d54f 0fc0 2193 b5be 175e 80c0
00000390: ef4f 41c0 359c 3cbf e6c0 5bc0 e352 b2c0
000003a0: 7a54 eebf c773 87c0 3436 2bc0 b5ba 01c0
000003b0: 0f25 4ec0 e72f 10c0 9bb5 42c0 421c 8cc0
000003c0: c23f 31c0 7198 dbbf 13be 38c0 4721 47c0
000003d0: 1dbb 0ec0 b040 42c0 136a 15c0 f083 10c0
000003e0: 3e0d 4bc0 eea5 24c0 6231 2ec0 b66c 96c0
000003f0: 690b 08c0 53b8 82c0 c302 e2bf 6b30 fdbf
-2.2690163 -3.1694643 -3.5083096 -1.8667957 -2.87213 -2.6053014 -3.648162 -3.718907
-5.4889455 -1.1860697 -2.6805 -2.214801 -0.896959 -3.4347632 -1.7213017 -1.3465598
-3.0434027 -0.7751071 -2.614522 -1.8565245 -2.320898 -3.0306096 -4.307216 -1.7639593
-2.0297353 -1.0986696 -1.9588646 -3.94489 -1.3467895 -2.3003561 -2.5382903 -2.7475865
-2.118487 -4.929629 -1.044227 -2.222407 -2.428417 -1.4061767 -5.814788 -3.721163
-1.8690832 -1.8921845 -1.36908 -2.8256829 -4.3004565 -0.98376983 -6.362443 -2.030793
-5.43025 -1.3838065 -3.8272588 -1.4586868 -1.3553021 -3.5998144 -3.3368008 -2.1111834
-2.6239 -1.3341485 -3.8482225 -4.1595607 -2.2729266 -6.858584 -3.1391904 -3.6936371
-2.4738429 -1.2366012 -2.665377 -1.2948997 -1.9237992 -1.4771987 -3.057584 -2.561779
-3.5651405 -1.5544956 -2.843119 -3.3806841 -1.0092808 -1.8233583 -2.25707 -4.463849
-1.3567679 -5.731351 -5.834768 -3.4392555 -3.0906389 -1.8460351 -5.990015 -0.3260048
-2.3623528 -1.7404755 -1.4154003 -2.172284 -2.429969 -2.1304572 -5.414292 -2.901464
-0.67636853 -1.2421868 -4.476232 -4.624348 -2.3311224 -2.3014035 -3.3532157 -3.5938501
-3.399825 -6.706914 -4.16452 -0.14631517 -5.3187943 -0.11479028 -1.1075023 -3.2669194
-2.2276614 -1.0293366 -2.5380266 -3.0230029 -2.9462988 -1.7530768 -5.149929 -3.9209702
-1.8645161 -3.3817348 -5.761314 -2.6967478 -1.661021 -4.353954 -1.4899334 -0.1877928
-2.108204 -1.7037463 -2.1274467 -0.486033 -3.8663523 -2.6909757 -4.290069 -1.9582542
-0.81104034 -2.1193767 -3.2131257 -3.1047983 -2.6150267 -2.875184 -4.64318 -2.5597146
-1.1100669 -3.1254735 -4.4790916 -0.58879495 -4.7249455 -2.5563798 0.23028283 -3.8880079
-2.6004596 -2.323723 -4.29845 -2.970609 -3.0690691 -0.9314137 -2.5079799 0.5091363
-2.8152666 -1.1639016 -1.2451429 -2.2641582 -2.2080839 -2.038747 -3.1931298 -0.624609
-1.6224574 -2.7350059 -1.3664082 -3.2183497 -2.311415 -2.5177343 -3.2690175 -1.3613158
-3.7008703 -3.0768242 -2.3565052 -3.6521337 -2.4295275 -4.6887975 -3.0918875 -1.4086201
-2.0662174 -1.9299896 -4.76807 -0.10762918 -2.4044604 -2.3519073 -3.7192628 -3.1949403
-0.8016641 -5.268289 -2.577553 -2.4312444 -1.4459896 -2.3017836 -3.3849757 -4.3999863
-2.989836 -2.5855284 -3.6177437 -3.2508836 -0.9880614 -1.5830033 -4.341338 -3.1841145
-1.3756506 -0.8464266 -6.026721 -2.1422436 -2.1048818 -5.1029243 -3.9972622 -1.5537974
-4.7970586 -1.1704865 -3.969855 -1.5883126 -2.794086 -2.090982 -1.8267977 -2.2653346
-2.5154936 -2.2392476 -0.35463813 -4.0114856 -3.0205038 -0.73675853 -3.4336486 -5.572618
-1.861953 -4.232883 -2.6751833 -2.0270207 -3.2210119 -2.2529237 -3.0423343 -4.3784494
-2.7695165 -1.7155896 -2.8866012 -3.111406 -2.2301705 -3.0351982 -2.3345993 -2.2580528
-3.1726832 -2.5726275 -2.721764 -4.7007704 -2.1256964 -4.0850005 -1.7657093 -1.9780401

input.bias f4 [136]
00000000: 24ef f93b 4210 60bd 13f5 d43b 71e3 423c
00000010: 8f11 3b3d dbf8 913c 99be 73bd 8b70 38bd
00000020: b04d a839 330e c2bc 27b6 06bd ce2c bb3c
00000030: 7a18 a7bd e5c0 24bd d57d 6dbd 7011 703d
00000040: 4446 5b3c 36ac 233d 2e86 263b f08e 563c
00000050: e2dc c0bd 391e dabc 8e0d 0c3d fd96 84bc
00000060: ba36 a13d bb98 1c3d 0007 09be 598d 0c3d
00000070: 8884 6b3d a0eb cbb9 74c8 94bd 2072 e43b
00000080: 0595 f8bc 72c9 903a 5c12 e63c 5cb5 bf3c
00000090: 7797 5e3c 27df c5bc 13d3 25bd ae6d 63be
000000a0: 6f59 abbb c504 9b3d bb46 9e3c bb1d 8d3d
000000b0: bb37 773d 1954 88bd dde2 98bc bc78 4b3d
000000c0: bacc 273d e952 d73c 3b00 1c3d 286c 40bd
000000d0: 529c 2fbb cf30 823d c3cd d6bb 9b2c 8bbd
000000e0: f95a 55bd 7d43 833d 602d 2a3c 68db 85bd
000000f0: 40b2 52ba 6bde 783d 800c ed3b 6cef 72bd
00000100: 143a 823c 274f 73bd 11be 65bb 05a0 853d
00000110: 73f1 d53d 9ec6 7c3c 0b53 443d 66a2 c73d
00000120: ea6d d23d 6ab9 67bc 793a c1bd 5bcf 973d
00000130: fa70 963d b2fd b23b 5e0c d1bd 82c0 a3bd
00000140: f9a7 d53b e402 423d 869a 6a3c 8e62 25bd
00000150: 4235 5c3d 632c d73d 7de7 64bd 3fa1 78bc
00000160: 6845 1c3d 6fd8 92bb 02fd 2abd b0d1 61bd
00000170: 95fc 28bd 43b4 0b3d 3789 76bd 929a be3c
00000180: e82c 11bd a5d9 643d 6a20 10bd f5ec aabc
00000190: 02bd 53bc 9aa1 293d 768d 7c3d e9f6 313d
000001a0: 8bf4 0dbc f8e6 c0bd 61e3 613c 6495 253b
000001b0: fa55 ad3d c882 debb 1bb6 9c3c aa01 073d
000001c0: 9945 2dbd 9ff5 373a 93c3 d53c fd26 a6bb
000001d0: 30fa 933d d046 56bc eccf 433d 6dce 9bbc
000001e0: 8a5e 2a3d 85ad 823d 42f7 dbbc bf2a 593d
000001f0: 50aa 9abd 34ba 923d 9d14 1e3c 1ee5 8e3d
00000200: 94b6 b33b b2ab fd3a 73ec 233d 37c5 8abd
00000210: 6b2f 28bd 2705 01bd 53d3 45bc 2a7a 1dbd
0.0076273847 -0.054703005 0.0064989417 0.011895047 0.045671042 0.017818859 -0.05950794 -0.045029204
0.0003210134 -0.023688411 -0.032888558 0.022848513 -0.081589654 -0.04022302 -0.05798133 0.05861038
0.013383452 0.039959155 0.0025409567 0.013095602 -0.0941713 -0.02662574 0.034192614 -0.016185278
0.078717664 0.038231593 -0.13381577 0.034314487 0.05749944 -0.00038894732 -0.07264796 0.0069716126
-0.030344496 0.0011046364 0.028084926 0.023401909 0.013585917 -0.024154259 -0.0404845 -0.22209808
-0.005229167 0.07569269 0.019320836 0.06890436 0.060355883 -0.06656665 -0.018662864 0.04967569
0.040966727 0.026284652 0.038086157 -0.046978146 -0.0026796055 0.06356966 -0.0065552904 -0.06795617
-0.05208871 0.06409357 0.010386795 -0.06535989 -0.00080374256 0.06075899 0.007234156 -0.05931036
0.015896834 -0.059401657 -0.0035055915 0.06524662 0.104464434 0.015428213 0.04793076 0.09747772
0.10274871 -0.014143327 -0.09434981 0.07412597 0.07345767 0.0054623717 -0.10207437 -0.07995702
0.006520268 0.047366038 0.014319068 -0.040377192 0.053761728 0.10506513 -0.055884827 -0.015175163
0.03815213 -0.0044813673 -0.041745193 -0.055131614 -0.041256506 0.034107458 -0.060189452 0.023267064
-0.035443217 0.055871624 -0.035187162 -0.020864943 -0.012923481 0.04141388 0.061658345 0.043448362
-0.008664261 -0.09419054 0.0137871215 0.0025266046 0.08463664 -0.0067904927 0.019129803 0.03296057
-0.0423027 0.00070174964 0.026094234 -0.0050705657 0.07225454 -0.013078406 0.04780571 -0.01901933
0.041594066 0.063807525 -0.0268513 0.05301928 -0.07552016 0.07164422 0.009648469 0.069772944
0.0054844115 0.0019353537 0.040020417 -0.06775897 -0.041060846 -0.031499054 -0.012074309 -0.038446583

bn1.weight f4 [136]
00000000: 3a96 723f f89c 5f3f 0ba9 833f e185 753f
00000010: 7339 6d3f eca7 6e3f cf42 693f eea0 8d3f
00000020: dce4 613f 64d6 b03f 357a 7f3f bdc9 993f
00000030: df0e 903f e9c9 9a3f ae74 7a3f 87eb 813f
00000040: ed72 7d3f faff 623f ece1 503f 9c54 8d3f
00000050: a280 863f 367f 673f 63a6 553f be9d 933f
00000060: d1bb 6d3f 4753 7f3f ef3f 973f 292e 8f3f
00000070: 177c af3f f8c7 943f 6e6a 793f dbc7 833f
00000080: 0d58 4c3f 10f0 aa3f 9184 953f c0a9 a03f
00000090: 5f81 8d3f e98c 993f fa0e 913f f235 dc3f
000000a0: da9d 863f c449 733f c123 733f 5d4b 863f
000000b0: 17c8 893f 82cb 623f 12ba 443f e847 523f
000000c0: b832 5b3f d107 7d3f 05fc 8e3f 7123 a03f
000000d0: ee1e 583f aa80 933f e45c 883f 5209 983f
000000e0: 29de 8c3f cefc 563f a45f 793f 828f 933f
000000f0: 9770 7a3f db00 4d3f 0128 a43f cf29 983f
00000100: 2ad6 633f 1348 803f 22a8 4e3f 3050 7a3f
00000110: 9d4d 823f e2e3 a43f bf9f 713f 44fa 8f3f
00000120: 179e 8a3f 7bac 863f 041a 9a3f af00 953f
00000130: 2ab5 893f dd17 473f b022 753f 697b 4d3f
00000140: 5c21 973f ff3d 8a3f e351 963f e8d6 583f
00000150: 69ad 533f c7a6 993f ebdb 803f 1deb 8d3f
00000160: f526 813f 4cc2 453f 59ce 8a3f fe3b 553f
00000170: 3251 663f 7889 6a3f ba14 4e3f 1251 7e3f
00000180: a746 903f a242 4d3f 734f 633f 18da 473f
00000190: 7a2b 8f3f e3a8 903f f966 833f 42d6 913f
000001a0: e3c7 3a3f ec69 5a3f d61d 803f b04b 9b3f
000001b0: e583 513f 7113 9b3f d9b8 833f 25ca 813f
000001c0: 3270 933f 9db0 8d3f d341 8c3f 85aa 993f
000001d0: 9a13 903f cd02 6d3f 0348 8b3f 5d1a 753f
000001e0: dac2 b03f 7994 613f f509 bc3f 90e3 993f
000001f0: 9d94 923f 701d 8f3f d68b 823f c6f9 3e3f
00000200: 745c 6e3f a2cf 8e3f f81c 843f 3286 7c3f
00000210: 0714 763f f59a 8c3f 4255 943f 5cc8 8c3f
0.9476048 0.8734889 1.0285963 0.9590741 0.92665786 0.9322498 0.91117567 1.1064737
0.88239837 1.3815427 0.9979585 1.2014691 1.1254538 1.2092868 0.9783429 1.0150002
0.9900349 0.8867184 0.8159473 1.1041446 1.0508006 0.90428483 0.8345701 1.1532514
0.9286471 0.99736446 1.1816386 1.1185962 1.3709744 1.1623526 0.97428024 1.0295366
0.79821855 1.3354511 1.1681081 1.2551804 1.1055106 1.1996127 1.1332695 1.7203963
1.0516922 0.9503443 0.9497643 1.0491749 1.0764188 0.8859178 0.7684642 0.8214097
0.85624266 0.9884005 1.117066 1.2510816 0.84422195 1.152364 1.0653348 1.1877844
1.1005298 0.839795 0.9741156 1.152817 0.9782805 0.8007943 1.2824708 1.1887759
0.88998663 1.0021995 0.807253 0.97778606 1.0179936 1.2882044 0.9438438 1.124825
1.0829495 1.0521387 1.2039189 1.1640834 1.0758412 0.7777079 0.95756054 0.80266434
1.1807055 1.080017 1.174374 0.8470292 0.8268648 1.2004021 1.0067114 1.1087376
1.0090014 0.772496 1.0844222 0.83294666 0.89967644 0.9161601 0.80500376 0.99342453
1.1271561 0.801798 0.88793105 0.7806716 1.1185143 1.130154 1.02658 1.1393511
0.7296125 0.85317874 1.0009105 1.2132473 0.8184188 1.2115308 1.0290786 1.0139815
1.1518614 1.1069523 1.0957588 1.2005163 1.1255982 0.925824 1.0881351 0.9574335
1.3809464 0.88117176 1.4690539 1.2022572 1.1451603 1.1180859 1.0198925 0.74599874
0.9310982 1.1157115 1.032134 0.98642266 0.9612431 1.0984789 1.1588519 1.0998645

bn1.bias f4 [136]
00000000: f400 92bf 4a43 4ebf 7335 87bf 4937 7abf
00000010: 7355 40bf 2794 a0bf 1023 1abf 633e 97bf
00000020: b74e 18bf 5eb2 a3bf f8cb 90bf 907a 9bbf
00000030: 3ef9 54bf 6048 a8bf 05c2 7bbf 772b 81bf
00000040: faf6 8cbf f479 72bf 3a90 46bf 4be4 96bf
00000050: 19b7 6cbf 363e 07bf e22c 7abf 8891 34bf
00000060: c772 08bf b160 9cbf 1fed 93bf 2259 84bf
00000070: 2538 adbf 3287 82bf c7e6 84bf 2892 96bf
00000080: 185f 2abf aaae a9bf c1f9 a9bf 25f7 53bf
00000090: e8b0 a1bf 78f8 8fbf 300e 8abf e00f 23c0
000000a0: e94a 80bf 8c8f 29bf 2a31 82bf 2143 95bf
000000b0: 61fc a4bf 6810 46bf d37e 5dbf d784 53bf
000000c0: 6621 5fbf a6ff a2bf 063d 43bf 0824 a4bf
000000d0: 4602 22bf 1b0a b0bf e2f0 6abf 2098 b9bf
000000e0: 87cd b0bf dc35 51bf 998f 78bf 3866 80bf
000000f0: 17e2 7bbf 0c38 4fbf 2342 95be 6ebe 9dbf
00000100: 6e75 38bf 8df9 8bbf 665c 26bf 68b1 0dbf
00000110: 58a8 9fbf 1e54 14bf da6d 3cbf 6977 97bf
00000120: b660 54bf 2721 b0bf 6fbc a5bf 05d2 85bf
00000130: f6a4 88bf dc53 50bf 1eee 89bf 3c75 44bf
00000140: 8407 9cbf 348a 95bf 2d7f 99bf be47 54bf
00000150: 8ec4 2abf 040a 8ebf 0b95 5ebf 53d8 a7bf
00000160: 77e7 71bf 537e 03bf 50af 9fbf e72d 65bf
00000170: 99ab 13bf 3c0a 05bf 88c9 39bf fe1d a2bf
00000180: bb49 a8bf b07a 2cbf f606 52bf 5320 2cbf
00000190: 355c 9dbf 8110 9dbf 1ff0 9cbf 3428 8fbf
000001a0: e4e9 3cbf 9aa2 59bf d3fe 2bbf 1dd0 95bf
000001b0: e08e d0be 6899 9abf 6b1e 84bf 5683 4dbf
000001c0: da63 8dbf fc25 93bf 0540 7fbf fe2f 9cbf
000001d0: 5fa7 afbf 62a7 5fbf 1e1f 9ebf 322f 1abf
000001e0: 56f8 1abe 8697 55bf aa62 bbbe 098a 58bf
000001f0: e22b 8dbf 3388 9cbf b855 0dbf d545 31bf
00000200: eae0 41bf b0e7 98bf eeab 91bf a565 6ebf
00000210: 2c81 9cbf 03c2 8abf 1957 a3bf 6a0d 68bf
-1.1406541 -0.80571425 -1.0563186 -0.9774061 -0.75130385 -1.2545213 -0.6020975 -1.1815914
-0.5949511 -1.2788808 -1.1312246 -1.2146778 -0.83192813 -1.3147087 -0.98342925 -1.009139
-1.1012871 -0.94717336 -0.7756382 -1.178842 -0.92466885 -0.528293 -0.97724736 -0.70534563
-0.53300136 -1.2217008 -1.1556739 -1.0339701 -1.3532759 -1.0197508 -1.0382928 -1.1763353
-0.6655135 -1.3256428 -1.3279344 -0.8279899 -1.2632113 -1.1247702 -1.078558 -2.547844
-1.0022861 -0.6623466 -1.0171254 -1.1661111 -1.288952 -0.77368784 -0.86521643 -0.8262457
-0.87160337 -1.2734268 -0.7626499 -1.2823496 -0.6328472 -1.3753084 -0.9177381 -1.449955
-1.3812722 -0.8172281 -0.9709411 -1.0031195 -0.9839186 -0.80944896 -0.2915202 -1.232374
-0.72054183 -1.0935532 -0.6498474 -0.55348825 -1.247325 -0.5794085 -0.7360512 -1.1833316
-0.8296007 -1.3760117 -1.294813 -1.0454718 -1.0675342 -0.8137796 -1.0775793 -0.76741385
-1.2189794 -1.1682801 -1.1991936 -0.8292197 -0.6670617 -1.1096807 -0.8694617 -1.3112892
-0.9449381 -0.5136463 -1.2475376 -0.89523166 -0.5768371 -0.5196874 -0.7257314 -1.2665403
-1.3147501 -0.67374706 -0.8204187 -0.6723682 -1.2293764 -1.2270662 -1.2260779 -1.1184144
-0.7379439 -0.85013735 -0.67185706 -1.1704136 -0.40734005 -1.2078066 -1.0321783 -0.8027853
-1.1046097 -1.1495967 -0.9970706 -1.2202146 -1.3722953 -0.8736478 -1.2353246 -0.60228264
-0.15133795 -0.8343433 -0.36598712 -0.84585625 -1.1029017 -1.2229065 -0.5520892 -0.6924718
-0.75733817 -1.1945705 -1.1380594 -0.9312385 -1.222692 -1.0840458 -1.2760955 -0.9064547

bn1.running_mean f4 [136]
00000000: c74c 00c2 dda2 6240 9080 f8c1 781a 7640
00000010: e4be cb40 4163 14c1 695c d73f 3823 95c1
00000020: 3cf2 8840 edc2 5fc1 ce49 2f41 7622 cdc1
00000030: d2a0 d540 c6fa 8fc1 5b3d c6c0 33a6 5a41
00000040: f026 bd40 28c2 b840 3485 ff40 d406 f3c1
00000050: 4464 b1c1 6e5d 193f e841 a140 4161 9cbf
00000060: 3d8e f240 4e32 06c1 b69f b4c1 bb7c bec1
00000070: 5e4a bf41 2e44 d5c1 eef7 9d40 6bbe dbc0
00000080: a1fc 9d40 8679 99c1 c7a2 33c1 dcd6 59c1
00000090: 7451 03c2 c5e4 b0c1 6497 9dc1 74d1 0741
000000a0: e5cb 1e41 3f37 a240 555d 6040 146a 63c1
000000b0: 28e4 a6c1 01a7 0d41 6865 e640 57ec 6341
000000c0: 06e4 d340 84e1 b8c1 9221 313f f836 74c1
000000d0: 5930 2940 b098 3ec1 1d0b 9d40 f2ce a1c1
000000e0: ea45 d7c1 89c0 8340 6ca0 9740 b7d3 ffc1
000000f0: 84bb b0c0 758f 1741 af00 b73f a90d adc1
00000100: d533 9640 8d9d 8240 31f4 4f40 a022 80bf
00000110: b2f2 f2c1 1a4c 0341 7121 5540 6f3f 67c1
00000120: 3e73 b640 3cf0 efc1 6802 8cc1 058a b3c1
00000130: 1129 bbc1 b318 2841 1d09 d8c1 83a6 4a41
00000140: fda8 b1c1 61f3 b1c1 3ab9 85c1 f2a6 d940
00000150: 508a 0e41 9b50 b941 97fd 9ec1 27a1 2fc1
00000160: bca9 5a3f b8dd b740 9111 bcc1 f8a5 3641
00000170: 5ef5 9e40 8cea 3340 43b4 a440 0aab 01c2
00000180: 4909 afc1 7b15 8240 d277 5941 128a 0c41
00000190: 47bc 00c2 3138 bec1 fc13 93c1 7248 e9c1
000001a0: ce67 ca40 7383 8340 ee30 de40 9cbe 97c1
000001b0: 6e55 1440 dfb8 90c1 d376 d6c1 7f23 b8bf
000001c0: dba1 9cc1 bf7f 0640 cda9 c0c1 4ba1 0ac1
000001d0: d451 8bc1 bdd5 d040 7ff4 f7c0 ea99 e940
000001e0: 3e16 c540 72e2 dd40 b9ab a540 0d60 2ac0
000001f0: a4f3 09c1 01d5 c1c1 12f0 7f40 72b6 e240
00000200: b789 0b40 8ca8 cec1 a7cb d8c1 7619 bb40
00000210: 0791 b041 eb34 d240 20be 8ac1 0712 d4c1
-32.074978 3.5411904 -31.062775 3.8453655 6.367052 -9.274232 1.6825076 -18.642197
4.2795696 -13.985089 10.955519 -25.641827 6.6758814 -17.997448 -6.1949897 13.665576
5.911003 5.7737007 7.98501 -30.378334 -22.173958 0.5990819 5.039295 -1.221718
7.579863 -8.387281 -22.577984 -23.810904 23.911312 -26.65829 4.936515 -6.8669944
4.9370885 -19.184338 -11.227241 -13.614956 -32.829544 -22.111704 -19.698921 8.488636
9.924779 5.069244 3.5056965 -14.213398 -20.861404 8.853272 7.1998787 14.2452
6.621585 -23.110115 0.6919185 -15.26342 2.643576 -11.912277 4.9076066 -20.226048
-26.909138 4.117253 4.7383327 -31.978376 -5.52289 9.472524 1.4297084 -21.63167
4.693827 4.0817323 3.2492793 -1.0010567 -30.368504 8.2060795 3.330166 -14.452987
5.7015676 -29.992302 -17.501175 -22.442392 -23.395052 10.50603 -27.00445 12.665652
-22.207514 -22.243837 -16.715443 6.801629 8.908768 23.164358 -19.873823 -10.976844
0.85415244 5.7458153 -23.508577 11.41552 4.967452 2.8111906 5.1470046 -32.41703
-21.879534 4.065122 13.591753 8.783709 -32.183865 -23.777437 -18.384758 -29.160374
6.3251715 4.109796 6.943473 -18.968071 2.3177142 -18.09027 -26.80802 -1.4385833
-19.579031 2.101547 -24.08291 -8.664378 -17.414955 6.526091 -7.7485957 7.3000383
6.158965 6.9338923 5.177212 -2.6621125 -8.621983 -24.229006 3.9990277 7.084771
2.1802804 -25.832298 -27.09944 5.846858 22.070814 6.5689597 -17.342834 -26.508802

bn1.running_var f4 [136]
00000000: 8b49 a341 437f cd40 c160 9b41 d3b9 ca40
00000010: bd6d de40 ac30 1941 e762 ae40 6abf 9141
00000020: 1b52 d940 725a 8c41 3d67 cd40 9d63 ae41
00000030: 1de7 ee40 1fd9 9741 af6f 1041 c4d6 0541
00000040: 3fe7 ef40 7f57 ee40 ba06 f240 c153 c941
00000050: 6502 bc41 cdbe c140 2779 f340 7e56 0a41
00000060: 56a7 eb40 8eb9 1641 37c2 4a41 8370 c041
00000070: 5ffa b240 e8ef bf41 5bbe 0341 975a 1c41
00000080: 8821 b040 4614 6841 b054 5841 1609 0241
00000090: 4dc3 de41 17f3 ab41 49b5 8c41 fb9b 0b3f
000000a0: 02af d840 966b cc40 119d f540 0b70 8a41
000000b0: bdaf a441 2ac6 e740 479d fe40 7975 dc40
000000c0: 82a5 fc40 c51d b141 7835 ef3f 7d23 6041
000000d0: 11df da40 da2e 4941 4967 d840 6702 9841
000000e0: 41dd b341 c4b2 c140 be04 dc40 4395 d241
000000f0: 7c16 1841 96e8 ff40 bf57 0440 25c8 9f41
00000100: 2427 e940 df68 ca40 a634 d740 80e5 8740
00000110: caa2 9641 b752 0341 1c7f ca40 fbc4 6441
00000120: 7222 bb40 9382 d441 2a8c 9341 2b5f ad41
00000130: 888a 7f41 3845 2241 2056 9741 3ccc f240
00000140: 7cde aa41 8cf6 8d41 f95c 7341 0629 d940
00000150: 1dbb ec40 440b a740 1800 b440 2521 6441
00000160: 1112 f940 b52c df40 c805 b041 46b6 fd40
00000170: 5a23 e040 5545 c740 eb71 db40 fb96 f241
00000180: 77d1 9041 323c fd40 04df 0f41 6be2 be40
00000190: 87fc cd41 1864 c241 27ed a541 cad3 3c41
000001a0: 1b81 dd40 2772 c940 8c4e e940 41de 9341
000001b0: ee92 b640 0d71 9d41 0a1a b741 d124 e540
000001c0: fd5d b541 32dc c640 68ac b841 4fd1 0741
000001d0: 1cea b541 b9cb e440 9f91 1441 b19a 1541
000001e0: 5ef3 fd40 670e f840 4368 1b41 9cb1 2241
000001f0: 61a8 1641 2b27 b441 112a df40 be9e ec40
00000200: 55f7 8d40 bcf5 a041 be02 9c41 a9f0 dd40
00000210: 4e77 cb40 3f2e c040 79d6 8d41 4031 c741
20.41091 6.421785 19.422243 6.3351836 6.950896 9.574383 5.449573 18.218464
6.7912726 17.544163 6.4188523 21.79864 7.465712 18.981016 9.0272665 8.364933
7.4969783 7.4481807 7.563321 25.165895 23.50117 6.054541 7.608539 8.646116
7.3641768 9.420301 12.672416 24.054937 5.593063 23.992142 8.2339735 9.772117
5.504093 14.50495 13.520676 8.127218 27.845362 21.493696 17.588518 0.5453488
6.7713633 6.388133 7.675423 17.304708 20.58581 7.24294 7.956699 6.88934
7.8952036 22.139536 1.8688192 14.008664 6.83973 12.573938 6.762608 19.001173
22.483034 6.053072 6.875579 26.322882 9.505489 7.997142 2.0678556 19.972727
7.286028 6.3253016 6.725177 4.246765 18.829487 8.207694 6.3280163 14.298091
5.8479548 26.563757 18.44344 21.671469 15.971321 10.141899 18.917053 7.587431
21.358635 17.745384 15.210198 6.7862577 7.397841 5.220125 5.6250114 14.258092
7.7834554 6.9742074 22.002823 7.9285 7.0043154 6.2272134 6.857656 30.32372
18.102278 7.913598 8.991947 5.965139 25.748304 24.298874 20.740797 11.801706
6.92201 6.2951846 7.2908382 18.483522 5.7054358 19.6802 22.887714 7.160744
22.670893 6.2143793 23.084183 8.488601 22.739311 7.1498685 9.285552 9.350266
7.935958 7.751758 9.7129545 10.168362 9.416108 22.519125 6.973885 7.3943777
4.436442 20.119987 19.501339 6.9356275 6.3583136 6.0056453 17.729723 24.899048

fc1.weight f4 [68, 136]
00000000: fc10 6fbf 609a b6bf 878c 16bf 4e51 9fbf
00000010: 83bf a0bf 51a9 893f 436f fd3d 9d6e da3e
00000020: e2e0 e7bf dd2f 033f 67d7 19c0 d6f6 e7bd
00000030: 31fc 04c0 b3ab 6d3f 078f 633f 390c 1ec0
00000040: e3ed e3be 2ffd 5bbf 3255 9abf 0d52 31bd
00000050: db77 373f f6c0 3ebf 8978 afbf 3d6d fcbd
00000060: 61c8 f8bf beec ea3e f043 3fbf ae4b 1c3f
00000070: 6237 8cbe e9f1 b83e 2d99 6f3e 4939 f33f
00000080: d19b 2cbf a712 36bf f756 233f 3457 2abf
00000090: 1728 5abf 7e35 1c3f 2572 0b3f bad9 eabf
000000a0: c938 16c0 7cf6 9abf c393 52bf 774d ad3e
000000b0: 4977 353f 4a13 12bf f061 01c0 1a8b 25bf
000000c0: c41a ddbf b5d1 24bd 8c97 a5bf 844e 493d
000000d0: b9f1 94be 8878 eebe ee29 dabf da99 cc3e
000000e0: 41ac b9bc bca9 3dbf 5656 bdbf 014b 06be
000000f0: 4c25 273f 29a0 1ec0 2cc1 e1bf eac4 e43e
00000100: 5c39 ccbf 12be e1bf e2c8 8bbe 19ab c1bf
00000110: bf9b 19bf 28ea 15c0 8350 98bf 331e 4e3e
00000120: 34e7 d53f c3a3 99be bcef 2abf f839 ec3e
00000130: 2cc3 a2be ee67 f2bf 668c 82bd 4483 b5bf
00000140: 5c37 70bd 8225 ca3e b440 763e 41c5 7dbf
00000150: 5b0c 98bf 75dd 58bf 73b8 83bf 439e 973f
00000160: 5d01 aa3f 2f48 ecbf 12fc 153d 84ec 5cbf
00000170: caea 0ac0 f55e b4bf d7a7 49bf e853 eabe
00000180: 9eac 263f a0dd d4be 6b29 c4bf e366 9fbd
00000190: aa7f 47bf 1822 5c3f 2e58 e33e 5c62 fbbd
000001a0: 76d3 bbbf c465 2dbf 8558 d5bf 0fc7 393e
000001b0: 55e7 31bf b434 f03e 61c9 a6bc 74f7 4bbf
000001c0: 8b57 393f c3c1 a43d e996 23be 76c2 a4be
000001d0: db3f fd3d b521 cdbf 906e ab3e f81a 41c0
000001e0: 0530 abbe c156 ffbf d2f0 1cc0 ed5d 433e
000001f0: 0031 813e ff42 443f 564d c4bf 7d22 97bf
00000200: 146e 2abd d66a 2d3f 2a4d 0c3e 4a0f a2bf
00000210: bca7 b6bf 664f 413f 3c80 d43e 350a 8dbe
00000220: 1df1 b2bd 3660 0d3f 2236 6cbf 68a8 223f
00000230: abcd 933e 97b9 043f 03f7 933c c3c6 56bf
00000240: 081e 8cbe 6f3b 23be 2e3f a43f d455 8abf
00000250: 33f8 77be e922 f5be a22f f7be 95fc a83f
00000260: f661 923f e3a7 84bc 2a34 7a3f 5b82 12be
00000270: ecc9 82bf 23bc ef3e c808 323f 24be cd3e
00000280: ef5d 75be d377 52be 3496 673d 7a81 19bf
00000290: 89c3 fb3f 61c4 0fbf 5f60 c03e 23a7 fe3e
000002a0: 5ca0 ad3e d4eb 1dbf 0b51 b93d 065c ef3e
000002b0: ba5c b4bf b6b8 a53d 8d2f 60bf 2f18 a140
000002c0: 6523 4a3e 687e a6bc 8bb3 3a3e 215d ddbe
000002d0: 6ca4 97bd cf48 293f 21bc ee3e 267d e33f
000002e0: df8a 03bd 6d3e 793e 2a63 653e e69a e43c
000002f0: c9c5 d23d 3344 9cbd d236 253d 6217 dbbc
00000300: 4b64 e3be 605b 153f a623 66be 50bb 55bf
00000310: 0337 963e 8099 543f 11b0 373e 29d5 48bd
00000320: 32d4 043f 2bee 663d f412 8b3e 20cd 263e
00000330: c24f 3ebf 5c70 76be ba81 433e cba3 73bf
00000340: 5d2e 1b3f 16e8 44bf 6352 3dbf 44c5 16bf
00000350: ac8b 4fbe 4baa bf3e 2767 2dbe 6ad4 f93f
00000360: 7ba1 e03d ca60 81be 8d04 6abf f3f6 663f
00000370: 4761 903f c9e9 a53f c4aa 573d c0cc 413e
00000380: 1904 1b3f a4c6 2abe fc90 cdbf 52d9 8b3f
00000390: 5f93 2a3e cd3d ad3d d511 423c 1994 92bf
000003a0: 26d1 a23c 9414 0d3f e3cd bf3f 040a c93f
000003b0: e9a8 acbe e1ed 14be 87f6 7cbb 097c 0bbe
000003c0: 4a08 1f3e 5d03 163f 998e 913e df91 2abe
000003d0: 027a 963e e5b1 14bf 9c80 303e 64d9 b2bd
000003e0: 3e0d b8be 6953 513f fc5f 94bf 1a97 97bf
000003f0: 119f bebf 205d b63e 2842 07bf c109 943d
-0.9338529 -1.4265862 -0.5880818 -1.2446687 -1.2558445 1.0754796 0.12374737 0.42662516
-1.8115504 0.5124491 -2.403772 -0.11326377 -2.0778925 0.9284012 0.8889012 -2.469496
-0.4451743 -0.859332 -1.205725 -0.04329114 0.7166726 -0.74513185 -1.370866 -0.12325523
-1.9436151 0.45883745 -0.7471304 0.6105298 -0.27386004 0.36122063 0.23398276 1.9001857
-0.67425257 -0.7112221 0.6380457 -0.6653931 -0.8521742 0.6101912 0.54471046 -1.8347695
-2.347216 -1.2106471 -0.82256716 0.33848163 0.7088514 -0.5706068 -2.0216026 -0.6466538
-1.7273793 -0.040239055 -1.2936873 0.049147144 -0.2909067 -0.46576333 -1.7044046 0.3996113
-0.022665145 -0.7408712 -1.4791973 -0.13114549 0.65291286 -2.4785254 -1.7637076 0.44681484
-1.5955005 -1.763613 -0.273017 -1.513034 -0.60003275 -2.3424168 -1.189957 0.20128708
1.6711183 -0.30007753 -0.66772056 0.46137977 -0.3178953 -1.8937967 -0.06374435 -1.4180684
-0.058646545 0.3948174 0.2404812 -0.9912911 -1.187877 -0.84712917 -1.0290664 1.1845173
1.3281666 -1.8459529 0.036617346 -0.86298394 -2.1705804 -1.4091479 -0.7877173 -0.4576714
0.6510714 -0.41575336 -1.532514 -0.07783296 -0.77929175 0.8598952 0.44403213 -0.1227462
-1.4673908 -0.6773341 -1.6667639 0.18142341 -0.6949361 0.4691521 -0.020359697 -0.7967446
0.72399205 0.080447696 -0.15975536 -0.32179612 0.12365695 -1.6025912 0.3348279 -3.017271
-0.33435073 -1.994835 -2.4521985 0.19078799 0.25232697 0.7666473 -1.5336101 -1.18074
-0.041608885 0.67741144 0.13701311 -1.2660916 -1.4269938 0.7551178 0.41504085 -0.2754685
-0.08737395 0.5522493 -0.922701 0.6353822 0.2886785 0.5184569 0.01806212 -0.83897036
-0.27366662 -0.15940641 1.2831781 -1.0807443 -0.24215774 -0.47878197 -0.48278528 1.3202082
1.1436145 -0.016193336 0.97735846 -0.14307539 -1.0217872 0.46823224 0.6954465 0.40184128
-0.23961614 -0.20553522 0.05653973 -0.5996319 1.9669048 -0.56159025 0.37573525 0.4973689
0.33911407 -0.6168797 0.09048661 0.46749896 -1.4090798 0.080918714 -0.87572557 5.034202
0.19740064 -0.020323947 0.18232553 -0.43235114 -0.07404408 0.6612672 0.46627906 1.7772567
-0.03211486 0.2434022 0.2240111 0.027905893 0.10291631 -0.076301955 0.040335484 -0.026744548
-0.44412455 0.5834255 -0.22474536 -0.8348894 0.29338846 0.8304672 0.17938258 -0.04903141
0.51886284 0.05637948 0.27162898 0.16289186 -0.7434045 -0.24066299 0.19092456 -0.95171803
0.6061762 -0.76916635 -0.7395384 -0.58894753 -0.20268124 0.3743461 -0.16933881 1.9517949
0.109683 -0.25269157 -0.91413194 0.90220565 1.1279687 1.296197 0.05265309 0.18925762
0.6055313 -0.16677338 -1.6059871 1.0925696 0.1665778 0.08459053 0.011845072 -1.1451446
0.01987512 0.55109525 1.4984707 1.5706182 -0.33722618 -0.14543869 -0.003859909 -0.13621534
0.15530506 0.5859888 0.28429106 -0.16657208 0.2938996 -0.58083946 0.1723656 -0.0873287
-0.35947603 0.817679 -1.1591792 -1.1842988 -1.4892293 0.35617924 -0.5283532 0.07228423

fc1.bias f4 [68]
00000000: a948 1b3d dbe2 18bd 8e18 253d 839d 113d
00000010: 868a 3e3d 7de9 b9bd 8ba7 863d 29c6 983d
00000020: 383e fa3b 7fbe dabc cfa1 6fbb 6082 ebbb
00000030: 4fb2 62bd 9df2 0f3d f323 31bc 4087 67bb
00000040: e14d 38bd a1c7 80bd 1a46 213d ef16 e73c
00000050: b531 e5bc 4c82 00bd 0fd2 cbbc 71d1 473d
00000060: cd1b a2bd 87c5 c3bd fcfb aabd 1442 febc
00000070: e102 ffbb ab2e acbd d618 d3bd 476e 9cbd
00000080: fc3b 873c 06dc 1abd 1dd2 6d3d aac7 fc3c
00000090: ba60 a6bd 3fd0 0fbb d5a7 b1bc bd07 ae3c
000000a0: 299a 79bb e484 81bd cf93 503c eec2 8d3d
000000b0: 80f6 b8bd f447 f9bc 3273 3c3d 5568 fd3c
000000c0: ba1e 98bc 6938 e4bc 6210 2cbc b9e6 44bd
000000d0: 6daf 7e3d 9160 1d3d 96a3 a4bd 87cb cabd
000000e0: 29f4 f1bc 7ce6 873d 533b e23b 20de 753d
000000f0: 9dec cb3c afa3 7bbd 474e 7dbd e073 083d
00000100: 5a34 6e3d 0736 8d3d 4fd9 40bc cc15 b13d
0.03791109 -0.03732572 0.04030662 0.035550606 0.046518825 -0.090777375 0.06574925 0.07459671
0.0076368116 -0.026702164 -0.0036564951 -0.007187173 -0.05534583 0.035143483 -0.010811794 -0.0035328418
-0.044996146 -0.06288076 0.039373495 0.028209178 -0.027977804 -0.03137426 -0.024880437 0.048783723
-0.07915459 -0.0955916 -0.083488435 -0.031037368 -0.0077823256 -0.08407339 -0.103074715 -0.07638221
0.016508095 -0.037807487 0.058061708 0.030856926 -0.08123918 -0.0021944193 -0.021686474 0.021243924
-0.0038086271 -0.06324175 0.012730553 0.069219455 -0.09031391 -0.030429818 0.046008296 0.030933538
-0.018569339 -0.02785893 -0.010501953 -0.048071597 0.062179018 0.03842217 -0.08039014 -0.09902101
-0.02953537 0.06635758 0.0069040447 0.060026288 0.0248931 -0.061435398 -0.06184223 0.033313632
0.058155395 0.068950705 -0.01177056 0.086467355

bn2.weight f4 [68]
00000000: 8838 863f e8b0 a23f 8c77 d23f c2fc 9b3f
00000010: 6b7d ad3f a152 aa3f d87f 943f 62f6 a93f
00000020: 6a45 783f 4c9a 803f ddd9 923f 3cc8 8b3f
00000030: fdf5 923f 8f06 a93f 5b88 8f3f 25b0 853f
00000040: c6ae 713f 33ab 903f 3e73 b23f 43e3 9d3f
00000050: d269 a93f d2f3 953f 5422 a23f 8050 9e3f
00000060: b2c3 cd3f 570d a63f 7243 763f b6af bd3f
00000070: 24e2 8a3f 25c1 a53f 0fe7 b33f 03ef 933f
00000080: 7d73 a23f ba89 8f3f ab5b a23f 4ab9 833f
00000090: 8b40 9a3f f3f0 8b3f 4424 953f e928 833f
000000a0: d785 a53f 0319 343f 198b 8c3f b1cb 813f
000000b0: f3d8 903f b8c3 9c3f 7b8c 873f 086c 833f
000000c0: 4203 9c3f 68e2 953f c4ea b63f ce7a 823f
000000d0: bdbf b53f b477 6b3f 7c1d c73f 0d20 893f
000000e0: 0d9c d13f 5f46 4c3f ec0d 483f 3164 a23f
000000f0: 6e9a 6c3f c7d8 8b3f 60fd 2b3f 6fe6 8a3f
00000100: 97e0 f73f b562 613f 57bd 8b3f ed30 853f
1.0486002 1.2710238 1.6442733 1.218651 1.35539 1.3306466 1.1601515 1.3278315
0.9698092 1.0047088 1.1472737 1.0920482 1.148132 1.3205127 1.1213487 1.044438
0.9440731 1.1302246 1.3941419 1.233498 1.3235419 1.1715033 1.2666726 1.2368317
1.6075346 1.2972821 0.96196663 1.4819248 1.0850263 1.2949568 1.4054888 1.1557316
1.2691494 1.1213906 1.2684225 1.0290921 1.2050947 1.0932907 1.1651692 1.024686
1.293147 0.70350665 1.0979949 1.0140287 1.1316208 1.2247229 1.0589746 1.0267344
1.2188494 1.1709719 1.4290395 1.0193727 1.4199139 0.9197953 1.5555873 1.0712906
1.6375748 0.7979488 0.78146243 1.2686826 0.9242314 1.092553 0.67183495 1.0851573
1.9365414 0.8804124 1.0917157 1.0405556

bn2.bias f4 [68]
00000000: a15d 91be 86ca 42be 0bbb 0bc0 43e9 fcbe
00000010: a436 cabf 4e42 c2be 31b6 efbe ceb9 3cbe
00000020: 3a24 84be 4db3 14bf cb3f febd b2ef 31bf
00000030: 5530 bcbe ef01 c1be d4ef 97be e3e9 c5bf
00000040: 83e1 02bf 0a17 9abe eeb0 4fbe 0cdd 82be
00000050: bd31 fabe 6a0f 18bf f9fb bebe cc30 8cbf
00000060: 7c71 febf b2d0 debe 39d4 cdbe eb27 89be
00000070: 636c cdbe 4bf9 b4be 86db 07bf 4c11 8cbe
00000080: 676a 93bf c18b 283d 53b1 b5be 0426 88bc
00000090: 3e58 83be a906 efbe c22f aebf 345b 01bf
000000a0: 11a8 bcbe ab85 ce3e 63cd f8bd 76d3 a1be
000000b0: 29d5 573d 1618 82bd 23f8 18be fa65 c3be
000000c0: 3eb5 84be b2ae 6fbf f76f cbbf 17e9 19bf
000000d0: 00ee d1bf dce3 ca3e 571d fdbf 796a 15bf
000000e0: 9fc4 3ebf f106 963e 0a8e 26bf 3f78 4dbe
000000f0: 4ca6 2dbf 2fb5 9dbd 1d2e e73e bb62 6cbe
00000100: fd8c afbe bfa2 bdbf bf7f 01bf 0ca5 d5be
-0.28391746 -0.19022569 -2.1832912 -0.49396715 -1.5797925 -0.3794121 -0.4681869 -0.18430254
-0.2580889 -0.5808609 -0.12414511 -0.6950637 -0.36755624 -0.37696788 -0.29675162 -1.5462002
-0.51125354 -0.30095702 -0.20282337 -0.2555927 -0.48866072 -0.5939852 -0.37301615 -1.0952392
-1.9878383 -0.43518597 -0.40200976 -0.26788267 -0.40121755 -0.35346445 -0.5306934 -0.27356946
-1.1516846 0.041148905 -0.3548685 -0.01661969 -0.2565326 -0.4668477 -1.3608325 -0.5052979
-0.36846974 0.40336356 -0.121485494 -0.31606644 0.05269352 -0.0635225 -0.14938407 -0.3816374
-0.25919527 -0.9362594 -1.5893544 -0.6012129 -1.6400757 0.39626968 -1.9774579 -0.5836559
-0.7451877 0.2930217 -0.65060484 -0.20065401 -0.67831874 -0.07700574 0.4515237 -0.23084538
-0.34287253 -1.4815291 -0.5058555 -0.41727483

bn2.running_mean f4 [68]
00000000: 4f53 11c1 2efc 933f 69f5 b7c0 3d79 8cbf
00000010: 1570 b1c0 b914 3dc0 3dcf f2c0 0550 af3f
00000020: 5a38 f7c0 7efb 06c0 9ec9 23c0 2825 1ec1
00000030: 3d18 e9c0 8042 adc0 6013 e9bf 26b8 c1c0
00000040: f608 4bc0 dae2 07c1 46c0 7dc0 a319 77c0
00000050: 184e 34c0 a45a 65c0 45cb 89c0 64e4 20c1
00000060: 908d 45c1 c9c2 d7c0 55a5 18c0 89eb 19c0
00000070: 3d18 10c1 3352 61c0 2eb9 3ac0 b3d7 01c1
00000080: 4e52 41c1 fc46 87c0 0ac8 dfc0 6d27 2fc0
00000090: 40ae fcc0 ec9d 14c0 b225 75be d511 e8c0
000000a0: a997 16c0 ee01 d1bf ad05 0fc1 11fd dfc0
000000b0: 9d03 b6bf f799 4bbf c6c4 0bc1 f1c0 cdc0
000000c0: 885f 58c0 c893 34c1 3b0d 43c1 b0a5 5abf
000000d0: 2a68 44c1 24e6 9cbe a8d2 37c1 661c 59be
000000e0: 0d1d cdbf 5095 9540 101b 313f 0ce8 2f3e
000000f0: 1a62 0cc1 16f3 73c0 a4d3 053f f5c8 e8c0
00000100: 79d9 58c0 1c8f ae40 1c08 bdc0 44d2 c5bf
-9.082839 1.1561334 -5.7487073 -1.0974499 -5.544932 -2.9543898 -7.5877976 1.3696295
-7.725629 -2.1090999 -2.5591807 -9.884071 -7.284209 -5.4143677 -1.8209038 -6.053729
-3.172422 -8.492884 -3.9648604 -3.8609397 -2.8172665 -3.5836573 -4.306063 -10.055759
-12.347061 -6.7425275 -2.385091 -2.405001 -9.005918 -3.520642 -2.9175525 -8.115161
-12.082594 -4.227415 -6.993169 -2.7367814 -7.8962708 -2.3221388 -0.23940161 -7.252177
-2.3530066 -1.6328714 -8.938886 -6.999642 -1.4219853 -0.79531807 -8.73554 -6.4298024
-3.3808308 -11.286079 -12.19073 -0.8540907 -12.275431 -0.30644333 -11.48893 -0.2120224
-1.602449 4.6744766 0.6918192 0.17178363 -8.773951 -3.8117118 0.5227606 -7.274531
-3.3882735 5.4549694 -5.90724 -1.5454793

bn2.running_var f4 [68]
00000000: d6ce 9d42 93b3 7d41 2399 4642 5696 be41
00000010: cba8 2242 279a 8641 52db bf42 976a b641
00000020: f6c4 1542 d8e5 9341 690b 9c41 b725 b442
00000030: 34cd d441 df8d 6e42 2ff4 7141 9322 b941
00000040: d7a4 ad41 7c5d a942 293d db41 fb2d c041
00000050: 9de4 6b41 c278 c741 1b5d ab41 e10d e242
00000060: 882e bb42 0377 8d42 b725 9241 caab d741
00000070: 290b 9342 1176 b341 88ab b541 785e 1b42
00000080: c36e f342 e1c4 cf41 0458 a342 843e aa41
00000090: cc49 9642 045f d141 b1d6 8f41 d460 ba41
000000a0: 2f07 8b41 2e13 c741 3f37 9542 593e 3a42
000000b0: 0813 8841 8431 8c41 a907 8e42 b2df 0a42
000000c0: baf7 dc41 6714 c042 af34 d142 38ae bb41
000000d0: 11bd d142 31a9 c541 3b5e 9f42 181f 8741
000000e0: d364 b941 caa4 ae41 d60c 3c41 6219 a041
000000f0: 178e 8d42 e989 d241 eddc bf41 b57b 1742
00000100: 7f05 b941 efda ba41 d7fa 0142 8b30 5041
78.90398 15.856341 49.649548 23.823406 40.664837 16.82527 95.92836 22.802046
37.442345 18.487228 19.505571 90.07366 26.600197 59.638546 15.122115 23.141882
21.705488 84.68259 27.404863 24.022451 14.743314 24.933964 21.420462 113.02711
93.59088 70.732445 18.268415 26.958881 73.5218 22.43265 22.708755 38.842255
121.71633 25.971132 81.671906 21.280525 75.144135 26.171394 17.97983 23.29728
17.378508 24.884365 74.6079 46.560886 17.009293 17.524178 71.01496 34.718452
27.62096 96.03985 104.6029 23.460068 104.86927 24.707613 79.684044 16.890182
23.17423 21.830463 11.753134 20.012394 70.77752 26.317339 23.982874 37.870808
23.127684 23.356901 32.49496 13.011851

fc2.weight f4 [34, 68]
00000000: ad50 c2bd d4b2 053e 272e e93f f7f2 813e
00000010: ea40 c4bc 0339 86bf 4262 093b 0ff1 ea3e
00000020: 32dd 8c3d b8b8 a23f da44 32bf ec8f da3d
00000030: b4f6 2a3f 5210 4cbe f5db 18bf 4198 a73e
00000040: dacf 903f 6baf 523d b307 d7bf a900 62bf
00000050: cc42 febf 7771 c03f 2c27 79bf e1c1 cc3d
00000060: eddc b1be 5221 463e e8af 67bf 6167 bf3e
00000070: bfa9 eb3d 43d7 31bf 03b9 94be 2b88 8e3e
00000080: e0be b8be 4254 59bf 2c0b 8e3d ee1e 81bf
00000090: d891 453e 879f b83e 969d 663f 5ef7 9ebe
000000a0: e294 76bf d15f 36bf e58e c5bc c8d4 583e
000000b0: e192 0abf 2ccd 30bd 5659 983e 7104 9d3e
000000c0: 2d20 a6be 6512 36be fa14 59be 5792 6f3e
000000d0: c15c 4cbf 2b29 9fbf fd5d 463f ca88 b2bf
000000e0: 0079 a23f 18d4 a0bf 2626 b9be 2fdf 3b3f
000000f0: c011 2cbe ff8d 91be 27a8 82bf 82e5 cebe
00000100: 5f56 d7bf 7d70 29c0 fde0 4c3f 325b 00c0
00000110: 422b 81bf a1ee 643d 74f6 f2bf fb7c 1c3f
00000120: 1585 33c0 a802 133f 5bf9 a2bf 9b49 543e
00000130: c522 e2be 1380 913f af10 013f cca4 35bf
00000140: 0322 cbbe 57a6 ccbf fa22 ee3e ab69 0fc0
00000150: 003e 3f3f e237 bdbf 3d43 f93e 810a 483f
00000160: d6f4 293f 6a01 5a3f 93a1 9c3d b0ad 9bbf
00000170: ea52 88c0 4673 c1bf a2ab 473f 91fa 2b3f
00000180: ca9a 18bf 2112 a43f d7e7 1b3f 8477 a7bf
00000190: 282f 14c0 8984 903e 3643 babf 226a 293e
000001a0: 8357 e7bf c59a fd3e 02bf 0940 29d9 10bf
000001b0: 4c84 053f f9be 9a3d 6587 81bf 42b3 82bf
000001c0: c359 473e 69f0 953e a315 9abf c558 913f
000001d0: 9d8d 5a3f 4977 46bf 7984 1cc0 541c 133f
000001e0: b08e 4ec0 8f0b 9abe 66fe 5dc0 381c d83e
000001f0: 18be 603d 2924 593e 6b93 4e3f a897 9e3e
00000200: 4024 56bf 1b0f be3e 6953 8e3c a694 68bf
00000210: 790b 313f dc0e a73f f1f3 a13f 47e9 a63e
00000220: cdd7 0f3f 29fe 383e 1b94 033f ad0a f9bb
00000230: 6566 f63e 44c5 4b3d 034f 0d3f c449 b53d
00000240: 44d8 1f3f 94be 263e 822b 5b3c 7c1e 3b3f
00000250: 3f3e 693f 31ca f23e 4902 d63c 747e e53f
00000260: 1749 023f d95e a73e 1752 88be 7c7e 97be
00000270: 03e3 39be 3422 0d3f df07 04bf 9a9e 983f
00000280: ff12 a940 839f fb3d a4ee f5be 4aa7 6d3e
00000290: 2e2c 303f 1977 36be 97c8 8d3d 5cb1 013e
000002a0: 9fae d23f df4b 94be 8107 98bc 4453 71be
000002b0: 3ab8 363f f338 bd3d 6931 e9bd 7936 0fbe
000002c0: 8595 163d f4d8 cabe 2610 f53e 6f60 793e
000002d0: 7798 aebd 6198 26bc a30d 3f3e 2a4f 463f
000002e0: 01ab e6b9 d5ff d73f 6ce2 4740 bee3 8dbe
000002f0: 9076 9040 d2bf c4be fb3c fb40 d7e3 90be
00000300: 4f28 a03e c35e 01bf e909 f9be 0fd0 673e
00000310: 279a 993f 23e3 8cbe 8932 37bf c7d3 853e
00000320: 7e11 60be 3b06 833d 5ebf af3f 41e4 62be
00000330: 7960 97be af0f a93e 2a91 0ac0 9601 d73e
00000340: 9609 5cc0 cdfa 2a3f fd47 41bf 9aa1 d93e
00000350: 5c7e 02bf 9774 423f 6fe7 ab3d d1a3 64bf
00000360: 4744 cdbe 3dea a5be b6c8 ee3e 9fbc e7bf
00000370: 1cc5 2a3f 102a 3bbe e660 0b3f 80ec 1e3f
00000380: 081a 143f 97dc 043f c3cd 7b3e 80de 0ac0
00000390: b792 fdc0 72c1 d7be 7968 ca3e cb79 233d
000003a0: 9840 ebbe 1842 4d3f 114d fd3e 70e7 b1be
000003b0: 1626 2dc0 67eb 5d3e 337d cfbe 3d79 883e
000003c0: 49cd 25be 6e36 3f3f 5771 b13f 3db4 b8be
000003d0: 66f0 153f 94a1 073f 392a 4ebe 5636 52bf
000003e0: cf99 9f3e 6d45 003f d99d eebe 200a 82be
000003f0: 0acf 303f d561 94bf 8fa5 95c0 8893 263f
-0.09488044 0.13056499 1.821721 0.2538068 -0.023956735 -1.0486149 0.0020963107 0.45887038
0.06878127 1.2712622 -0.6963631 0.10671982 0.6678269 -0.199281 -0.5971063 0.32733348
1.1313431 0.051436823 -1.6799225 -0.8828226 -1.9864135 1.5034627 -0.97325397 0.09997917
-0.34738865 0.19348648 -0.90502787 0.3738356 0.11506986 -0.6946909 -0.29047403 0.27838263
-0.36083126 -0.8489419 0.069357246 -1.0087564 0.19293916 0.3605921 0.9008421 -0.310481
-0.9632093 -0.71239954 -0.024115989 0.2117492 -0.5413037 -0.043164417 0.29755658 0.3066745
-0.32446423 -0.17780454 -0.21199408 0.23395668 -0.7982903 -1.2434438 0.77487165 -1.3947995
1.2693176 -1.2564726 -0.36161917 0.73387426 -0.16803646 -0.28428647 -1.0207566 -0.40409476
-1.6823233 -2.6474907 0.80030805 -2.0055661 -1.0091326 0.055891637 -1.8981462 0.61128205
-2.8049977 0.5742593 -1.2732347 0.20731203 -0.44167152 1.136721 0.5041608 -0.70954585
-0.39674386 -1.5988263 0.4651106 -2.2408245 0.7470398 -1.4782679 0.4868411 0.7814103
0.66389215 0.8515841 0.07648005 -1.216238 -4.2601213 -1.5113304 0.77996266 0.6717921
-0.5961119 1.2818033 0.60900635 -1.3083348 -2.3153782 0.28226116 -1.4551761 0.16544393
-1.8073581 0.49532142 2.1522832 -0.5658136 0.52154994 0.075559564 -1.0119444 -1.0210955
0.19467835 0.2928498 -1.2037853 1.1355215 0.85372335 -0.77525765 -2.4455855 0.574651
-3.227459 -0.30086944 -3.4686522 0.4220903 0.054868788 0.212052 0.8069369 0.3097508
-0.83649063 0.371209 0.017373757 -0.9085182 0.6915813 1.305141 1.265257 0.3259985
0.5618866 0.18065704 0.51397866 -0.0076001496 0.48124996 0.049748674 0.5519869 0.0885196
0.6243937 0.16283637 0.013377072 0.7309339 0.91110605 0.47419885 0.026124137 1.7929215
0.50892776 0.3268955 -0.2662513 -0.29588687 -0.18153004 0.55130315 -0.5157451 1.1923401
5.283569 0.12286284 -0.4803363 0.23208347 0.6881741 -0.1781887 0.06923025 0.12665313
1.645954 -0.28964135 -0.018558266 -0.2356692 0.7137486 0.09239378 -0.11386377 -0.13985623
0.036763687 -0.39618647 0.47863883 0.24353193 -0.08525174 -0.010168166 0.18657546 0.77464545
-0.00043996426 1.6874949 3.1231947 -0.27712816 4.514473 -0.38427597 7.851194 -0.28298828
0.31280753 -0.5053522 -0.48640373 0.22637962 1.2000169 -0.27517042 -0.71561486 0.26138136
-0.21881673 0.06397673 1.3730276 -0.22157384 -0.2956579 0.33019778 -2.16511 0.41993397
-3.438085 0.6678894 -0.7550047 0.42506105 -0.5097406 0.7595915 0.08393752 -0.89312464
-0.40091154 -0.32405272 0.46637505 -1.8104438 0.66707015 -0.18277764 0.5444473 0.6207962
0.5785222 0.51899093 0.2459021 -2.1698303 -7.9241595 -0.42139775 0.3953283 0.039911073
-0.4594772 0.80178976 0.4947286 -0.34746885 -2.7054496 0.2167183 -0.40525207 0.26654997
-0.16191591 0.7469243 1.3862714 -0.3607501 0.58569944 0.52980924 -0.20133294 -0.8211416
0.31172034 0.50105935 -0.46604803 -0.2539835 0.69065917 -1.1592356 -4.67646 0.65068865

fc2.bias f4 [34]
00000000: 87b0 463c 1faf 92bd 0161 853d 72ef 31bd
00000010: 6acb 023e 3223 ba3d 2b04 8e3b dcce ef3d
00000020: e0c0 e4bd a341 9bbc cb63 5c3d 614f aebd
00000030: 0dde 743d 9cec 30bd 203e 6e3d 9357 8a3c
00000040: 5065 2c3b 4ee6 c13d cc43 b2bd 1f3c 4bbd
00000050: 6d91 e33d a273 dabd 4708 5b3c 0282 693d
00000060: b42e 793d cff6 a9bd 7e8d 97bd dd92 b7bd
00000070: a4db d7bd b389 8d3c 186e 62bd e31e ddbd
00000080: 84fa aa3a e1bf aa3d
0.012127048 -0.07162308 0.06512643 -0.043441243 0.12772909 0.09088744 0.004333993 0.11709377
-0.111696005 -0.018952196 0.053806107 -0.08511234 0.059782077 -0.0431944 0.058164716 0.016887462
0.0026305504 0.09467755 -0.087043375 -0.049617883 0.11111722 -0.106665865 0.013368673 0.05700875
0.060835555 -0.08299028 -0.07400034 -0.08963559 -0.1053994 0.017277574 -0.055280775 -0.10796907
0.001304463 0.08337379

bn3.weight f4 [34]
00000000: ac3b bb3e adb0 c13e eb3b 8c3e 84ce c03e
00000010: 9aa4 c83e bbf6 fa3e fd3a de3e 7f1b 7b3e
00000020: c48c f13e 7b2c 753e 52ab b83e 23be df3e
00000030: 3c11 673e baab 233f eb9b ca3e 378e d73e
00000040: c222 bb3e 7170 d83e 752b 7d3e 043a 823e
00000050: 2177 f33e 436d ce3e 8f98 923e 3cb8 f23e
00000060: 8be1 6b3e a645 c63e 5be6 753e 2abf e33e
00000070: 834c e43e 06f9 e73e b5fd 2e3f e270 8f3e
00000080: 1cd8 d13e 3eea 7d3e
0.36568964 0.37830105 0.27389464 0.3765756 0.3918808 0.49016365 0.4340438 0.24522208
0.47177708 0.23942749 0.36068207 0.4369975 0.22565168 0.6393391 0.3957208 0.4210069
0.36549956 0.42273286 0.24723609 0.25434887 0.47551826 0.40317735 0.28632018 0.47406185
0.23035257 0.38725013 0.24013655 0.44481784 0.44589624 0.45307177 0.68355876 0.2801581
0.4098519 0.24796388

bn3.bias f4 [34]
00000000: 9cad 5abd 223d 433e 7421 aa3d 0690 5f3e
00000010: 18b5 763e 1a83 97be 38d0 10be 720d 743d
00000020: aa8a 0f3e 0934 993d a496 683e 0e77 933e
00000030: 0062 453d 845d f5be d631 13be d5fc 903e
00000040: 2501 8f3e c820 6e3e c30f 543d d0ea 8f3d
00000050: 3485 d03d 1ee6 3b3e 142a 793c 87ef 673e
00000060: 86a7 a63d 02ca 803e 237b a43d bbc9 36be
00000070: e50b fabd 9d9d 6c3e ba26 02bd ab92 4d3d
00000080: 01a6 953e ca7f 393d
-0.053388223 0.19066289 0.08307162 0.21832284 0.2409252 -0.2959221 -0.14141929 0.059583135
0.1401774 0.07480628 0.22713715 0.2880177 0.048189163 -0.4792291 -0.1437448 0.28317896
0.2793056 0.23254693 0.051772844 0.07027209 0.101816565 0.18349501 0.015207786 0.22649966
0.08137421 0.2515412 0.08031299 -0.17850392 -0.122093 0.23107 -0.031775214 0.0501887
0.29228213 0.045287885

bn3.running_mean f4 [34]
00000000: 8f9d abc0 7795 b8bf a72a ed3f 2adc 913f
00000010: 15b6 2a40 cfa1 b3c0 8c65 13c1 b3bb ef3f
00000020: 2a82 82bf 7117 c73f ce5b e83f d48d bb40
00000030: 1889 b93f 8c13 cbc0 b650 75c0 c66f 6840
00000040: b920 a640 7fe7 c63f 13f4 e83f 00fe ee3f
00000050: 54ab 92c0 378b b3be 8698 d63d fe09 c840
00000060: 88b4 3640 079b 9040 f76d e73f 2269 95c0
00000070: 1ee7 12c1 5aec a840 3d47 c9c0 d186 943f
00000080: 82a5 8040 f3da ea3f
-5.362983 -1.4420613 1.8528641 1.1395314 2.6673634 -5.613502 -9.212292 1.8729156
-1.0195973 1.5554029 1.8153017 5.861063 1.4494963 -6.346136 -3.8330512 3.631822
5.1914945 1.5539397 1.8199486 1.8671265 -4.583414 -0.3506715 0.1047831 6.2512197
2.8547688 4.518924 1.8080434 -4.6690836 -9.181425 5.2788515 -6.289946 1.1603643
4.0202036 1.8348068

bn3.running_var f4 [34]
00000000: 8e4b 5f42 e2e1 d342 c12c 3e42 1bba 5042
00000010: ad7a 1a42 3931 1442 caf3 7142 7b6d 1a42
00000020: 1f9b c842 8515 fb41 17e3 8042 a5f9 4d42
00000030: bc5f 0842 57a4 2642 c4d8 6342 0caa 3142
00000040: 64f4 a342 9670 c542 c898 3142 fd09 1942
00000050: e2de fc42 4df5 d042 8c36 7d42 7556 b042
00000060: 66c1 3b42 fb66 ab42 37eb 0e42 64d7 2542
00000070: 8417 8342 dd9f 9a42 5ed7 9242 394c 4042
00000080: 3f0c 6042 5165 2542
55.823784 105.94118 47.543705 52.181744 38.6198 37.04807 60.488075 38.606915
100.30297 31.385508 64.443535 51.493793 34.09349 41.66049 56.961685 44.41606
81.977325 98.719894 44.3992 38.259754 126.43532 104.4791 63.30327 88.16886
46.938866 85.70113 35.729702 41.460342 65.54593 77.31223 73.42064 48.074436
56.01196 41.34894

out.weight f4 [2, 34]
00000000: 7691 56be f69f 463e 03b8 00be 83cd d43d
00000010: bc7d 3a3e 6629 86be c1f5 4fbe ca62 57be
00000020: 134d 3b3e dad0 35bd f843 1f3e e686 883e
00000030: f09c 1dbe 7444 79be 1efb c5bd 2d8c 8f3e
00000040: eaf5 633e d867 483e 8f9b 1abd 7a00 7ebd
00000050: e487 f03d 7c5f 083d c474 19be 30ff 0f3e
00000060: 266e 7abd 4569 983e d71e 05bd d912 01be
00000070: 66e7 06be 5d63 953d 988c 243e b1c4 14be
00000080: f947 5d3e d989 fabd dbef 733d 22f0 29be
00000090: c58b 2e3e 78cb 81be a9cf 15be 4181 1d3e
000000a0: 6406 de3d 5e65 1c3d bf3e 52be a0c9 533e
000000b0: 332b 5cbe 1208 ddbd 0b75 5b3d c4bf b43e
000000c0: d0d8 353e 68ca 81bd 9f8e dcbd 0c7e 6bbe
000000d0: 47e1 563e 040b 5f3e 3065 91be 8716 a0be
000000e0: d2a7 d23d 0927 55be a62a 353e 62fb 2cbd
000000f0: fff6 6a3e ba07 5d3e da79 1d3e dd6d 9abe
00000100: f67b a5be 4dde 113e fcbc 33be d80f ee3d
-0.20953926 0.19396958 -0.12570195 0.10390761 0.18212026 -0.2620346 -0.20308591 -0.21033779
0.1829112 -0.04438863 0.15553272 0.2666542 -0.15391898 -0.24342519 -0.096670374 0.28036633
0.22261778 0.19570863 -0.03774601 -0.062012173 0.11744669 0.033294186 -0.14985949 0.1406219
-0.061140202 0.29767814 -0.032500114 -0.12604846 -0.13174209 0.07294343 0.16069257 -0.14528157
0.21609487 -0.122333236 0.059554916 -0.1659551 0.17045505 -0.25350547 -0.14629997 0.15381338
0.10841063 0.03818261 -0.20531748 0.20682383 -0.21500854 -0.10792555 0.053578418 0.35302556
0.17758489 -0.06337434 -0.1076939 -0.22997302 0.20984374 0.21781546 -0.28397512 -0.31267187
0.102859154 -0.20815672 0.1769205 -0.042231925 0.22945784 0.21584979 0.15378514 -0.30161944
-0.32321137 0.14244957 -0.1755256 0.11624116

out.bias f4 [2]
00000000: ff1f ccbd 90d8 02bc
-0.0996704 -0.007986203
